MAMLExperiments/src/finetuned_model.pth (torch, 449799 bytes, 10 tensors)

conv1.weight f4 [64, 1, 3, 3]
000000 3b 5c 69 be bb 0a dc 3e e6 4c 03 3f 4f c8 d6 be
       -0.2278909 0.42976937 0.5128921 -0.41949698
000010 78 c5 2b 3c 5b c3 73 3e 6f 97 18 bf ea 86 1e bf
       0.010484092 0.23804991 -0.5960607 -0.6192461
000020 8f 43 2f bf c4 41 5e 3f a6 c5 24 bf 06 6a 4c 3d
       -0.6846246 0.868191 -0.6436409 0.0499058
000030 fb 0f b2 3e 0c 36 60 bf bc 20 c0 bd a1 35 59 bd
       0.34777817 -0.8758247 -0.093812436 -0.05302966
000040 53 81 ac be 7f ed 34 3f 64 96 a2 3d 75 41 18 bf
       -0.33692417 0.7067489 0.07938841 -0.5947488
000050 eb 8b 0f be 07 59 af 3e ab e0 f3 bd 37 fc 75 3e
       -0.14018218 0.3424761 -0.119080864 0.24021994
000060 f1 fe 79 be 5b c3 21 bf ec e6 9e 3f 92 67 2d 3f
       -0.24413659 -0.63188714 1.2414222 0.6773616
000070 37 42 ee bd 55 05 81 bf 0a bb 96 3e 05 60 72 be
       -0.11633723 -1.0079752 0.29439574 -0.23669441
000080 f0 65 c0 be a3 20 59 bf 66 2b 44 be c1 75 3a 3f
       -0.37577772 -0.84815425 -0.1915718 0.7283593
000090 3a 57 32 3e 9a 72 53 be 62 e6 0d 3f c0 55 79 bd
       0.17416087 -0.20649186 0.5542966 -0.060872793
0000a0 4f 33 53 bf 54 ea aa 3e 39 9a aa 3f 28 2a 0b bf
       -0.82500166 0.33381903 1.3328315 -0.543612
0000b0 fa af 01 3f 49 f1 a4 3d ab 33 cb be 0e 48 04 bf
       0.50659144 0.08053834 -0.39687857 -0.51672447
0000c0 9c 92 d2 bd 92 c8 36 3f 91 d4 0f be 6e 59 28 bf
       -0.1028187 0.71399796 -0.14045931 -0.6576146
0000d0 7f c6 69 bd c1 e7 8a 3f 9f d6 6f 3e b5 b5 c9 be
       -0.057074066 1.0851976 0.23421715 -0.39396444
0000e0 e4 92 82 bd b9 9c 69 be 9d 7e 20 bf b5 b8 82 be
       -0.063756734 -0.22813691 -0.62693197 -0.25531545
0000f0 ab 92 80 3f 46 66 10 be aa db 09 3e 81 96 69 3f
       1.004476 -0.14101514 0.13462701 0.91245276
000100 1d ab a1 be 40 8d 8a 3f 33 7e 36 bf 78 79 33 bf
       -0.31575862 1.0824356 -0.71286315 -0.7010722
000110 8e 27 b3 be ce 48 8e 3f 70 e1 b0 be 79 5c 33 3f
       -0.34991115 1.1115968 -0.34546995 0.7006298
000120 1c 5b 03 bf b5 05 54 be de fe ab be 03 fc 2a bf
       -0.51310897 -0.20705302 -0.33592886 -0.6679079
000130 91 a7 9c be 17 9a 70 3c e0 04 d6 be 2c 68 9d 3d
       -0.30596593 0.014685175 -0.41800594 0.07685885
000140 84 78 14 3f 42 8e c1 be 7f 5b 83 be ae e0 b3 3e
       0.5799639 -0.37803847 -0.25655743 0.35132354
000150 90 1c 7a be c7 9e fd be b1 f8 c5 be d8 ca c5 3e
       -0.24424958 -0.495352 -0.386663 0.3863132
000160 43 09 0f 3e 5d b9 a0 be 9e fc 35 3e ec 75 be 3e
       0.13968377 -0.3139142 0.17772147 0.37199342
000170 3e ac 2f bf cd 83 ac 3c d5 a1 bd 3e 8c 0d 42 bf
       -0.68622196 0.021058941 0.3703753 -0.7580192
000180 b1 8a 03 bf dc 44 95 3f 22 28 6f 3d c8 2c 01 bf
       -0.513835 1.1661639 0.058387883 -0.50458956
000190 f2 69 0e bf 7b 98 17 bf be de 68 3e 68 e9 5b bd
       -0.5563041 -0.5921704 0.2274122 -0.05368939
0001a0 54 69 0a be a4 de cc 3e 89 5b 9f 3d 93 5c 97 3e
       -0.13516742 0.4001361 0.07781131 0.29562816
0001b0 90 0e 30 3f c8 39 16 bd 58 a4 82 be 04 70 d9 be
       0.6877222 -0.0366762 -0.2551601 -0.42468274
0001c0 dc 1d 83 be b7 a7 17 bf 8d f8 8d be 41 99 88 be
       -0.25608718 -0.5924029 -0.27728692 -0.26679423
0001d0 b7 1b 48 3e f0 5d 40 3f 73 d5 28 be 78 39 b5 be
       0.19541822 0.7514334 -0.16487674 -0.35395408
0001e0 69 71 fd 3e fb ab d5 be 05 d6 25 bf 06 1c a6 3d
       0.49500588 -0.41732773 -0.6477969 0.08110814
0001f0 9e 04 4d 3d 0e 0f 1b bf dc ff 5f 3f 4f b0 48 bd
       0.05005323 -0.60569847 0.87499785 -0.048996266
000200 80 87 fc 37 c5 ef b3 bd 44 5b 2a bf f6 50 df be
       3.0103838e-05 -0.08785967 -0.6654551 -0.43616456
000210 c3 1f 97 be b9 b6 31 be 2b f6 0d be da 4b 68 be
       -0.2951642 -0.1735486 -0.13863437 -0.22685185
000220 80 70 23 bf 06 56 bc bd cd fd 15 bf be 8d 91 be
       -0.63843536 -0.09196095 -0.58590394 -0.28428453
000230 43 b8 44 3e 5d 3c 08 bf 0d f6 09 bd b5 64 98 3e
       0.19210915 -0.5321711 -0.033681918 0.29764333
000240 8b f6 00 bf 7e 82 fb 3e 37 2d c4 be 15 22 b9 3e
       -0.50376195 0.49122995 -0.38315746 0.36158815
000250 85 1b a6 be 00 cb 2b bf b0 69 c6 be 08 7e da be
       -0.3244287 -0.6710663 -0.38752508 -0.4267428
000260 72 4b f9 3e d1 e1 79 bf bb e8 94 be 29 9d ac 3c
       0.48690373 -0.97610193 -0.2908381 0.021071034
000270 f8 49 08 bf ae 07 d2 bd c0 66 72 3c 23 27 27 bf
       -0.5323787 -0.10255371 0.014795005 -0.6529409
000280 a7 2d 6d 3e ef 8c 18 3f 00 e1 54 bf 9e 6d b0 be
       0.23161946 0.5959005 -0.8315582 -0.3445863
000290 fc 59 b7 3e 1c b1 02 be 7e 99 0c 3f 30 c3 80 39
       0.3581084 -0.12762874 0.5492171 0.00024559489
0002a0 19 5d 47 3f e9 3b 71 3c c6 86 4a bf 4e 04 98 be
       0.7787643 0.014723756 -0.791119 -0.29690784
0002b0 c6 95 dc be 9a e5 01 bf 72 18 b8 be b8 2e fb be
       -0.43083018 -0.5074097 -0.3595615 -0.4905908
0002c0 ea 1c 05 bf b4 62 f2 3e 33 86 fa 3e 46 67 d2 3d
       -0.51997244 0.4734093 0.4893051 0.10273604
0002d0 e1 46 61 bf c6 3f a4 3e 4c 28 80 3e fc e0 14 3e
       -0.8799878 0.32079905 0.25030744 0.1453895
0002e0 19 30 d5 3e ca 35 3a bf 4b 78 c9 3e 6b c4 55 bf
       0.41638258 -0.72738326 0.3934959 -0.83502835
0002f0 bf f5 8a bd be 39 cd be 6a 2e 87 be 30 ae 1d 3f
       -0.067851536 -0.40083116 -0.264026 0.61593914
000300 6c 8e 02 bf cb 71 02 bf 40 2c b1 3e b2 eb 17 bf
       -0.5099857 -0.50954884 0.34604073 -0.5934402
000310 ba 8e 93 bc 2d a5 a7 3e 88 0b 63 3f 7a 4f e5 be
       -0.018012393 0.32743207 0.8868947 -0.44787198
000320 39 8d 4d bf a4 bf e5 3e 4b 10 8e be 58 e3 9a 3d
       -0.80293614 0.44872773 -0.27746806 0.07562894
000330 56 60 2e be fd 80 b8 be 83 7f e9 3e 53 58 c0 3d
       -0.17028937 -0.3603591 0.45605096 0.093918465
000340 f3 12 40 be 19 57 d9 be 8f 01 25 bf 40 c7 c5 be
       -0.18757229 -0.42449263 -0.64455503 -0.38628578
000350 41 00 83 bd 8a 4c 88 be 25 9c 28 3e 8c f7 b1 3e
       -0.06396533 -0.26620895 0.16465814 0.34759176
000360 3b ed 96 3f 73 9a cc 3e 94 72 1e 3f 8a a1 0d bf
       1.1791147 0.39961585 0.6189358 -0.55324614
000370 34 48 66 bf 08 19 6c bf 6f 9d 0b be ac bb 0e be
       -0.89953923 -0.92225695 -0.13634275 -0.13938779
000380 87 aa a8 3e 3c 58 8b bc b6 44 80 3c da 19 d7 be
       0.32942602 -0.017009847 0.015657764 -0.4201191
000390 6d 53 a1 3d 45 b8 00 3f 7a 3d b2 3d 21 9e 80 bf
       0.0787724 0.50281173 0.08703132 -1.0048257
0003a0 a4 5c 9e bd cb 1c 50 3f 5a c4 73 3f cd af e3 be
       -0.077325135 0.81293935 0.95221484 -0.44470063
0003b0 3b 65 40 3f e9 46 80 bf f5 98 3f bf 10 95 20 3d
       0.75154465 -1.002164 -0.7484277 0.039204657
0003c0 56 b1 99 3f 30 42 85 ba 3e 47 47 3e 1d 22 01 be
       1.2007244 -0.001016682 0.1946077 -0.1261067
0003d0 b3 b2 1b bf 6c 57 de 3d 8b d8 07 3b 74 dd 0b bf
       -0.6081955 0.10856518 0.0020728435 -0.54634786
0003e0 9b 59 17 bd 06 c4 2b 3c 58 b3 21 bf 7a 03 ae 3d
       -0.03695069 0.010483747 -0.6316428 0.08496757
0003f0 5a 9b 1d bd 11 60 b2 be 87 fe 4c 3f c1 c5 af 3e
       -0.038478233 -0.34838918 0.8007588 0.34330562

conv1.bias f4 [64]
000000 39 8c 4c 3e fe e9 a7 3e a3 54 9d be 33 51 2f bd
       0.19975366 0.3279571 -0.30728635 -0.042802047
000010 40 c1 e4 bb b6 5a 20 be 7c cf 44 3e 44 fb ad 3d
       -0.006981045 -0.15659603 0.19219774 0.08495191
000020 e0 7c 86 be 8b 6c 98 be 5b ef 59 3d 8e 42 69 3c
       -0.26267147 -0.29770312 0.053206783 0.014237059
000030 22 a6 a9 3d 9f 53 49 3e ff 63 46 3e ea 39 9d 3d
       0.082836404 0.19660805 0.19374083 0.07677062
000040 2f aa 96 3e 8c 70 5b bc 30 c9 f3 bd 5d b6 8e 3e
       0.29426715 -0.0133935325 -0.11903608 0.27873507
000050 79 d0 1e 3e 32 de 68 be 46 c9 92 be 0e 73 7f 3e
       0.15509214 -0.22741011 -0.28669184 0.24946234
000060 24 b6 8c 3e d9 d6 2d be a0 7f 71 be e8 06 ee 3b
       0.27482712 -0.16976489 -0.23583841 0.007264007
000070 16 2f 36 be d9 51 98 3e 65 e3 de 3d 6d f3 77 be
       -0.177914 0.29749945 0.10883216 -0.24213953
000080 26 29 93 be 37 5e 84 3e 8b 39 98 3e d6 3e d2 3c
       -0.2874233 0.2585313 0.29731402 0.025664728
000090 01 17 0a 3e b8 f3 95 be e1 de 8a 3e ff 57 2d be
       0.13485338 -0.29287505 0.27123168 -0.16928099
0000a0 d9 a3 94 3e 76 08 62 bd 8a 6f 87 be ad 7f 8e be
       0.29031256 -0.05518385 -0.26452285 -0.27831784
0000b0 cd fb 74 3e d1 02 05 3d e1 29 7e be ce 3f 05 3e
       0.2392418 0.03247339 -0.24820663 0.13012621
0000c0 42 9b 82 3e 8a 14 77 be f9 1c a0 3d 98 04 73 3e
       0.25509077 -0.24128929 0.07818026 0.23732221
0000d0 f0 7f 96 3d 3a c2 46 3d c5 4f 23 3e 14 d8 27 3d
       0.07348621 0.048525073 0.15948398 0.040977553
0000e0 36 e0 11 3e a5 d6 d1 3d 6c 4d a2 be 68 64 9a be
       0.14245686 0.10246018 -0.31699693 -0.3015473
0000f0 5c de 6b 3e dd 06 a5 3e fa 55 23 3c c6 ba 93 be
       0.23034042 0.322318 0.009969229 -0.28853434

conv2.weight f4 [64, 64, 3, 3]
000000 70 73 58 bc 9a d4 95 bb 09 9b 5d 3b d9 4d 8f bc
       -0.013211116 -0.004572463 0.0033814332 -0.017493175
000010 1c f4 7a bd b9 1d 80 bd 95 d4 cb bd e8 1e c5 bc
       -0.061267957 -0.06255669 -0.09952656 -0.024062589
000020 26 3c c2 bd 7f 13 8a bd 33 8e 87 bd cd 5b 95 3d
       -0.09484129 -0.06742 -0.06618919 0.072929
000030 ca e0 53 3d e8 a7 65 bb 08 b1 0e 3e 6c d1 d9 3d
       0.051728047 -0.0035042707 0.1393472 0.10635647
000040 5e 83 80 3c ca c5 09 3e 10 12 06 3b 92 71 dd bd
       0.01568764 0.13454357 0.0020457543 -0.108126774
000050 54 27 00 3e 93 e0 be 3c 8a f9 21 3c 59 d7 03 3e
       0.12515002 0.023300445 0.009886155 0.12875117
000060 49 94 3c 3e f1 65 01 3c 17 ae d0 3d 8b 22 43 bd
       0.18415941 0.00789784 0.10189455 -0.047640365
000070 74 57 c4 bd 83 ba 7a bc 01 b2 99 bd 2f 37 31 bd
       -0.09586993 -0.015303257 -0.07504655 -0.043265518
000080 77 6d 75 bc 74 f4 1e bc 5a ad ee bc 66 a8 96 bd
       -0.014979712 -0.009701837 -0.029135395 -0.07356338
000090 34 56 ad bb 3e 3b ad bd f3 df ff 3d 9d 14 84 3d
       -0.005289817 -0.08458565 0.12493887 0.06449244
0000a0 90 67 09 3d 22 9a 4d 3e 45 95 05 3e 6e 55 98 3d
       0.03354603 0.20078328 0.13045223 0.074381694
0000b0 be 2d a4 3e ef 85 91 bc 4d 94 58 bd 2d 00 ea 3b
       0.3206615 -0.01776406 -0.052875806 0.0071411342
0000c0 99 99 a5 bd 0b 0e 23 bd 7b ac 5d 3c 3f 0c 1a 3d
       -0.08085937 -0.039808314 0.013529892 0.037609335
0000d0 4d ef 09 3d 69 33 b8 3c ba c1 01 bd 9a b8 96 bd
       0.03367548 0.022485452 -0.031678893 -0.07359429
0000e0 88 13 ea 3d 44 c8 6b ba 78 8e 1b bc a5 62 eb 3d
       0.114295065 -0.00089943805 -0.009494416 0.11493424
0000f0 40 c4 66 b8 82 54 e1 bc a6 93 d2 3d da fb f5 bb
       -5.5019045e-05 -0.027506117 0.10282068 -0.0075068297
000100 3a ce 7b bd e1 6e 03 3d da eb 23 bd 9a 41 ac bd
       -0.06147597 0.032088164 -0.040019847 -0.0841095
000110 07 ad ee 3c ec 21 1a bd 8d e4 f9 bd 4b 1e bc 3d
       0.02913524 -0.037630007 -0.12201796 0.091854654
000120 91 18 14 bd d5 8c 53 bd 91 61 7f 3c 17 c8 49 bd
       -0.03615624 -0.05164798 0.0155872265 -0.049263086
000130 82 30 95 3a b0 f3 a9 3d 9a a8 21 3d 8c a3 05 3d
       0.0011382254 0.08298433 0.03946743 0.032626674
000140 e3 dc 91 3d 2a 46 8e 3c 43 2e 0c bd b2 bd 12 bd
       0.07122209 0.017367441 -0.034223806 -0.03582544
000150 ce 90 f1 3a de da 0e bc d4 a6 c3 bd d8 2d 05 3b
       0.0018429996 -0.008719174 -0.09553304 0.0020321514
000160 82 e1 a1 bb 99 77 ce bd 16 02 b7 bb 3a 47 05 3e
       -0.0049402127 -0.10081405 -0.0055849655 0.13015452
000170 78 37 9a 3d 2d fb 96 3d 98 d8 b3 3d 7e 91 e6 3b
       0.07530111 0.07372127 0.08781546 0.007036387
000180 90 f1 a8 3c 71 12 10 3e 59 04 fc 3a c0 48 9b bc
       0.020622998 0.14069535 0.001922737 -0.018955588
000190 54 56 cd bc 3e 39 12 bc 2e 22 b3 bc a1 19 84 bc
       -0.025065579 -0.00892478 -0.021866884 -0.016125502
0001a0 4b c8 13 3d 49 43 02 3b 81 1d 30 bd 39 7e f3 bb
       0.036079686 0.001987653 -0.042996887 -0.0074308184
0001b0 52 78 32 bc b4 41 5e bd d7 74 0f bc ec c1 35 bd
       -0.010892944 -0.054261878 -0.008755884 -0.04437439
0001c0 07 43 5b bd ae c4 36 bd 3d e7 ca bd c1 b2 8d bd
       -0.05353072 -0.044621162 -0.099073865 -0.0691886
0001d0 35 12 8e bd 8b a5 be bd 1b 56 8a bc ad fe 2d 3d
       -0.069370665 -0.093089186 -0.016886761 0.042479206
0001e0 74 1e 86 bd b9 40 18 bd 56 35 c6 3d 0c ba 2b bd
       -0.06548777 -0.0371711 0.09678142 -0.041925475
0001f0 11 d1 1e bd 4d dd eb 3d 79 e4 f0 bc fc af eb bc
       -0.0387736 0.11516819 -0.02940582 -0.02877044
000200 e4 70 0f bd d4 9c a5 bd d0 1e b5 bd 1f 89 aa bd
       -0.03501977 -0.08086553 -0.08843768 -0.08326935
000210 17 46 51 bd 3e 52 7b bd 21 66 b1 bd 71 88 03 3d
       -0.051092234 -0.06135773 -0.08662058 0.032112543
000220 13 38 42 bd 26 b1 9f 3c 55 8c 65 3d 77 a3 dc 3c
       -0.047416758 0.01949365 0.056042034 0.026933415
000230 ea 83 75 bc e5 0e 29 3c e2 f2 ba 3c 82 58 fe bc
       -0.014985064 0.010318493 0.022820894 -0.031048063
000240 12 99 29 bd e7 9e e6 bc f6 9c cd 3c 26 a4 1f bc
       -0.041405745 -0.028151942 0.025099259 -0.009743726
000250 f5 d6 b5 bd 7f d7 cb bc 98 41 23 3b f6 d0 3f bd
       -0.088788904 -0.02488303 0.0024910923 -0.04683014
000260 5b 73 d7 bd a7 8f 51 3c d4 35 9d bd 4f bb d5 bc
       -0.10520049 0.012790597 -0.076762825 -0.026090292
000270 61 8d b6 3d 32 83 87 3c 69 c2 a4 3d ad bf ce 3d
       0.08913685 0.016542051 0.08044893 0.10095153
000280 0e 16 56 3b 5e c8 09 3e 4b 98 16 be ab 3e 13 be
       0.0032666954 0.1345534 -0.14706533 -0.14379375
000290 d4 00 b1 bd 15 c6 49 bd 67 a3 eb bd b1 cc 05 be
       -0.08642736 -0.04926117 -0.11505776 -0.13066365
0002a0 fb 1c ab bc 8e 8c dc 3a d6 56 ce bc ef 51 d1 bd
       -0.020887842 0.0016826557 -0.025187891 -0.10220706
0002b0 0c d5 9c bd ae 6a 57 bd dd 18 90 bd 57 d8 c4 3b
       -0.07657823 -0.052591972 -0.07035992 0.006007235
0002c0 e5 ff 9f bc b8 69 87 bd 76 ad 56 bd aa d0 11 bd
       -0.0195312 -0.06611961 -0.05241152 -0.03559939
0002d0 da 80 74 3c 2e 23 5f bd bc 20 86 bd ea a1 ab bc
       0.014923299 -0.05447691 -0.06549212 -0.02095123
0002e0 d4 6c 81 bd 09 d7 96 bd 49 e2 88 bd d2 b4 cd bd
       -0.063195854 -0.073652335 -0.066837855 -0.10044254
0002f0 12 09 6e bd 2a 25 b4 3d a3 89 ae bd 71 d5 38 3d
       -0.05811412 0.08796151 -0.08522346 0.04512543
000300 d6 d0 3f 3d 6d 05 40 bb 1e ab e1 3d 68 69 f0 3c
       0.04683002 -0.002930011 0.11018966 0.029347137
000310 e6 5e 7f bd 58 4b cd 3d 0a 24 9c bd ea 48 24 bd
       -0.06234636 0.10024136 -0.076240614 -0.0401086
000320 7f 49 67 3d 92 0a c1 bd cf 0b 38 bd 79 a8 d7 3d
       0.056466576 -0.09425844 -0.044933137 0.105301805
000330 be bd 02 bd 3f ad 2c 3a 56 93 6b 3d 58 4e 96 bd
       -0.031919234 0.0006587095 0.057513557 -0.07339162
000340 30 db 4b bd a8 64 83 bd ad 86 a9 bd f2 98 43 bd
       -0.04976958 -0.06415683 -0.082776405 -0.047753282
000350 d9 e6 60 3c 5f 4f 4b bd 47 9b 93 bc 77 c2 21 bd
       0.013726913 -0.04963624 -0.018018378 -0.039492097
000360 87 65 46 bd 5a 93 61 bd a0 13 9a 3d 0a 5f b4 bd
       -0.048436668 -0.055072166 0.075232744 -0.0880719
000370 90 c6 b4 bd 73 1b f5 bc c7 60 b1 bd 7b 5e d8 bd
       -0.08826935 -0.029920315 -0.08661037 -0.10564896
000380 97 a8 91 bd 8a 8f c5 3b 7a c7 f7 bc cb 41 8e bb
       -0.07112234 0.006029074 -0.030246485 -0.004341339
000390 ec 1c be bc 6b 3e 28 bd 0c 2d 44 3d 8a ba 8f 3d
       -0.02320715 -0.04107515 0.047894523 0.070180014
0003a0 8d b3 d4 bc 7a ae ea 3c c5 49 7b bc f5 82 51 bd
       -0.025964523 0.02864765 -0.015337412 -0.05115028
0003b0 f7 e6 fa 3c 82 86 35 bd ae a4 59 bd 55 b8 b1 3d
       0.03062771 -0.04431773 -0.053135566 0.08677737
0003c0 6d 57 a7 bc d6 f6 f1 bb f9 8e 94 3d 01 f4 d7 3c
       -0.02042743 -0.0073841615 0.07253832 0.026361467
0003d0 1a c3 39 3d 85 00 a3 3d 6c 91 aa bb 79 bd 07 3d
       0.04535208 0.079590835 -0.005205324 0.03313968
0003e0 6d 16 01 3e 1c 7b 3e 3d 51 88 f3 3c f5 0f af 3d
       0.12606211 0.046504125 0.029728087 0.085479654
0003f0 a2 31 75 3c e8 9e bc bd 40 46 2d 3e 36 87 99 39
       0.014965447 -0.092099965 0.1692133 0.00029283174

conv2.bias f4 [64]
000000 d3 60 12 3d a8 3d c5 3c aa 97 d5 ba 4c ee aa bb
       0.03573687 0.024077252 -0.001629581 -0.0052163955
000010 3b 0c 31 3c ae 62 cd 3b 7f 2b e1 3a 04 22 1f bd
       0.010806139 0.006267867 0.00171791 -0.0388508
000020 af 72 58 3c 11 48 6b 3c 07 22 10 bd 8e c8 0a 3c
       0.013210936 0.014360444 -0.0351887 0.0084706675
000030 92 41 ca 3c c7 92 ee 3c c1 c4 1e 3b 9e 61 36 3b
       0.02468947 0.029122723 0.0024226161 0.002782918
000040 97 df 0b 3d ae 53 fd 3b d6 c6 1a 3d 16 58 38 bc
       0.03414878 0.0077309227 0.03778728 -0.01125147
000050 c3 db b3 3c ef b8 b5 bc a8 b8 f7 3c 50 2a 91 3c
       0.021955376 -0.02218291 0.030239418 0.017720371
000060 db 8f 5c 3c df 11 d8 3b f7 a1 33 bb f4 eb 0c bd
       0.013462032 0.0065939273 -0.002740977 -0.03440471
000070 37 61 b9 3b 54 26 08 3d 97 fa 97 3c 41 4e d9 ba
       0.005657341 0.033239678 0.018552108 -0.0016579108
000080 7c e5 f8 bc e2 98 06 3d 09 0f ca bc 71 f5 f7 3a
       -0.030382864 0.032860644 -0.024665372 0.0018917752
000090 1d 33 94 bb 3e d7 df bc 7a b2 87 bb 30 0f 02 bd
       -0.0045226947 -0.027324315 -0.004141149 -0.031752765
0000a0 78 5e dc 3b 19 2d 1c 3d a0 8e 11 bb 7a 62 bb 3a
       0.0067251287 0.038128946 -0.0022210255 0.0014296316
0000b0 f0 77 cf bc 55 b1 6c bc 31 ec ec 3c 87 e9 33 bb
       -0.025325745 -0.014446576 0.028921219 -0.0027452426
0000c0 35 de 19 3c 32 89 5e 3c 3f d1 08 bd c6 b7 1d 3c
       0.009391357 0.013582515 -0.033402678 0.0096263345
0000d0 82 c6 61 ba 7b b4 fd 3c 86 03 bc bc 09 13 38 bc
       -0.0008612649 0.030969849 -0.022950899 -0.011235007
0000e0 89 5e 2f bc fd cc 6e 3c 26 21 f3 bc a0 85 22 3c
       -0.010703691 0.01457524 -0.029678892 0.009919554
0000f0 c6 f1 22 bd bd f9 2b 3c ee 54 18 bd 6a ee ea bc
       -0.039781354 0.010496554 -0.03719037 -0.028678138

conv3.weight f4 [64, 64, 3, 3]
000000 bd 59 43 3c 26 d6 8c 3d 21 f3 85 3d f9 08 b7 3d
       0.011923251 0.06876783 0.06540514 0.08937258
000010 18 8b 65 3d d6 fd ca 3d 1a 27 c0 3c 69 0c 7b 3d
       0.056040853 0.099116966 0.023456145 0.061291132
000020 91 58 c6 3d 28 50 aa 3d b5 66 98 3d 5a 70 2b 3e
       0.096848615 0.0831607 0.07441465 0.16742077
000030 63 ce be 3d e0 ba a8 3d 34 3b a6 3d fa 07 ae 3d
       0.09316709 0.082387686 0.08116761 0.08497615
000040 8b bc d6 3d 57 38 80 3d f1 99 15 bb e0 d6 8d bd
       0.104851805 0.06260746 -0.0022827352 -0.0692575
000050 72 12 26 be cf 0b 63 bb 36 b1 06 bd c9 23 1e bd
       -0.16217974 -0.003464449 -0.032883845 -0.038608346
000060 d7 0d 33 3d 40 b6 75 bc 88 0a bd bc 39 21 4f 3c
       0.04371437 -0.014997065 -0.02307631 0.012642198
000070 6a f4 f9 bc ac bf c6 3d 53 34 e0 bb 42 36 b6 bc
       -0.030512054 0.09704527 -0.006842175 -0.022242669
000080 7a a9 06 3d 84 16 4b 3c 01 f2 78 3d 0b 56 bc 3d
       0.03287647 0.012395505 0.060777668 0.09196099
000090 84 98 19 be cc 65 c6 bd 62 eb 16 be c0 d8 34 be
       -0.14999586 -0.09687385 -0.14738229 -0.17660809
0000a0 57 57 10 be 17 a3 fc bd 0b 13 c0 bd ff 35 43 be
       -0.14095818 -0.123357944 -0.09378632 -0.19063567
0000b0 b7 89 13 be 42 a2 5c bc d1 a3 dc 3c 85 4e 5b 3c
       -0.14408003 -0.01346642 0.026933582 0.01338542
0000c0 8b 70 55 3d 18 07 98 bc 14 0c 2d 3d c6 c2 81 3c
       0.052109282 -0.01855807 0.042247847 0.015839946
0000d0 11 7b fc 3c cd 60 1d 3d 17 06 99 bd 8e d9 27 be
       0.030820401 0.038422395 -0.07471865 -0.16391584
0000e0 37 21 6c be 2e f6 78 3c e1 1b 91 bc 8f b4 e0 bd
       -0.23059545 0.015195413 -0.017713489 -0.10971939
0000f0 7b a9 a4 3c a3 75 c9 3c 88 a4 8c bd e7 aa 6d be
       0.020100346 0.024592226 -0.06867319 -0.23209725
000100 85 1c 79 be 1b 1f 6c be aa 9a 62 bd 98 24 d2 bd
       -0.24327286 -0.23058741 -0.05532328 -0.10260886
000110 fb 7b 05 be e8 4c 7d 3c 7b 00 43 bc 3c 58 07 bc
       -0.13035576 0.01546023 -0.01190197 -0.008260783
000120 a8 4a 97 3b bf ea 4b 3c ca 2b 6f 3d ca 86 5d 3d
       0.004617054 0.012446105 0.05839137 0.054083623
000130 17 bf 96 bc 82 c1 ce 3d 5d 84 12 3d 64 fe 46 3d
       -0.018401666 0.100955024 0.035770763 0.04858245
000140 3b a1 61 3d 04 bb da b9 1a 8a 8b 3b ea e3 0a bd
       0.055085402 -0.00041719538 0.0042584063 -0.033908762
000150 db 28 b4 bc 49 4b 8b bd 36 1c c0 bd cd 3f 30 bd
       -0.021992138 -0.06801469 -0.09380381 -0.043029595
000160 06 e8 d2 bc 17 80 68 bd a1 cc e7 3d cb 58 b8 3d
       -0.025745403 -0.05676278 0.11318327 0.09001311
000170 7f 52 ab 3d 21 0d 44 3d 11 73 d4 3d f8 dc 0b 3e
       0.08365344 0.047864083 0.1037351 0.13658512
000180 78 ac 64 3d cb 71 df 3d 5e 90 85 3d ea 19 86 3e
       0.05582854 0.10910376 0.065216765 0.26191646
000190 ed 76 87 3e b6 56 6c 3e ca 84 78 3e 6f 6e 7b 3e
       0.2645792 0.23079953 0.24269405 0.24553846
0001a0 e3 8a 4c 3e cc 05 68 3e 94 1b 89 3e 50 af 8b 3e
       0.19974856 0.22658461 0.26778853 0.2728219
0001b0 ea cc 08 3b 10 3c e3 3b c7 b2 88 3d 5f ce df 3d
       0.0020874091 0.0069346502 0.06674724 0.10928034
0001c0 4f 92 42 3d b8 7a 58 3d 57 df ae 3d 0a 78 fe 3d
       0.047502812 0.05285141 0.085386924 0.124252394
0001d0 26 32 cd 3d 57 db 9e 3d e1 38 ca 3d 50 5b 10 3e
       0.10019331 0.077566795 0.0987413 0.14097333
0001e0 57 7b 38 3c d4 ba 83 3c 14 2b dc 3d 56 39 4a 3d
       0.011259875 0.016080298 0.10750404 0.049371086
0001f0 c0 56 2d 3d 9c 43 48 3c 3f ca 22 bc 4b 60 8a bc
       0.04231906 0.012223151 -0.009935915 -0.01689162
000200 62 cd 82 3c d3 9a 56 3d 01 64 2e 3d c6 51 c6 3d
       0.015967075 0.052393746 0.04257584 0.09683566
000210 dc 29 50 3a 9b dc 97 bb 62 4f cf 3d a3 50 84 3c
       0.0007940808 -0.0046344525 0.10122563 0.016151732
000220 81 56 3b 3b 30 b4 ad 3b 6f bc 0d 3d a6 cc 35 bc
       0.0028585496 0.005301021 0.034603532 -0.011096155
000230 69 86 04 3d 6c 08 b5 ba b8 e1 a9 3c 21 0f 4d 3d
       0.032354746 -0.0013811714 0.020737514 0.050063256
000240 95 a8 6e be 14 68 3e be 11 51 81 be 48 71 56 be
       -0.23306496 -0.1859439 -0.2525716 -0.20941651
000250 16 a8 f8 bd dc b5 5b be 58 f0 3f be 3d 59 ae bd
       -0.12141435 -0.21456093 -0.18744028 -0.085131146
000260 73 5b 01 be 04 0b 9d 3d 29 11 a0 3d a0 16 ac 3d
       -0.12632541 0.07668117 0.07815773 0.08402753
000270 49 0d dc 3c d7 5e 6e 3d 26 e0 8c 3d af 2c bb 3d
       0.026861804 0.058195915 0.068786904 0.09139382
000280 bb af 59 3c ba 78 20 3d 2b bb e9 3c c5 7a c2 bc
       0.013286526 0.039177634 0.028531631 -0.023740182
000290 7a ac ce bd dc 3a f5 3d 0e bf 07 3d 47 bd 5d bd
       -0.10091491 0.11974117 0.03314119 -0.054135587
0002a0 63 24 96 3d 34 5e d6 3c 95 e8 ef bc 93 0b 54 3c
       0.07331159 0.026167966 -0.029285708 0.012942213
0002b0 fb 5b b8 3c fb f9 7d 3c 5e 83 c0 bc f0 70 b1 3c
       0.022504797 0.0155014945 -0.02350014 0.021660298
0002c0 ed 89 71 bc fc 49 6b 3d 86 37 4a 3d 6d 9c 21 3d
       -0.014742357 0.057443604 0.049369358 0.03945582
0002d0 6b 28 7a 3d 52 ed a8 3d 90 d4 d4 3d 90 c7 53 3d
       0.0610737 0.0824839 0.103921056 0.05170399
0002e0 9e 52 43 3d 0b bd 28 3d 3b 33 a1 3d bf 6e a9 3d
       0.04768621 0.04119591 0.078710996 0.08273076
0002f0 b6 e9 95 3d 42 7a 36 3d 57 02 21 3d 48 9f 8f 3d
       0.073199674 0.044550188 0.039308872 0.07012802
000300 58 ed e3 bb 76 c3 5e 3d 94 a3 b2 3d 05 95 45 3d
       -0.006955784 0.054385625 0.08722606 0.04823782
000310 95 0f ac 3d c1 c1 39 3e a2 58 c9 bc d0 87 10 bd
       0.084014095 0.18140317 -0.024578396 -0.03528577
000320 08 8d 61 3d a0 05 de 3c d8 2a 08 3d 95 f4 61 3d
       0.05506614 0.027102292 0.033243984 0.055164892
000330 3a 64 eb bb c7 af d8 3c 2a ba 30 3d ed bf 9e 3b
       -0.007183579 0.026451005 0.04314629 0.0048446567
000340 96 bd 0a bd 2e 35 4e bd dc 8f 06 3d 4c e2 57 bc
       -0.03387221 -0.050343685 0.03285204 -0.013176512
000350 50 c5 90 3c 15 fa bd 3d 7f 08 1e 3d 22 d2 2d 3d
       0.017672211 0.09276215 0.03858232 0.042436726
000360 18 d1 2f bd c6 d1 29 bd c7 75 90 bb 10 6f f2 bc
       -0.042924017 -0.04145982 -0.0044085714 -0.029593974
000370 1f 6b 0c bd f8 b8 00 bc ec 4d b7 ba 96 4f 4f 3c
       -0.034281846 -0.0078566 -0.0013985015 0.012653252
000380 0a 31 60 3a 0a e5 e2 3d 68 0a b7 3d 51 1b 2c 3d
       0.0008552229 0.11078842 0.08937532 0.04201824
000390 8b b7 c7 3d 8e f3 47 3d 01 44 f4 3d 10 43 f6 3d
       0.09751805 0.048816256 0.11927033 0.1202451
0003a0 0f d1 ea 3d 62 dc e8 3d fe 51 ba bd 58 41 71 bb
       0.11465656 0.1137016 -0.0909767 -0.003681263
0003b0 06 23 38 bd 8e 67 98 bd e9 61 5d bd 03 54 fa bc
       -0.044955276 -0.074416265 -0.054048453 -0.030557638
0003c0 a3 d5 b6 bd 6a 80 63 bc a2 89 a2 bc 32 f5 2b bd
       -0.08927467 -0.013885597 -0.019841019 -0.041981883
0003d0 96 db ab 3c 69 72 12 3d 80 af 63 bd d7 11 1f bd
       0.02097873 0.03575364 -0.05558729 -0.038835373
0003e0 18 35 7f bc 87 e7 c2 bc 78 82 11 bd 89 94 d5 bc
       -0.015576623 -0.023792041 -0.035524815 -0.026071804
0003f0 03 f8 7b 3c 9a b1 46 bc 43 a6 66 bc 2a 7f 40 ba
       0.015378955 -0.012127304 -0.014077726 -0.00073431677

conv3.bias f4 [64]
000000 3d 7e fc 3c d1 21 0e 3d 01 da d8 3b c0 3d c9 bb
       0.030821914 0.03470022 0.006617785 -0.0061413944
000010 52 cd 8b 3c c7 46 27 bb 8a 91 07 3c b3 b5 bf 3c
       0.017065678 -0.0025524364 0.008274445 0.02340207
000020 1e 8a 98 bc 4d 24 52 3c e7 d9 10 3d 96 bd 51 bb
       -0.018620547 0.012826038 0.035364058 -0.0032003871
000030 90 f2 19 bd 34 5f 0d bc 14 20 b4 3c 8e 5d cb 3b
       -0.03758484 -0.008628655 0.021987952 0.006206221
000040 f4 36 11 bd c3 c5 60 bc 8c 19 0a 3c 8d 9b 39 3c
       -0.035452798 -0.013719025 0.008428942 0.01132859
000050 d8 f2 b1 bc 43 6b 5b bb 88 e7 9c bb f2 09 14 bd
       -0.021722242 -0.003348068 -0.004788343 -0.036142297
000060 cd a8 88 3c 28 95 84 3c c3 c0 80 3b 87 19 7e 3c
       0.016682053 0.016184404 0.003929229 0.015509016
000070 0c 92 02 bd ea 87 ee 3c e9 41 1b 3c ff 6c a9 bc
       -0.031877562 0.029117543 0.009476163 -0.020681856
000080 af a8 de 3c fa b5 ea 3c b7 1a cf 3c d3 31 e9 3b
       0.027180044 0.028651226 0.025281293 0.007116535
000090 9f c9 95 3b 3b a6 b6 bc 8d 18 2a bb 06 8b 45 3b
       0.0045711542 -0.022296062 -0.0025954575 0.003014268
0000a0 0b 64 e3 3c 91 70 9b bc d4 7f f8 bb d4 ab 0d 3a
       0.027757665 -0.018974574 -0.0075835977 0.00054043275
0000b0 be 1a 72 3c 4b 17 19 bc 9d 82 1f bc d5 f1 88 bc
       0.014776884 -0.009343932 -0.0097357305 -0.016716877
0000c0 24 6f 99 3c f7 81 82 bc f4 7d 9f bc 0c b6 e3 bc
       0.018729754 -0.015931113 -0.019469239 -0.027796768
0000d0 2f 84 3e 3c 9b 61 bb bb 16 d7 a7 bc 45 32 a9 3c
       0.011628195 -0.0057184226 -0.020488303 0.020653853
0000e0 c3 c6 28 bd 7a 58 93 bc 40 b9 42 bb 7e da ad 3b
       -0.04120518 -0.017986525 -0.0029712468 0.0053055873
0000f0 b8 d1 09 3d b2 15 cd 3c a8 6c 08 3b bc 77 1e 3d
       0.03364727 0.02503476 0.0020816717 0.038688406

conv4.weight f4 [64, 64, 3, 3]
000000 33 d1 95 bd 48 dc f0 bd 53 c4 e6 bd 96 93 8a bd
       -0.07315292 -0.11760765 -0.112679146 -0.06766431
000010 d0 9f ce bd 0c b2 13 be 62 aa a2 bd f2 e0 73 bd
       -0.100890756 -0.14423388 -0.07942654 -0.059540696
000020 0d 89 06 be 1c 42 b1 3c d2 90 b5 bc 20 b0 37 bd
       -0.13138218 0.021637969 -0.022163782 -0.0448457
000030 e7 c9 39 bd 37 08 9a bd 35 06 1b bd e8 a2 0b 3c
       -0.045358565 -0.07521098 -0.037847716 0.008522727
000040 26 b4 68 bd ba 90 a6 bc 04 14 3e 3e 89 b5 22 3e
       -0.056812428 -0.020332683 0.18562323 0.15889563
000050 da 6c 9c 3d 95 42 d7 3d 84 55 90 3d 38 59 8c 3d
       0.07637949 0.105107464 0.07047561 0.068529546
000060 73 de 9c 3d 06 1f c9 3d 52 07 c1 3d 29 68 25 bd
       0.07659616 0.098203704 0.09425224 -0.040382538
000070 46 8c fa bc 1c a3 9d bc 3e e2 a7 3b 0e 2b 84 bd
       -0.030584466 -0.019242816 0.0051234057 -0.064535245
000080 98 2c 0b bd 18 c6 3a bc 47 d1 69 bd 54 c7 69 bd
       -0.033978075 -0.011399768 -0.057084348 -0.05707486
000090 5a d4 cc bc 48 3c 53 bc 75 a1 62 bd 34 9a 02 bd
       -0.0250036 -0.01289279 -0.05532976 -0.03188534
0000a0 5d 60 c3 bc b6 3d 44 bd 45 af fc bc 50 5b b5 bd
       -0.02384966 -0.047910415 -0.030845294 -0.08855307
0000b0 b7 ab 41 bd f7 ef 9d 3c 96 6c 47 3d 7e 8b 40 3c
       -0.0472829 0.019279463 0.04868754 0.0117520075
0000c0 ca 9d ab 3b 34 79 7f 3c c6 b7 96 3d 64 1e 5f 3d
       0.005237316 0.015592862 0.07359271 0.054472342
0000d0 e0 c3 d7 3d ba ac b1 3d 66 de d4 bd 67 fe 9b bd
       0.10535407 0.08675523 -0.10393982 -0.07616883
0000e0 30 f7 2a bd 6f 82 82 bd 2f 9c d6 bd 46 96 9d bd
       -0.041739643 -0.063725345 -0.104790084 -0.07694678
0000f0 12 6c b6 bd f6 b8 e1 bd 5f ce b8 bd 69 8a f0 bb
       -0.089073315 -0.110216066 -0.09023737 -0.0073407185
000100 20 58 e2 37 2a 78 52 bd ff 5e 09 3d bb 0c 2b 3d
       2.6982336e-05 -0.05138413 0.03353786 0.041760188
000110 f3 fb f9 bc 86 18 17 3d 38 e5 2a 3d 35 23 20 bb
       -0.030515647 0.03688862 0.041722506 -0.0024435048
000120 fc e7 87 bb b2 17 55 bd 9a 76 85 3c d1 bb 05 bd
       -0.0041475277 -0.05202455 0.016291905 -0.03264982
000130 02 39 76 bc 32 dc 13 bd a1 bf 6a 3d 2e 7a 15 3c
       -0.01502824 -0.036098666 0.057311658 0.009123368
000140 b6 2f 72 3b 6d f2 cb bb 8f b6 8b bc ac 79 ab bd
       0.0036954707 -0.0062239678 -0.017054824 -0.083728164
000150 89 1e db bc c8 d4 88 bd 29 50 a1 bc 31 26 4a bd
       -0.026747959 -0.0668121 -0.019691544 -0.04935283
000160 1d 2e 03 bd 44 fc ec 3b e2 9d 08 3e cd dc 16 3e
       -0.0320264 0.007232221 0.13341478 0.14732666
000170 01 92 48 3e 17 6f c4 3d 3c ba 18 3e dd 9d 61 3e
       0.19586946 0.09591501 0.14914793 0.22032876
000180 db b7 2a 3e 1b ef 4a 3e ac a6 59 3e 48 dd cb 3c
       0.16671698 0.19817774 0.21254987 0.024885789
000190 dc 16 c5 3b 83 4f 9b bc 73 e5 ac 3c 80 c9 74 bc
       0.006014688 -0.018958813 0.021105504 -0.0149406195
0001a0 06 3d 1b bd 2d 85 6f bd c9 8b 8e bc f8 fe c4 bc
       -0.037899993 -0.058476616 -0.01740064 -0.02404736
0001b0 c0 5c 80 bd 1a 1f 5d bc 63 34 9c 3b 63 7c 62 bd
       -0.06267691 -0.013496185 0.004766987 -0.055294406
0001c0 49 cf 07 bc ad 33 72 3b 1c 27 a5 bd 49 4f 20 3b
       -0.008289167 0.003695707 -0.080641 0.002446132
0001d0 f5 98 30 bd 1a 33 dd 3c f1 f5 b6 ba 1e 50 2e bc
       -0.04311462 0.027001906 -0.0013958794 -0.010639219
0001e0 dc 8f 42 3d 68 81 cc bb c5 59 21 3d dc 31 0b bd
       0.047500476 -0.0062410124 0.03939225 -0.033983096
0001f0 68 2f b8 bc 1b 7c 6f 3c 3a 85 f0 3d 86 46 b5 3d
       -0.022483543 0.014616991 0.11744161 0.08851342
000200 e5 b5 b1 3d 31 3d 6e 3d 82 cb af 3d 9e b2 d1 3c
       0.08677272 0.058163825 0.08583738 0.025597867
000210 ef 65 ab 3d 5a 7c 7e 3d 7b 3c ca 3d a5 18 e0 3c
       0.08369052 0.06213031 0.09874817 0.027355501
000220 15 0a 81 bc 99 f8 48 bd 94 18 20 3d 04 23 20 3d
       -0.015751878 -0.049065206 0.03908594 0.039095894
000230 6d 26 43 bd 58 32 23 3d 48 11 3b bd fd 70 8d bb
       -0.047644068 0.039842933 -0.045670778 -0.004316448
000240 c7 53 25 3e 2d 74 56 3e ec 60 72 3e a4 e9 18 3e
       0.1614524 0.20942755 0.23669785 0.14932877
000250 97 16 43 3e cc 74 5f 3e bf 79 60 3e b9 84 88 3e
       0.19051586 0.21821898 0.21921442 0.2666376
000260 10 1c 6c 3e eb 57 eb 3d 99 79 04 3e 71 32 31 3e
       0.2305758 0.114913784 0.12937011 0.17304398
000270 75 da 0b 3e 02 91 42 3e a7 90 4c 3e 90 67 3f 3e
       0.13657553 0.19000629 0.19977055 0.1869185
000280 9a 4d 61 3e a7 02 92 3e d2 f6 e1 3d 69 6f 80 3d
       0.22002259 0.2851765 0.11033405 0.0627125
000290 1b c2 f2 3d cc 68 7a 3d b1 f7 a7 3d 18 37 1e 3d
       0.11853429 0.0611351 0.0820154 0.03862676
0002a0 8a 4d 21 3d 21 e6 4a 3d 25 1e e8 3c cf 8b 35 bd
       0.039380588 0.049535874 0.028334687 -0.044322785
0002b0 43 eb ef bd cf 3c 6a bd 74 75 ac bd e0 a0 8c bd
       -0.117147945 -0.057186898 -0.0842084 -0.06866622
0002c0 75 df 8d bd 3c b8 3e bd 8a ff 91 bd 35 4b 1e bd
       -0.06927387 -0.04656242 -0.07128818 -0.03864594
0002d0 5b 98 f0 3b 81 c8 52 3c c0 bd 0d 3d e3 73 9c bd
       0.007342381 0.012865187 0.034604788 -0.07639291
0002e0 a6 e7 94 bd 6d 40 e3 bb b9 59 9c bd ea 89 4d bd
       -0.07270746 -0.0069351704 -0.07634301 -0.050180353
0002f0 d8 7d 65 bd 5f 23 91 3d c9 d3 73 3d 66 5a 97 3d
       -0.056028217 0.070868246 0.059528146 0.07390289
000300 75 5c 86 3d 19 3e 93 3d 7e 1b 26 3d 75 23 9e 3d
       0.065606035 0.071895786 0.040553562 0.07721607
000310 7d 8f bc 3d 24 92 b4 3d 0e 5c 86 bd b0 bc 74 bd
       0.09207056 0.088169366 -0.06560527 -0.05975026
000320 cb be ed bd c3 88 d3 bd 26 d2 b8 bd 0c 1c 10 be
       -0.116086565 -0.103288196 -0.09024458 -0.14073199
000330 24 64 02 be 76 ef 06 be c3 7f 00 be 78 1a 2a bd
       -0.12733513 -0.13177285 -0.12548737 -0.04152915
000340 88 ff db bc ea 89 8b bc 3c 00 d8 ba 49 7f 80 bd
       -0.026855245 -0.017033536 -0.0016479562 -0.06274278
000350 9e e2 05 bd 37 e5 90 bd ee 14 40 bb 56 b5 89 39
       -0.032686822 -0.07074969 -0.002930935 0.00026265782
000360 8b 53 4d 3d b9 0a 1b 3e 85 8e 23 3e b0 40 fe 3d
       0.0501285 0.15140809 0.15972336 0.12414682
000370 e4 18 15 3e 0a f8 29 3e 32 3a b8 3d 25 cf 16 3e
       0.14560276 0.16598526 0.08995475 0.14727457
000380 2d 2c 1e 3e 75 b0 0a 3d 84 ce 73 3d 7f a3 80 3d
       0.15446539 0.03385969 0.05952312 0.062811844
000390 30 6e 01 3d 60 df 95 3d da 65 84 bb c6 0b 2d 3d
       0.031599224 0.07317996 -0.004040462 0.042247556
0003a0 b6 54 50 3c c4 7c 78 bc 70 5a 83 ba f4 f4 00 bd
       0.012715509 -0.015166465 -0.0010021459 -0.031483606
0003b0 5b 38 13 bd 88 67 f2 ba ce 0e 2f bb 1c b0 3e bb
       -0.035942417 -0.001849399 -0.0026711705 -0.0029096669
0003c0 78 bc b8 bc 71 9b 32 3d bc 8d cc bc 3c ec 2a 3e
       -0.022550806 0.04360527 -0.024969928 0.16691679
0003d0 29 43 67 3d 03 17 cf 3d 71 0e df 3d b4 04 07 3e
       0.056460533 0.10111811 0.10891426 0.13185388
0003e0 3a 2c 82 3d 8a d1 23 3e 30 af 88 3d a7 21 a8 3d
       0.06356092 0.15997902 0.06674039 0.08209544
0003f0 61 35 13 3d c0 52 0a 3d 03 c4 a6 bc 71 e5 1f bd
       0.035939578 0.033770323 -0.020357138 -0.03903717

conv4.bias f4 [64]
000000 09 78 0e bd 91 0c 17 3c cc 95 1b 3d 5a 4d 3e bc
       -0.034782443 0.009219305 0.037984654 -0.011615122
000010 dd aa 04 bd 25 d1 e6 bc 48 03 f7 3c 3a fc 22 3d
       -0.03238951 -0.0281759 0.030152932 0.039791323
000020 b4 82 0c bd a5 87 28 bd 5a 28 28 3d e8 f2 12 bd
       -0.034304336 -0.041144986 0.041054107 -0.035876185
000030 4a 0a 7d 3a d5 cb 2d bc 8d ac 94 bc 25 bc 10 3c
       0.0009652717 -0.010607679 -0.018148685 0.00883392
000040 02 ec 32 3c 06 15 07 3d cf 4f ec ba 18 96 7a 3c
       0.010920526 0.032979034 -0.0018029156 0.015294574
000050 a4 f9 18 3b 48 50 09 bd a0 3f d7 bc f8 6b cd 3c
       0.0023342157 -0.033523828 -0.026275456 0.025075898
000060 32 a4 19 bd b2 63 da bc 10 b3 cb bc 5e 14 0a bc
       -0.037510104 -0.026658867 -0.024865657 -0.0084277075
000070 fd 9c 11 3d 94 49 1d 3d 1b cb 83 3c 71 71 05 3d
       0.035550106 0.038400248 0.01608806 0.03257889
000080 78 96 cf 3c 0a dd 0b 3d 36 79 d0 3c 7d cd 9e 3c
       0.025340304 0.034146346 0.025448423 0.019385094
000090 95 ad 1b bd 15 48 13 3d 0a a9 84 bc 3b e7 14 3c
       -0.038007338 0.035957415 -0.016193885 0.009088333
0000a0 08 60 17 bd 8b 8a 29 3c 4a c4 4f 3c 93 8f 1c bd
       -0.036956817 0.010347973 0.012681076 -0.03822286
0000b0 86 46 78 bc a3 6e 2a bd 7e 7f c9 bc 36 14 aa bc
       -0.015153533 -0.041609418 -0.024596926 -0.02076159
0000c0 91 f2 9c bb be e8 89 3c e5 56 13 3d f3 c0 ee 3b
       -0.0047896584 0.016834613 0.03597154 0.007286185
0000d0 ed dc b7 bc 44 a8 de bb c8 4f dc bc 16 13 0b bd
       -0.022444213 -0.006794961 -0.026893511 -0.03395375
0000e0 4a c9 c8 3c de 38 bc 3b 99 9a 21 bb f6 14 d4 bc
       0.024510045 0.005744084 -0.0024658798 -0.025888901
0000f0 b9 cf c7 3c 70 e2 e7 bc 54 bd b6 3c c4 3c b8 bc
       0.024391042 -0.028306216 0.022307076 -0.022489913

linear.weight f4 [5, 64]
000000 b3 d7 4e bf ae c1 79 bf e7 a3 44 bf dd d4 bf 3e
       -0.8079788 -0.97561157 -0.76812595 0.3746709
000010 7b df f8 bf 51 8a 99 bf 38 e6 22 be 99 24 ea be
       -1.9443201 -1.1995336 -0.15908134 -0.45731047
000020 90 bd 00 bf a9 7a 5b be e6 62 23 bf b9 31 5e 3d
       -0.5028925 -0.2143351 -0.6382278 0.054246638
000030 fa 85 8e bf 68 f6 28 40 64 37 c0 be e6 90 ca be
       -1.1134636 2.6400394 -0.3754226 -0.39563674
000040 94 0f e4 be 5c a8 a8 3f cb e4 ce 3d 05 30 ea 3f
       -0.44543135 1.3176379 0.101022325 1.8295904
000050 da 9b ce be 4d 7a 9d bf 2c 6a ab 3d ea 72 bb bf
       -0.4035328 -1.2302948 0.0836986 -1.4644444
000060 86 67 45 bf a4 f7 46 bf d3 ef 85 bf 63 c0 68 be
       -0.7711109 -0.7772162 -1.0463814 -0.2272964
000070 d7 8b 96 3b af 78 0e be ff 5d a4 be 3e eb ea be
       0.004594307 -0.13913225 -0.32102963 -0.458826
000080 36 53 d1 3e a9 2f d7 be 62 e2 51 3d 8e 6f 79 3c
       0.40883797 -0.4202855 0.051241286 0.015224351
000090 0d 69 a0 3f 27 e4 0b 3e 72 35 9d bf c9 36 f5 3e
       1.2532059 0.13661252 -1.2281935 0.4789336
0000a0 b8 fb 08 bf 1b a9 d3 be 02 0d 64 be 2b d2 d9 3f
       -0.5350909 -0.41339955 -0.22270587 1.7017263
0000b0 18 c9 1b bf 15 eb c1 3e e4 86 31 bf 71 ac f6 bc
       -0.6085372 0.37874666 -0.6934645 -0.030111523
0000c0 7a 09 29 bf cf c9 4b 40 0c 6b aa be 27 41 21 bf
       -0.66030085 3.1841924 -0.33284795 -0.6299004
0000d0 d5 4e d7 be 27 b5 d4 be c4 a7 06 c0 88 57 dc 3f
       -0.42052332 -0.41544458 -2.1039896 1.7214212
0000e0 6d 9f 58 bf 93 50 89 bf 90 33 67 bf 6b ea 2f bf
       -0.84618264 -1.0727714 -0.90313053 -0.6871707
0000f0 a2 6f 88 bf ba f0 9e 3f f8 da 91 3e 36 e7 31 bf
       -1.0659068 1.2417214 0.28487372 -0.69493425
000100 e2 03 75 3e 40 a7 9a 3f b7 ab 48 bf 18 d0 84 bf
       0.23927262 1.2082291 -0.78387016 -1.0376005
000110 bb 72 69 3f f3 1a 56 be df 1d 70 3f a7 ce 06 bf
       0.9119069 -0.20908718 0.9379558 -0.52659076
000120 af a5 ad bf cc 53 6d 3e 70 89 11 bf 76 7e 6f 3c
       -1.3566188 0.23176497 -0.5685034 0.014617553
000130 b4 00 1f 3f ad 8a b7 3e 8e 66 9d be aa f2 6f be
       0.6211045 0.3584799 -0.30742306 -0.23432413
000140 84 16 1b be ed 8e 84 bf c7 de 2e bf 6e 5a 1f bf
       -0.15145308 -1.0356117 -0.6830868 -0.6224736
000150 80 31 2e bf d1 d3 b2 3f b2 5e 2b be eb 8b 2c bf
       -0.6804428 1.3970891 -0.16735342 -0.67401
000160 d0 a4 68 bf c9 b0 40 be ee 31 27 bf 78 25 f1 be
       -0.90876484 -0.18817438 -0.6531056 -0.470989
000170 8c b1 ca be c3 47 23 40 99 37 ac be 53 ac bf 3e
       -0.39588583 2.551255 -0.33636168 0.3743616
000180 06 80 b2 bf 6d b7 e2 be 95 b8 1b bf f7 9d 23 bd
       -1.394532 -0.44280568 -0.60828525 -0.03994557
000190 31 db 91 3e 43 00 78 3f b2 b8 02 bf f9 de a9 3e
       0.28487542 0.968754 -0.5106307 0.33177927
0001a0 ec 2c 97 bd f5 41 b1 be ea 73 6a bf 1c e0 fc bf
       -0.07381615 -0.34620634 -0.9158312 -1.9755893
0001b0 2e 4b 0d bf 96 fb 87 3e b4 82 cb be da a6 1a 3f
       -0.5519284 0.26559132 -0.39748156 0.60410845
0001c0 1d 1a 77 bf 84 bb b0 bf 16 37 2b bc 47 f1 43 3f
       -0.9652422 -1.3807225 -0.010450145 0.76540035
0001d0 7c 37 11 40 c5 96 1f bd 6c 6d 6a 3f bf 7b ea be
       2.2690115 -0.038962144 0.91573215 -0.45797536
0001e0 78 04 78 bf 1f c2 2e 3e c4 0a ad bf 75 15 81 bf
       -0.9688182 0.17066239 -1.351891 -1.0084673
0001f0 fe 46 2c 40 13 6d a4 bf 94 2c 40 bf cd 8e f0 bd
       2.691833 -1.2845787 -0.7506802 -0.11745987
000200 64 30 fe be ca 76 b0 3e ff 96 7b bf 40 ed 9b be
       -0.49646294 0.3446563 -0.98277277 -0.30454445
000210 44 9a f6 3e 46 71 2f 40 7c 27 a2 3e 7a 4d f5 3d
       0.4816457 2.7412887 0.3167075 0.11977668
000220 51 c5 d1 3e 83 ed 1d bf 8e 29 0f be c0 c5 08 bf
       0.40970853 -0.6169054 -0.13980696 -0.5342674
000230 89 18 e2 3e c4 c2 fd bf d3 6f 94 bd db 55 bf be
       0.44159344 -1.9825063 -0.07247891 -0.3737019
000240 29 52 f3 3d 2e a7 82 3f 24 b7 22 be cb a9 66 3f
       0.11880905 1.0207269 -0.15890175 0.90102834
000250 0d a0 e1 be e8 2a 87 bf d9 a9 7d bd e2 ed 75 3d
       -0.44067422 -1.0559969 -0.061929557 0.060041316
000260 cc bb c0 3f 85 87 4c 3e 83 76 0b 40 0b 83 db 3e
       1.5057311 0.19973572 2.1791084 0.42873415
000270 3d 74 7e 3d ce bf bb bf c1 37 a1 bd dd a5 8b bf
       0.062122572 -1.4667909 -0.07871962 -1.0909992
000280 d3 b6 cd bd 1d c1 1f 3f 15 9f d4 bf 4d b5 7f be
       -0.100446366 0.6240404 -1.6611048 -0.24971505
000290 1a ad a4 3d d3 d2 d2 bf 27 a7 4c 40 a6 52 c8 bf
       0.08040829 -1.6470588 3.1977022 -1.5650222
0002a0 e2 95 0c 3e ac a1 2e 3c 89 a5 0c bf c2 e6 bb be
       0.13729051 0.010658663 -0.54940087 -0.36699492
0002b0 12 10 22 bf 93 33 8f bf f0 73 c8 3d 39 e5 5e bf
       -0.6330577 -1.1187614 0.09787738 -0.87068516
0002c0 a3 f0 eb be 72 55 33 bf 42 39 a2 bf d2 19 08 bf
       -0.4608203 -0.70052254 -1.2673724 -0.531644
0002d0 3b 06 eb be ff e2 8e bf 0c 64 af 3e 5a bd d8 bf
       -0.4590319 -1.1163024 0.34256017 -1.6932786
0002e0 13 51 69 3e 21 5d 7e be 57 bc dc 3e e5 a7 9f be
       0.22784834 -0.24840213 0.43112442 -0.3118278
0002f0 c5 02 3c bf f9 65 49 be 64 40 0f bf 4a 94 9a bf
       -0.73441726 -0.19667806 -0.5595763 -1.2076504
000300 d9 f5 27 bf fa 5f b8 be 62 7b d3 3f 9e 08 11 be
       -0.6560951 -0.36010724 1.6522028 -0.14163443
000310 46 84 55 3f 86 15 f9 bf 71 ac d4 be 6e 44 dd 3e
       0.8340496 -1.9459693 -0.41537812 0.4321627
000320 50 a1 a7 3b 05 8f 9c bf 44 66 8f 3e 68 9c e9 bd
       0.0051156655 -1.2231146 0.2800771 -0.11406785
000330 d0 33 8d bf b3 38 52 bf 72 7f 98 3d 8a 0a 39 3e
       -1.1031437 -0.82117766 0.07446183 0.18070427
000340 c2 24 0a bf 29 f3 14 bf 31 16 48 bf db 2d e3 bf
       -0.5396234 -0.5818353 -0.7815886 -1.7748369
000350 12 ee e0 be 2a a8 b0 3e e9 b6 3f bf 8e a8 99 3f
       -0.43931633 0.345033 -0.74888474 1.2004564
000360 b4 91 55 bf d5 df b7 bf de 5e 85 bf 86 50 f9 3d
       -0.8342545 -1.4365183 -1.0419576 0.12173562
000370 f4 d1 63 bf d1 6e b9 bf f3 c7 db be 71 a3 4d 3d
       -0.8899224 -1.4486943 -0.42925987 0.050204698
000380 f5 4e 1e 3f 35 4a 1c bf 7a 38 24 40 35 1f a8 bf
       0.6183923 -0.6105073 2.565947 -1.3134524
000390 21 9b dc bf b6 09 4f 3f 3f 8c 53 bf 3f aa 7d be
       -1.7234842 0.8087419 -0.82635874 -0.24771975
0003a0 7a 06 5f 3d d3 f9 b4 3f 86 b2 fe 3e 1e 5c 64 3e
       0.054449536 1.413874 0.49745578 0.22300765
0003b0 86 f8 90 bd d3 e1 e2 be c2 5a 1b be 08 57 7b bf
       -0.07078652 -0.44312915 -0.1517134 -0.98179674
0003c0 7b 08 37 3f 25 37 8d be 39 b3 60 3e c5 43 19 bf
       0.71497315 -0.27581134 0.21943368 -0.59869033
0003d0 42 ba 4c bf 63 ab 87 3f eb 25 cb 3d ec b7 b5 be
       -0.79971707 1.0599178 0.09919342 -0.35491884
0003e0 20 0c fc 3e b0 55 ef be 7f b9 30 40 4f c0 3f 3e
       0.49228 -0.46745062 2.7613218 0.18725704
0003f0 37 85 8b bf bb cc 8d 3f 83 cd 1a bf 78 8d f8 3e
       -1.0900029 1.1078104 -0.60469836 0.48545432

linear.bias f4 [5]
000000 6f 14 2d 3f 09 7f 45 bf da e7 00 3f e4 c6 ad 3e
       0.67609304 -0.77146965 0.5035378 0.33940804
000010 88 60 61 bf
       -0.8803792
