MAMLExperiments/src/finetuned_model.pth (torch, 449799 bytes, 10 tensors)

conv1.weight f4 [64, 1, 3, 3]
000000 08 e4 b5 be 28 d4 9d 3e c8 95 b8 3e 2f 95 36 bf
       -0.35525537 0.30825925 0.36051774 -0.71321386
000010 e8 59 2a bd 26 02 55 3e c6 3f 31 bf 10 99 2a bf
       -0.041589648 0.20801601 -0.69237936 -0.66639805
000020 44 d6 78 bf db ca 58 3f eb fd 39 bf eb 2b 6a be
       -0.97201943 0.8468453 -0.72653073 -0.22868316
000030 8d 62 82 3e b9 ef 7c bf 79 e9 85 be 28 4e 6c 3e
       0.25465813 -0.9880329 -0.26154688 0.23076689
000040 c1 47 dc bc 9e f2 71 3f 8b c5 ec 3d 85 cb d6 be
       -0.026889684 0.9451083 0.11561116 -0.41952148
000050 9a 8a 3c 3d fd ed 83 3e 85 e6 80 be 47 98 9f 3e
       0.04603062 0.25767508 -0.25175872 0.31170866
000060 bc 40 bf be bf 48 43 bf f0 75 b7 3f f9 4d 73 3f
       -0.37354076 -0.76282877 1.4332867 0.9504085
000070 74 6d a8 bd 9b 18 8a bf bc 6a cc 3e 30 f4 2e be
       -0.082240015 -1.0788759 0.39925182 -0.17085338
000080 66 cf e2 be 4c be 37 bf ed da cd 3c cf da 5d 3f
       -0.44298857 -0.71774745 0.025128806 0.86662
000090 d6 ae 56 3e c8 80 85 bb 4f eb 04 3f 87 40 9e be
       0.20965132 -0.00407419 0.5192155 -0.30908605
0000a0 9c 4b 71 bf b5 04 be 3e dc 65 c7 3f 4a 8e 38 bf
       -0.94255996 0.37112966 1.557796 -0.72092116
0000b0 8b ab 10 3f 26 44 06 3f 27 e7 d3 be dc c3 31 bf
       0.56511754 0.52447736 -0.41387293 -0.6943948
0000c0 2b 48 8c bb 2a 35 3e 3f 41 7b 57 be 34 43 3d bf
       -0.004281064 0.7429987 -0.21043111 -0.7393067
0000d0 7d 0e 2a be ce fc 90 3f c0 f9 a4 3d 5e 9c b6 be
       -0.1660709 1.132715 0.080554485 -0.35666174
0000e0 51 ff aa bd 20 e1 aa be ac ae 31 bf cf 0f f8 be
       -0.08349479 -0.33374882 -0.69407153 -0.4844956
0000f0 60 65 82 3f 5e 86 94 be 67 00 91 bd 7c 84 a6 3f
       1.0187187 -0.29008764 -0.07080155 1.3009181
000100 32 df b2 be 96 86 7a 3f f4 82 6f bf 0c 03 24 bf
       -0.3493591 0.9786161 -0.93559194 -0.6406715
000110 80 aa d5 be cc 32 ae 3f 89 4c 88 be 9e 2f 3d 3f
       -0.41731644 1.3609252 -0.26620892 0.73900783
000120 51 e0 14 bf ff e9 34 be cc 72 f0 be e5 43 41 bf
       -0.5815478 -0.17667387 -0.46962583 -0.75494224
000130 c1 c0 1d be 17 dc 1d bd 90 e1 0b bf 85 d4 e9 3d
       -0.15405561 -0.038539972 -0.54641056 0.11417488
000140 9b 0b 2d 3f e9 dd f9 be 48 86 8e be e8 a1 c7 3e
       0.67595834 -0.48802117 -0.27836823 0.38990712
000150 12 e9 7f be 71 0e 20 bf 68 ad ce be cb 7c 81 3e
       -0.24991253 -0.62522036 -0.40366673 0.25290522
000160 14 85 f1 bc eb ef 07 bf fe 03 7e 3e ff 59 d0 3d
       -0.029482402 -0.5310046 0.2480621 0.101734154
000170 68 d9 6a bf 86 54 ca bc 94 dc 14 3e 18 97 93 bf
       -0.91737986 -0.024698507 0.14537269 -1.1530485
000180 2a 29 de be 1a 29 94 3f 3b 4d a8 bc 4d d1 47 bf
       -0.4339078 1.1575043 -0.020544639 -0.7805374
000190 40 32 26 bf bf 1d 38 bf 14 08 cb 3d 35 3b 85 bd
       -0.64920425 -0.7192039 0.0991365 -0.065054335
0001a0 b5 e5 6d be 64 7b 41 3e a7 46 34 bd 2e 67 9b 3e
       -0.23232158 0.18894726 -0.04401269 0.30352157
0001b0 67 61 59 3f 95 75 15 be 37 16 9a be 7a 5a a8 be
       0.8491425 -0.14595635 -0.30095074 -0.32881528
0001c0 81 ed c4 be de a9 32 bf 12 8a 12 be a0 ca c3 be
       -0.3846245 -0.69790447 -0.14310482 -0.38240528
0001d0 5c 91 0b be 0d 51 5b 3f 1f 50 c8 bd 8d 15 a9 be
       -0.13629669 0.8567055 -0.09780907 -0.33024254
0001e0 30 8b a6 3e 5b 5a 02 bf f2 c8 42 bf d4 67 74 bd
       0.32528067 -0.5091912 -0.7608787 -0.05966933
0001f0 c2 fb 18 be 68 87 60 bf 01 cd 71 3f 7d 52 4a be
       -0.14939788 -0.87706614 0.94453436 -0.1975803
000200 b1 4d 09 3e 47 9b 98 bd b7 d6 24 bf 76 8d fc be
       0.13408543 -0.07451492 -0.6439013 -0.49326676
000210 89 af 8f be 9a d7 ef be ee 1d fe be af bd a3 be
       -0.2806361 -0.46844178 -0.4963221 -0.31980655
000220 24 b9 2b bf 7a 46 b5 bd 6f e6 33 bf 5b df 53 be
       -0.6707938 -0.08851333 -0.7027349 -0.20690672
000230 71 8d a5 3e ab 98 0b bf 4d ea 8b 3d 74 19 09 3f
       0.32334474 -0.5452983 0.06831799 0.53554463
000240 d9 b4 a0 be f9 23 1e 3f 23 77 51 be f4 73 8d 3e
       -0.31387976 0.6177364 -0.20455603 0.27627528
000250 94 de d1 be 5a ab 50 bf 0a b5 e8 be 13 48 75 be
       -0.40990126 -0.8151146 -0.45450622 -0.23953275
000260 5b f0 4d 3f 28 f3 75 bf 6e d9 61 be 34 10 4e bc
       0.8044488 -0.9607415 -0.22055599 -0.012577105
000270 b1 33 3b bf 93 08 1c bd 71 45 36 3d 16 dd 41 bf
       -0.7312575 -0.038094115 0.04449982 -0.75727975
000280 73 05 bc 3e d9 db 3e 3f f3 3c 76 bf 39 46 be be
       0.36722907 0.7455421 -0.9618675 -0.3716295
000290 a8 fc 43 3e 59 74 0d 3d da 41 1f 3f 7e e9 34 3c
       0.1913935 0.034534786 0.62209857 0.011041997
0002a0 e8 d9 81 3f e3 25 17 3e 90 2d 47 bf f6 7f f9 be
       1.0144625 0.14760546 -0.778039 -0.4873044
0002b0 c7 b2 fd be d7 93 f5 be 85 9d 18 bf 90 ba 10 bf
       -0.4955046 -0.47964355 -0.59615356 -0.5653467
0002c0 9e 92 2c bf b4 49 9c 3e 22 cf b9 3e 9d d7 9c bb
       -0.6741122 0.3052498 0.36290842 -0.0047864453
0002d0 6c 57 75 bf 55 14 34 3e d6 b2 dd 3d f5 84 02 3c
       -0.9583652 0.17585881 0.10825126 0.00796627
0002e0 ac 33 89 3e d6 03 4c bf a7 56 8d 3e 7d 3c 6d bf
       0.26797235 -0.79693353 0.27605173 -0.9267042
0002f0 87 30 15 be 5c 8e ed be bf da 8e be 71 02 2b 3f
       -0.14569293 -0.46397674 -0.27901265 0.668006
000300 3e d4 21 bf 20 9c 09 bf 5b 94 bd 3e 36 63 31 bf
       -0.6321448 -0.5375385 0.3702725 -0.6929201
000310 e0 03 c1 bc fc 7c de 3e dc 0e 59 3f 3a 25 29 bf
       -0.023561418 0.4345473 0.847883 -0.6607243
000320 f7 e1 87 bf 76 c6 d4 3e 9e a4 f3 be d5 f2 99 3d
       -1.0615834 0.41557664 -0.4758653 0.0751702
000330 89 9a aa bd 14 07 80 be 1b f7 27 3f 39 79 8b 3d
       -0.083302565 -0.250054 0.6561143 0.06810231
000340 fc d7 9f be 51 63 0b bf 7c 61 32 bf fa 69 e7 be
       -0.3121947 -0.5444842 -0.6968 -0.4519804
000350 af f4 0f be d1 20 af be c2 08 03 3d 09 e6 bb 3e
       -0.14058183 -0.34204724 0.031990774 0.3669894
000360 f1 e9 bb 3f f3 fb 81 3e f8 41 63 3f 64 23 0a bf
       1.4680768 0.25387534 0.88772535 -0.5396025
000370 00 41 6e bf f1 58 3f bf 4b e4 f9 bb ab 7c ae bd
       -0.9306793 -0.7474509 -0.0076260916 -0.08519872
000380 fa 2e c9 3e 24 41 f5 3d 00 ba af 3d 0a ec de be
       0.39293653 0.11975315 0.085803986 -0.4353946
000390 04 c4 39 bd e1 67 0e 3f 06 bb f6 3d 2a 8a a2 bf
       -0.04535295 0.55627257 0.12047391 -1.2698414
0003a0 b8 21 4a 3d 8b a7 7f 3f af e8 b0 3f 10 0a eb be
       0.049348563 0.99865025 1.3821009 -0.45906115
0003b0 3a 20 20 3f 4a 57 94 bf 65 21 24 bf 9b 5d 0f 3e
       0.62549174 -1.1589139 -0.64113456 0.14000551
0003c0 a8 da b2 3f 3a c9 18 bc 68 ac b8 3d 64 29 85 be
       1.3972979 -0.00932532 0.09017259 -0.2600814
0003d0 52 c4 1f bf 37 37 40 3e 54 29 08 bd 6d de 16 bf
       -0.62408936 0.18771063 -0.03324254 -0.58933145
0003e0 4c 6d 02 3e 97 7b 12 3d c2 34 2b bf b2 bb 82 3e
       0.12737006 0.035762396 -0.6687738 0.25533825
0003f0 bd ce 55 3d df 98 f5 bd 19 e5 5d 3f 09 c3 09 3f
       0.052199114 -0.119920485 0.866777 0.53813225

conv1.bias f4 [64]
000000 4a 8c 4c 3e 10 ea a7 3e b2 54 9d be 6b 51 2f bd
       0.19975391 0.32795763 -0.3072868 -0.042802256
000010 98 b4 e4 bb d5 5a 20 be 6d cf 44 3e 86 fa ad 3d
       -0.0069795363 -0.1565965 0.19219752 0.08495049
000020 dd 7c 86 be 8e 6c 98 be 18 f0 59 3d 1c 41 69 3c
       -0.26267138 -0.2977032 0.053207487 0.014236715
000030 e1 a5 a9 3d a0 53 49 3e 25 64 46 3e e9 39 9d 3d
       0.08283592 0.19660807 0.1937414 0.07677061
000040 41 aa 96 3e 1e 71 5b bc 70 c9 f3 bd 4d b6 8e 3e
       0.29426768 -0.013393668 -0.119036555 0.2787346
000050 9e d0 1e 3e 38 de 68 be 22 c9 92 be 16 73 7f 3e
       0.15509269 -0.2274102 -0.28669077 0.24946246
000060 46 b6 8c 3e dc d6 2d be 5c 7f 71 be 22 07 ee 3b
       0.27482814 -0.16976494 -0.2358374 0.007264034
000070 6d 2f 36 be c7 51 98 3e 44 e3 de 3d 5c f3 77 be
       -0.17791529 0.2974989 0.10883191 -0.24213928
000080 3c 29 93 be 34 5e 84 3e 84 39 98 3e 4d 3e d2 3c
       -0.28742397 0.2585312 0.2973138 0.025664473
000090 15 17 0a 3e c0 f3 95 be e3 de 8a 3e ff 57 2d be
       0.13485368 -0.2928753 0.27123174 -0.16928099
0000a0 b6 a3 94 3e 80 08 62 bd 8f 6f 87 be ab 7f 8e be
       0.29031152 -0.055183887 -0.264523 -0.27831778
0000b0 b8 fb 74 3e ab 02 05 3d df 29 7e be d3 3f 05 3e
       0.23924148 0.032473247 -0.2482066 0.13012628
0000c0 25 9b 82 3e 7d 14 77 be 1b 1d a0 3d 90 04 73 3e
       0.2550899 -0.2412891 0.078180514 0.23732209
0000d0 c7 7f 96 3d 45 c2 46 3d c2 4f 23 3e c2 d6 27 3d
       0.0734859 0.048525114 0.15948394 0.040976293
0000e0 0e e0 11 3e 96 d6 d1 3d 59 4d a2 be 78 64 9a be
       0.14245626 0.10246007 -0.31699637 -0.30154777
0000f0 55 de 6b 3e e5 06 a5 3e de 55 23 3c c6 ba 93 be
       0.23034032 0.32231823 0.009969203 -0.28853434

conv2.weight f4 [64, 64, 3, 3]
000000 20 c5 88 3b 21 dc 20 bc 80 21 a5 bc ab 8a b4 3c
       0.0041738898 -0.009818108 -0.020157576 0.022038778
000010 77 6d 1a bd 0d e7 49 bd 0f 7c 9d bd 26 e8 38 bc
       -0.03770205 -0.049292613 -0.07689678 -0.011285817
000020 87 c5 8b bd bd ee 57 bd 92 e1 04 bd f6 60 08 3e
       -0.06824785 -0.052717913 -0.032441683 0.13318238
000030 5c bd 7b 3d cb 5c fa 3b 5a a0 26 3e 9d 5b 0a 3e
       0.061459884 0.0076404563 0.16272107 0.1351151
000040 f5 ab 4e 3d 03 b6 29 3e 00 24 72 bc d1 83 90 bd
       0.05045696 0.16573338 -0.014779091 -0.07056392
000050 0c fc 70 3e 00 df 45 38 ae 80 86 3c eb 78 6b 3e
       0.23533648 4.7176145e-05 0.016418781 0.22995345
000060 ab 49 e2 3d d0 d9 95 3b dc 53 4f 3e 56 f4 30 bd
       0.11049207 0.0045730844 0.20246834 -0.043201767
000070 bb 44 5f bd 9a a9 89 3c e6 cb 6f bd 00 bd a8 bc
       -0.054508906 0.016804505 -0.058544062 -0.020597935
000080 70 6f 02 3c c9 55 ea bb 5b 9f f5 bc 8f d7 91 bd
       0.007961139 -0.0071513397 -0.029983213 -0.07121193
000090 e8 cf 0c bc bb c3 ad bd 74 65 0a 3e a0 dc a0 3d
       -0.008594491 -0.08484598 0.13515264 0.07854581
0000a0 2b dd 88 3d 6c e1 72 3e 08 ca 37 3e 71 f5 22 3e
       0.066828094 0.23718804 0.17948163 0.15913941
0000b0 f1 c0 c7 3e ca 7a ca 3c 42 2f 24 ba 19 23 89 3d
       0.3901439 0.024716754 -0.00062631455 0.066961475
0000c0 6a 11 27 bd 26 63 e4 bc 4e 90 e5 3c 58 09 a9 3c
       -0.04078809 -0.027879309 0.028022911 0.020634338
0000d0 50 ed 6f b9 d6 c9 21 bc 93 22 b1 3b 4f 31 57 bd
       -0.00022881222 -0.009874782 0.005405733 -0.05253726
0000e0 ee 89 07 3e d2 5d 4a 3d a3 2d 48 3d ec f7 11 3e
       0.1323621 0.04940588 0.048871648 0.14254731
0000f0 08 cb 69 3d b8 7c 16 3d b1 95 d1 3d 11 41 44 bd
       0.05707839 0.036740035 0.102336295 -0.047913615
000100 ec 1f 9d bd 90 ee 2b 3c 2d ff 19 bd 17 b9 30 bd
       -0.07672104 0.010493889 -0.03759687 -0.043145265
000110 29 c4 18 3d e3 66 3f 3d e2 3b 78 bb 0b 18 3a 3e
       0.037296448 0.04672898 -0.003787749 0.18173234
000120 0d 0b 41 bc ea 39 9b bc 9b 5a 92 3d 57 f7 a1 bc
       -0.01178242 -0.018948514 0.07146188 -0.019771261
000130 ea 56 f9 3c 43 46 01 3e ce 79 76 3d e0 ff 69 3d
       0.030436952 0.12624459 0.060174756 0.057128787
000140 61 69 f4 3d 27 10 00 3d c6 f0 14 bd ea 9e dd bc
       0.11934162 0.031265404 -0.036362432 -0.027053315
000150 75 be b1 3c 80 2c e9 3b ed d4 b2 bd 19 d4 c8 ba
       0.021697262 0.0071159005 -0.087320186 -0.0015321999
000160 9b 23 38 bb 1a 5e 01 be c0 b0 12 bc 1b 0e f5 3d
       -0.0028097394 -0.12633553 -0.008953273 0.11965581
000170 90 4f ac 3d 9c 29 be 3d 3b 2d 77 3d 0f 5b 09 3d
       0.08413613 0.0928528 0.06034587 0.033534106
000180 74 5c 5a 3d 9c 95 ab 3d c6 06 37 3d 25 ee bc 3c
       0.053310826 0.08378145 0.044684194 0.023062775
000190 94 2e 3d 3b e2 86 df 3c 8a fb 2a 3d 13 71 0d 3d
       0.0028866874 0.027285997 0.041743793 0.034531664
0001a0 a5 f9 74 3d be 7c 62 3d 40 93 16 3c 63 d6 62 3c
       0.059808392 0.055294745 0.009190381 0.013845059
0001b0 0d b0 00 bc df 18 21 bd b1 43 d1 bb 5e 69 20 bd
       -0.007854474 -0.03933036 -0.0063862433 -0.039162986
0001c0 56 9b 45 bd ac d1 4d bd 77 38 cb bd bb 32 a1 bd
       -0.048243843 -0.050248787 -0.09922879 -0.07871004
0001d0 3c 94 a5 bd 5f 6d cc bd bc 16 64 bc 48 87 60 3c
       -0.08084914 -0.099817984 -0.013921436 0.013704129
0001e0 73 4c 82 bd ed 7b 20 bd 13 5d 70 3d 7d 15 1d bd
       -0.06362238 -0.039180685 0.058682512 -0.03835057
0001f0 92 f5 37 bd b5 4f 91 3d 88 c6 21 bd ee 52 cd bc
       -0.04491193 0.07095281 -0.039495975 -0.025063958
000200 11 3f 54 bd 75 b4 81 bd 3a e3 9c bd 4c af e1 bd
       -0.051817957 -0.063332476 -0.076605275 -0.11019763
000210 92 da fb bc f9 52 80 bd 0f 40 d5 bd 96 39 d1 3c
       -0.03074387 -0.06265826 -0.10412609 0.025540154
000220 77 07 ab bc 05 01 9a 3d 0f ad 56 3d 12 c0 34 3d
       -0.020877583 0.07519726 0.052411135 0.044128485
000230 ce 5d 0c 3d f8 cb bd bb 3e cd d6 3c 13 3d 9c 3c
       0.034269147 -0.0057921372 0.026220914 0.019072091
000240 e6 e5 53 3c 04 ab f6 3c 69 bf 88 3d 6f 0b 08 3d
       0.01293323 0.030110843 0.066771336 0.03321403
000250 0e 16 24 bd 4b 27 9e 3c 01 63 f8 3c 82 b1 77 3c
       -0.040060095 0.019305846 0.030320646 0.015118005
000260 39 ef 47 bd 26 ad 34 3d a6 86 46 bd d0 24 2c 3d
       -0.048812125 0.04411044 -0.048468255 0.042027295
000270 a1 78 fe 3d bd 38 24 3d 24 84 01 3e 0f c6 f1 3d
       0.12425352 0.040093172 0.12648064 0.11805355
000280 92 54 87 3c fe 9c 45 3e ba 8e b9 bd b9 2a 01 be
       0.016519818 0.19298169 -0.09060426 -0.12613954
000290 ea 89 1b bd 6f db d9 bc cb 68 b6 bd c5 06 9e bd
       -0.037973322 -0.026593892 -0.089067064 -0.07716135
0002a0 16 f0 da 3b c7 af 2e 3d d6 30 91 3b c2 28 85 bd
       0.0066814525 0.042648103 0.0044308705 -0.065019146
0002b0 a0 d4 19 bd 59 e6 aa bc 08 f3 46 bb 7b 1c 9e 3d
       -0.03755629 -0.020861791 -0.003035726 0.07720276
0002c0 4a 52 17 3d 3f 98 6a bc 18 c3 67 3a b5 fe 31 3c
       0.03694371 -0.014318525 0.0008841022 0.01086395
0002d0 56 d7 85 3c 0d 2f 52 bd ed f6 95 bd 85 af fa bc
       0.016338032 -0.051314402 -0.07322488 -0.030601272
0002e0 ad 0e 91 bd 0b 10 c9 bd 80 db bb bd 97 2f ce bd
       -0.07082877 -0.09817513 -0.09172726 -0.10067671
0002f0 ea f2 af bd 21 59 6d 3d 38 14 ab bd 8f 9f a1 3d
       -0.08591254 0.057946328 -0.08353466 0.078917615
000300 de cc c0 3c 2c 0e 4f 3b d8 f9 1e 3e 85 d1 2c bc
       0.023535188 0.003159414 0.15524995 -0.010548
000310 18 b6 96 bd b5 70 33 3e 3c e8 5e bd 2a 93 b6 3a
       -0.073589504 0.17523463 -0.054420695 0.0013929356
000320 0c b9 b9 3d 96 4b 5a bd a8 e9 e9 bc f3 67 09 3e
       0.09068498 -0.05329474 -0.028553799 0.1341856
000330 09 78 84 3c 34 e9 e6 3c 63 3f 96 3d 2d a2 69 bd
       0.016170518 0.028187372 0.07336309 -0.05703943
000340 49 da f1 bc ed 70 09 bd 9a de 8e bd 9b d2 13 bd
       -0.029523032 -0.03355496 -0.06976052 -0.03608952
000350 1c 9d ec 3c 66 0b 45 bd 43 43 8d bc ac 08 1e bd
       0.02888351 -0.048106574 -0.017243987 -0.03858249
000360 9a 80 76 bd 05 d4 74 bd 86 3f 21 3d 39 99 45 bd
       -0.060181238 -0.05977251 0.03936722 -0.048241828
000370 65 ea 42 bd c3 0c 12 bd 37 7c 83 bc a9 21 2e bd
       -0.047586817 -0.0356567 -0.016050441 -0.04251257
000380 46 b8 46 bc 8e c8 da bb a9 2f ec bc 6d 66 77 3d
       -0.012128895 -0.00667674 -0.02883132 0.060400415
000390 c1 da ec bc 1b 79 58 bd 2c 39 c9 3d a2 d9 98 3b
       -0.028912904 -0.05284987 0.09825358 0.0046646157
0003a0 7d 4b b0 bd a1 8a 07 3d 87 5b 30 bd 2e 7e 47 bd
       -0.08608148 0.03309119 -0.043056037 -0.04870432
0003b0 21 01 87 3c 3a 7c be bc 46 2f 23 3c b6 5d f3 3d
       0.01648003 -0.023252595 0.009960001 0.11883108
0003c0 43 9f ba 3d ca e6 04 3e 8b 9e 29 3e 55 2f 6e 3c
       0.09112408 0.12978664 0.16564386 0.014537652
0003d0 6b 8b 4c 3d ce 03 bd 3d 5d 2a d3 bc ef 3f d1 3c
       0.049937647 0.09229241 -0.025777036 0.025543181
0003e0 1f 67 09 3e e9 d7 89 3c d9 d0 99 3c e1 88 c7 3d
       0.13418244 0.016826587 0.018776344 0.097429045
0003f0 2d 6d 92 bb a0 26 e4 bd 12 fd 25 3e 9d 8a 8d 3c
       -0.004468581 -0.1114018 0.1620982 0.01727801

conv2.bias f4 [64]
000000 ec 60 12 3d af 3d c5 3c fd 96 d5 ba 94 ed aa bb
       0.035736963 0.024077265 -0.0016295608 -0.00521631
000010 0c 0c 31 3c fa 62 cd 3b fb 2f e1 3a 04 22 1f bd
       0.010806095 0.0062679024 0.0017180437 -0.0388508
000020 99 72 58 3c 1c 48 6b 3c 04 22 10 bd aa c8 0a 3c
       0.013210916 0.014360454 -0.03518869 0.008470694
000030 ea 41 ca 3c d9 92 ee 3c 13 c5 1e 3b 14 61 36 3b
       0.024689633 0.029122757 0.0024226352 0.002782886
000040 90 df 0b 3d 12 54 fd 3b d8 c6 1a 3d 13 58 38 bc
       0.034148753 0.007730969 0.03778729 -0.011251467
000050 a6 db b3 3c e8 b8 b5 bc ab b8 f7 3c a9 2a 91 3c
       0.021955322 -0.022182897 0.030239424 0.017720537
000060 e4 8f 5c 3c 02 10 d8 3b c8 a2 33 bb f8 eb 0c bd
       0.013462041 0.006593705 -0.0027410258 -0.034404725
000070 e4 60 b9 3b 60 26 08 3d 99 fa 97 3c 61 4d d9 ba
       0.005657302 0.033239722 0.018552111 -0.0016578847
000080 64 e5 f8 bc d3 98 06 3d 8b 0e ca bc 3d f6 f7 3a
       -0.03038282 0.03286059 -0.024665138 0.0018917989
000090 81 33 94 bb 76 d7 df bc 5e b2 87 bb d2 0e 02 bd
       -0.0045227413 -0.02732442 -0.004141136 -0.031752415
0000a0 2e 5f dc 3b 0c 2d 1c 3d d4 8e 11 bb 4d 62 bb 3a
       0.0067252135 0.038128898 -0.0022210376 0.0014296264
0000b0 fd 77 cf bc e2 b0 6c bc 2e ec ec 3c 8c e9 33 bb
       -0.02532577 -0.014446469 0.028921213 -0.0027452437
0000c0 34 de 19 3c 14 88 5e 3c 41 d1 08 bd a1 b7 1d 3c
       0.009391356 0.013582248 -0.033402685 0.0096263
0000d0 73 c6 61 ba 62 b4 fd 3c 7d 03 bc bc f3 12 38 bc
       -0.000861264 0.030969802 -0.022950882 -0.011234987
0000e0 2c 5e 2f bc 48 cc 6e 3c 68 21 f3 bc bf 85 22 3c
       -0.010703605 0.014575072 -0.029679015 0.009919583
0000f0 ec f1 22 bd c1 f9 2b 3c 33 55 18 bd 69 ee ea bc
       -0.039781496 0.010496558 -0.037190627 -0.028678136

conv3.weight f4 [64, 64, 3, 3]
000000 b2 d7 57 3d f1 ec 99 3d e0 5a ab 3d 75 13 0a 3e
       0.052695937 0.07515896 0.083669424 0.13483985
000010 87 21 aa 3d b1 df 0a 3e 73 1a 8f 3d a3 8f e7 3d
       0.08307176 0.13561894 0.06987467 0.113066934
000020 8b 5d 1b 3e 37 a0 13 3e 27 d9 0c 3e a5 49 5c 3e
       0.15172403 0.14416586 0.13754712 0.21512468
000030 61 53 12 3e d2 5b 07 3e 07 e9 0d 3e d4 99 04 3e
       0.14289619 0.1321862 0.13858424 0.12949306
000040 f8 13 15 3e 4d 55 ef 3d 24 ff 80 bd ee 79 c9 bd
       0.14558399 0.11686192 -0.06298664 -0.09837709
000050 dd cf 52 be 44 3b b4 bc 16 75 7c bc 38 20 d0 bc
       -0.20587106 -0.022000916 -0.015408775 -0.025405988
000060 a4 25 b8 39 c3 ce cb bc 09 44 be bc 16 9f f4 3b
       0.0003512326 -0.024878865 -0.023225801 0.0074652536
000070 cc d0 1d bb 57 d5 ee 3d 76 cd 88 ba 16 7b 97 3c
       -0.0024080751 0.11661785 -0.0010437209 0.01849131
000080 cf 4e a1 3d 62 4a ef 3a a5 58 95 3d 9b bb eb 3d
       0.0787636 0.0018256421 0.07292298 0.11510392
000090 1a b6 15 be 89 0c 98 bd a4 23 17 be 28 85 1f be
       -0.14620247 -0.07424266 -0.1475969 -0.15578139
0000a0 2c fa d9 bd 6a dd f2 bd 68 50 96 bd fb 39 2c be
       -0.106434196 -0.11858638 -0.07339555 -0.16818993
0000b0 71 3b 16 be aa a4 57 bd 84 4e 60 bb c6 01 1f bc
       -0.14671113 -0.05264727 -0.0034226486 -0.009705013
0000c0 d2 2a 37 3d 21 79 a2 bc 6f f8 47 3d f4 b1 89 bb
       0.04471857 -0.01983315 0.04882091 -0.004202122
0000d0 ee 1f 9e 3c 6b 2d 0a 3d 93 c0 4d bd 2a ba d3 bd
       0.019302335 0.03373472 -0.05023248 -0.10338242
0000e0 1b b4 2f be 2f a8 a1 3d b0 ce a5 3d be b3 00 bc
       -0.17158549 0.078934066 0.08096063 -0.007855354
0000f0 4e 87 f2 3d b2 fd 1f 3e e6 d5 8d 3d 94 3e 82 be
       0.118422136 0.15624121 0.069255635 -0.25438368
000100 12 41 7c be b9 4f 79 be ca 49 ff bc 5e 23 7f bd
       -0.24634197 -0.24346818 -0.031163115 -0.06228959
000110 56 3f ba bd c6 4a 45 3d 64 5a 1c 3d 8b b7 60 3d
       -0.090941116 0.048167013 0.03817214 0.05486254
000120 d3 05 71 3b a9 92 8c 3c 98 79 62 3d 74 7f 4b 3d
       0.0036777153 0.017159777 0.055291742 0.049682096
000130 e9 44 ba bc ba c5 c0 3d 57 9c 25 3d 74 c2 40 3d
       -0.022737937 0.09412713 0.0404323 0.047060445
000140 f9 bc 44 3d 0e 71 e2 bc 56 8e 41 3b e1 91 28 bc
       0.04803178 -0.0276418 0.0029534302 -0.0102886865
000150 11 a1 52 bd 2b 18 89 bd 59 e0 79 bd f3 ef 8f bd
       -0.051423136 -0.06694063 -0.06100497 -0.070281886
000160 65 88 91 bc dd 1e 7c bc 34 b5 03 3e 59 5c f1 3d
       -0.017765233 -0.015388218 0.12862092 0.11785192
000170 85 b7 0b 3e 28 ee 42 3d 41 9d d0 3d 58 46 23 3e
       0.13644226 0.047590405 0.10186244 0.15944803
000180 49 d7 84 3d de 06 e5 3d fb fd ad 3d 40 dd 85 3e
       0.06486375 0.111829504 0.084957086 0.26145363
000190 df 0c 82 3e 04 5b 64 3e ea ef 53 3e 7b cc 58 3e
       0.25400445 0.22300345 0.20696989 0.21171753
0001a0 5d 23 39 3e b9 b1 3a 3e 26 df 74 3e 1a 55 84 3e
       0.18079896 0.18231858 0.2391325 0.25846177
0001b0 ae 3a df bb b8 58 24 3d 5a 0f 0a 3e f8 17 a6 3d
       -0.006812415 0.04012367 0.13482419 0.081100404
0001c0 e1 d1 8f 3d d3 81 fe 3d 8f fb 7e 3d b7 ca 1c 3e
       0.07022453 0.12427106 0.062251624 0.15311705
0001d0 1b ee 2e 3e c4 29 c2 3d 47 78 00 3e 0f c3 30 3e
       0.17083018 0.094806224 0.12545882 0.17261909
0001e0 79 10 96 3c 93 1d f0 3c f4 5f 04 3e 6d 12 7a 3d
       0.018318402 0.029310977 0.12927228 0.06105273
0001f0 61 34 6b 3d cc c4 f3 3c eb 23 01 bd 2c ce 07 bd
       0.057423 0.029756926 -0.031528395 -0.033155605
000200 d3 2d 87 3c 85 90 b1 3c 2e 8d c4 3c 59 b9 bc 3d
       0.016501343 0.021675358 0.023993101 0.0921504
000210 95 12 bd bc 00 fb 5f bc 13 d9 ce 3d 0b a7 45 bd
       -0.02308015 -0.013670683 0.10099997 -0.048255008
000220 09 92 13 bd f6 c4 08 bd e4 9e 75 3b 87 4d a4 bc
       -0.03602794 -0.03339096 0.003747874 -0.0200565
000230 02 96 d5 3c fb 84 44 bd 12 9c 47 bb fa fc 0b 3d
       0.026072506 -0.047978383 -0.0030458015 0.034176804
000240 32 f2 30 be 96 c7 0d be f1 2e 52 be d8 af 01 be
       -0.1727989 -0.13845667 -0.20525719 -0.12664735
000250 e2 de 53 bd e2 d6 15 be 55 f2 be bd f3 69 b9 bb
       -0.05172623 -0.14632753 -0.09323565 -0.005658382
000260 95 bd 66 bd 8f 62 30 3d 1e a6 84 3d 74 14 b6 3d
       -0.056333143 0.043062743 0.06476997 0.0889062
000270 2b a2 28 bc 76 d1 47 3d 0a c7 a4 3d 51 c9 6a 3d
       -0.01029257 0.048783742 0.08045776 0.057320897
000280 97 41 83 3c f6 d7 80 3d e4 cd 1b 3e 1d 0a b6 3d
       0.016022487 0.06291191 0.1521526 0.08888648
000290 c4 40 26 bd 31 90 77 3e 95 27 0c 3e 8e 2b 9f bb
       -0.04058911 0.24176098 0.13686974 -0.004857487
0002a0 a7 8b 4b 3e 39 28 04 3e c3 31 82 3c d0 c8 8c 3c
       0.19877492 0.12905969 0.015892869 0.017185599
0002b0 f0 9b af 3c 35 2f 56 3d b7 20 41 bd f1 de 28 3c
       0.021436661 0.052291114 -0.04715034 0.01030706
0002c0 e6 36 92 3c b9 86 b4 3c a6 82 33 3d c0 f5 9d 3d
       0.017848443 0.022036897 0.043825768 0.07712889
0002d0 b5 b1 4f 3d d9 bf 91 3d dc 45 e8 3d 65 0d 8b 3c
       0.050706584 0.0711667 0.113414496 0.01697416
0002e0 aa 6e 02 3d 96 47 50 3d d3 ac 21 3d 74 e4 95 3d
       0.03184382 0.05084952 0.03947146 0.073189646
0002f0 67 1c b1 3d e1 16 0e 3d 70 5a 49 3d f5 57 c8 3d
       0.086479954 0.034689788 0.049158514 0.097824015
000300 8c a0 b9 bc c2 52 64 3d 65 40 e6 3d 21 30 4e 3d
       -0.022659563 0.055742987 0.11242751 0.050338868
000310 a2 6f c2 3d 22 ca 55 3e 85 9f 96 bd 4d 8e a7 bd
       0.094939485 0.20877889 -0.07354645 -0.081814386
000320 f5 0d 0f 3d 8b 1c 3b bc 03 8b 5c bc dd 99 06 3d
       0.03492542 -0.011420379 -0.013460877 0.03286158
000330 b2 78 17 bd d2 ed 99 bc b4 fd a9 3c d4 44 35 bd
       -0.03698034 -0.01879016 0.020750858 -0.044255093
000340 3d f7 52 bd 86 02 20 bd 90 fe 9c bb 2b 35 11 bc
       -0.051505316 -0.039064907 -0.0047910884 -0.008862774
000350 a7 74 88 3d ca 4c 6e 3d 5a ed 58 3d 50 1f d9 3d
       0.06662875 0.0581787 0.05296073 0.106016755
000360 c7 30 87 bd c8 03 97 bd 8a 98 39 bd 17 d7 03 bd
       -0.066011004 -0.07373768 -0.04531149 -0.032187548
000370 f8 ff 36 bd 93 a2 ca bc 8f f4 c0 bc b7 5c 74 bc
       -0.044677705 -0.024735725 -0.023554115 -0.014914683
000380 a5 69 e0 bc 7c 3c 33 3e 86 e0 19 3e 0c 83 a5 3d
       -0.027394125 0.17503542 0.15027055 0.08081636
000390 3d 97 26 3e 45 04 f7 3d 9b c1 35 3e 8a 39 45 3e
       0.1626863 0.12061361 0.17749636 0.1926023
0003a0 29 21 4e 3e ee b7 4b 3e d9 0c 0b be 47 a1 25 bd
       0.20129837 0.19894382 -0.1357912 -0.04043701
0003b0 67 20 21 bd f1 db 05 be a5 2b c2 bd 5e 7a cf bc
       -0.039337542 -0.13072182 -0.09480981 -0.025326904
0003c0 f7 f5 09 be 3e 5c 1c bd eb c2 e4 ba 65 54 9f bd
       -0.13472734 -0.038173907 -0.001745311 -0.07779769
0003d0 cd 76 21 bb fb 1a 3f 3d 07 79 d8 bd 2b 98 78 bd
       -0.0024637461 0.04665659 -0.10569959 -0.060691994
0003e0 83 88 c5 3a 99 99 8e bd be 94 47 bd 6d 7b a7 3a
       0.0015070591 -0.0696289 -0.048725836 0.0012777873
0003f0 62 47 2d 3c 4d f8 e1 bc d4 57 2f bd 10 a7 09 bd
       0.010576101 -0.02758422 -0.04280837 -0.03360659

conv3.bias f4 [64]
000000 5a 7e fc 3c d0 21 0e 3d 6c db d8 3b df 3d c9 bb
       0.030821968 0.034700215 0.006617954 -0.006141409
000010 22 cd 8b 3c 17 47 27 bb da 91 07 3c c8 b5 bf 3c
       0.017065588 -0.002552455 0.00827452 0.02340211
000020 12 8a 98 bc 1c 24 52 3c e9 d9 10 3d 7c bd 51 bb
       -0.018620525 0.012825992 0.035364065 -0.003200381
000030 93 f2 19 bd 3d 5f 0d bc 1b 20 b4 3c a6 5d cb 3b
       -0.037584852 -0.008628664 0.021987965 0.006206232
000040 ed 36 11 bd 9f c5 60 bc a9 19 0a 3c 1a 9b 39 3c
       -0.035452772 -0.013718992 0.008428969 0.011328483
000050 e8 f2 b1 bc 6b 6b 5b bb 50 e7 9c bb f4 09 14 bd
       -0.021722272 -0.0033480774 -0.004788317 -0.036142305
000060 c5 a8 88 3c e6 94 84 3c ba c0 80 3b 47 19 7e 3c
       0.016682038 0.016184282 0.003929225 0.015508956
000070 07 92 02 bd d6 87 ee 3c bd 41 1b 3c d0 6c a9 bc
       -0.031877544 0.029117506 0.009476122 -0.020681769
000080 b2 a8 de 3c fb b5 ea 3c 74 1a cf 3c 5c 32 e9 3b
       0.02718005 0.028651228 0.025281169 0.007116599
000090 65 c9 95 3b 5b a6 b6 bc a5 18 2a bb 70 8a 45 3b
       0.0045711272 -0.022296121 -0.002595463 0.003014233
0000a0 1c 64 e3 3c 91 70 9b bc ed 7f f8 bb 35 ba 0d 3a
       0.027757697 -0.018974574 -0.0075836093 0.000540647
0000b0 e1 1a 72 3c 54 17 19 bc 84 80 1f bc d0 f1 88 bc
       0.014776916 -0.009343941 -0.00973523 -0.016716868
0000c0 fd 6e 99 3c 15 82 82 bc ee 7d 9f bc 07 b6 e3 bc
       0.018729681 -0.015931169 -0.019469228 -0.027796758
0000d0 2d 84 3e 3c bf 61 bb bb ca d6 a7 bc 43 32 a9 3c
       0.011628193 -0.0057184394 -0.020488162 0.02065385
0000e0 b4 c6 28 bd 76 58 93 bc 8e ba 42 bb 71 da ad 3b
       -0.041205123 -0.017986517 -0.0029713246 0.0053055813
0000f0 d0 d1 09 3d bf 15 cd 3c 0c 6d 08 3b bc 77 1e 3d
       0.03364736 0.025034783 0.002081695 0.038688406

conv4.weight f4 [64, 64, 3, 3]
000000 ec dc c2 bd 8f 20 1c be 77 45 1c be 11 11 9b bd
       -0.09514794 -0.15246795 -0.15260874 -0.075716145
000010 60 ef f5 bd 3b 5e 2b be 2e ac 88 bd fd 0a 70 bd
       -0.12008548 -0.16735165 -0.06673466 -0.05860423
000020 3e 30 0a be 9c 25 3d bc fe 26 4c bd a6 33 86 bd
       -0.13494965 -0.011544611 -0.049841873 -0.0655282
000030 ad b7 a0 bd ff e9 ce bd 55 d6 65 bd 54 60 89 bc
       -0.078475334 -0.10103225 -0.056112606 -0.016769566
000040 46 ac 9a bd b2 66 01 bd 50 fa 8a 3e 4b a6 6f 3e
       -0.0755239 -0.03159208 0.27144098 0.2340328
000050 eb ac 06 3e b2 49 2e 3e 8e 01 05 3e 4f e4 e6 3d
       0.131519 0.170203 0.12988874 0.11274015
000060 c8 90 fe 3d 04 b0 13 3e 18 28 01 3e 23 73 8d bd
       0.124299586 0.14422613 0.12612951 -0.06906726
000070 27 b5 9d bd f5 2c 81 bd eb f6 d4 bc c0 25 e4 bd
       -0.07700568 -0.06307403 -0.025996646 -0.11140013
000080 b5 bc a0 bd a4 5b cc bc 2f 25 ac bd ca d4 ae bd
       -0.07848493 -0.024946041 -0.0840553 -0.0853668
000090 ba e4 58 3c 81 96 f8 3c 68 83 a8 bc 16 44 ef 39
       0.013238126 0.030345203 -0.020570472 0.0004563636
0000a0 3a 39 45 3c 27 8f ab bc 81 49 56 bc 79 93 89 bd
       0.01203757 -0.020942284 -0.013079048 -0.06717581
0000b0 d9 18 0c bd 69 a1 e5 bb bf e4 19 3d 9c 91 5a 3a
       -0.034203384 -0.007007767 0.037571665 0.00083377375
0000c0 25 20 fa bc de 42 0b bc 60 9a 46 3d 50 00 39 3c
       -0.030532906 -0.008499829 0.048487067 0.011291578
0000d0 a5 5a 8c 3d cb 97 40 3d 8a d1 0e be 22 6c 0d be
       0.068532266 0.04701976 -0.1394712 -0.1381078
0000e0 ec 39 f8 bd 15 4b c2 bd a5 df 24 be d7 ea 1a be
       -0.12120423 -0.09486977 -0.16100939 -0.15128647
0000f0 ad 0a c5 bd 0c df 10 be 55 eb 0f be 6a 7a ad 3b
       -0.09621177 -0.14147586 -0.14054616 0.005294134
000100 4e 8c 2e 3c 1f 64 2a bd 9a b4 58 3d 82 1f 6c 3d
       0.010653568 -0.04159939 0.05290661 0.057647236
000110 36 9b 84 bc c2 15 a5 3d 92 44 a0 3d 64 b8 e8 3c
       -0.016187292 0.080607906 0.07825579 0.028408237
000120 5c 99 2f bd 90 b4 94 bd 07 e7 44 3c 18 d1 72 bd
       -0.042870864 -0.07261002 0.012017972 -0.05928144
000130 15 f8 ca bc 75 d5 05 bd 5e da 1f 3d 6e 1c b1 3b
       -0.024776498 -0.03267427 0.03902661 0.0054050004
000140 26 26 22 3c 17 92 55 bd f2 65 81 bd 90 20 00 be
       0.009896791 -0.052141275 -0.06318273 -0.12512422
000150 83 ab 95 bd 8c 0c e8 bd 1c dd 75 bd 29 f3 a9 bd
       -0.07308104 -0.11330518 -0.06002532 -0.08298332
000160 9a 2b 88 bd 2b ec ca bc bd a5 1b 3e 9e 5d 25 3e
       -0.06648941 -0.024770817 0.15199943 0.16148993
000170 d0 a9 59 3e af 7b f8 3d 60 67 31 3e 24 11 79 3e
       0.21256185 0.12132966 0.1732459 0.24322945
000180 e5 d7 4b 3e bc 2e 70 3e 63 64 7e 3e 58 fb 65 3d
       0.19906576 0.23455328 0.24842982 0.056147903
000190 b7 57 d6 3c 6c e1 67 3c 19 b6 71 3d 6a 3a df 3b
       0.026164873 0.014152866 0.059011552 0.0068123834
0001a0 d1 7f d5 bb 0e 20 39 bc ac 69 38 3c c8 58 01 3c
       -0.006515481 -0.011299146 0.011255663 0.007894702
0001b0 e1 b1 89 3c 68 35 74 3d 97 fe 84 3d 90 5c c0 3c
       0.016808452 0.059621245 0.06493872 0.023481637
0001c0 1d 64 80 3d 37 70 7c 3d f8 06 8f 3a 09 3b 93 3d
       0.06269095 0.061630454 0.0010912111 0.071889944
0001d0 3d e7 f8 3b 02 79 ce bc 46 e7 1a bd 47 bc f3 bc
       0.007595925 -0.025204185 -0.037818216 -0.029752864
0001e0 de 8b 25 3b dc d4 14 bd 83 7f d0 3c 5f db 87 bd
       0.002526037 -0.03633581 0.025451427 -0.066336386
0001f0 28 7e 2b bd 3a 84 b3 3b b4 b0 95 3d ed 49 92 3d
       -0.04186836 0.005478409 0.07309094 0.071430065
000200 b6 6f ac 3d da 4a 5a 3c d8 d9 7e 3d f6 45 6d 3c
       0.08419745 0.01332351 0.06221947 0.014482012
000210 ad d9 45 3d ac 20 26 3d 79 b5 ac 3d dc 5b 6a 3c
       0.048303295 0.040558502 0.08433051 0.014304128
000220 ea e8 16 bd 90 2b 6f bd b5 a0 b4 3c f6 11 75 3c
       -0.036843218 -0.058391154 0.022049287 0.0149578955
000230 c3 3b 70 bd b8 e0 fb 3c 39 b1 75 bd 4e 14 c2 bb
       -0.058650743 0.030746803 -0.059983466 -0.0059228307
000240 4e f3 5c 3e c0 ce 81 3e 95 d2 93 3e 2e 47 54 3e
       0.21577188 0.2535305 0.288716 0.20730278
000250 be df 7a 3e 67 5c 90 3e 82 9a 8e 3e b4 0a a8 3e
       0.24499413 0.28195497 0.27852255 0.32820666
000260 ad 74 99 3e 62 f8 16 3e 2c 8b 15 3e b5 1f 2f 3e
       0.2997183 0.14743188 0.14603871 0.17101939
000270 85 63 23 3e e1 e4 48 3e 54 e4 42 3e e8 e3 56 3e
       0.15955932 0.1961856 0.19032413 0.20985377
000280 83 ac 68 3e 0c b6 8e 3e 0b 1a f8 3d 26 3b a7 3d
       0.22722058 0.27873266 0.12114342 0.081655785
000290 8e 0f 11 3e 8b 45 78 3d bc b6 c6 3d ba e7 81 3d
       0.1416609 0.060613196 0.097028226 0.063430265
0002a0 3a e7 0f 3d 21 8b 85 3d a1 7c 64 3d d6 00 65 3d
       0.035132624 0.06520677 0.055782918 0.055909
0002b0 30 48 0a bd 46 25 44 3a 7e f8 1f 3b ab 4a c2 3b
       -0.03376025 0.0007482361 0.0024409587 0.0059293113
0002c0 d6 97 37 bc 64 c2 b2 3c 2d 7d 26 bc 68 ec 62 3c
       -0.011205634 0.021821208 -0.01016168 0.013850309
0002d0 85 f6 ee 3b 77 ea b2 3c f1 0f 4c 3d a4 f9 a9 bd
       0.007292571 0.021840317 0.04981989 -0.08299568
0002e0 02 ea 97 bd 24 b3 a1 bb 8c 22 b3 bd 14 ee 78 bd
       -0.0741768 -0.0049346853 -0.08746824 -0.060773924
0002f0 84 96 89 bd 36 e8 c0 3c 25 e6 5a 3c 16 c8 12 3d
       -0.06718162 0.023548227 0.013360535 0.035835348
000300 4d 7f 94 3c 91 03 d9 3c 66 6d bb 3b da f2 00 3d
       0.018127108 0.026490958 0.0057198284 0.0314816
000310 cf 14 45 3d 52 d9 58 3d cc 02 cd bd 42 26 af bd
       0.048115548 0.052941628 -0.10010299 -0.08552219
000320 88 f1 08 be 4f b8 05 be 6c 6a e1 bd dc b1 1d be
       -0.13373387 -0.1305859 -0.110066265 -0.15399879
000330 06 e2 0d be 2f 80 0c be d7 00 05 be 60 f0 a3 bd
       -0.13855752 -0.13720773 -0.12988602 -0.08004832
000340 8d 34 76 bd 89 bd 1b bd 20 d3 26 bd f7 67 c5 bd
       -0.06010871 -0.03802255 -0.04072869 -0.0963897
000350 29 27 59 bd ab 63 c8 bd 57 0a d1 bc ab 8e 5a bc
       -0.05301586 -0.09784635 -0.025517626 -0.013339679
000360 85 33 aa 3d a9 71 3c 3e 93 8b 49 3e 6a 8a 1b 3e
       0.08310608 0.18402733 0.1968215 0.1518952
000370 8d 65 37 3e bc 30 56 3e b0 11 f2 3d c6 fe 3a 3e
       0.17909832 0.20917028 0.1181978 0.18261251
000380 d8 27 4c 3e 99 89 54 3d b1 a1 89 3d 1d 45 84 3d
       0.19937074 0.051889036 0.06720293 0.06458495
000390 55 c6 15 3d ab 64 90 3d 71 9a 01 bc 41 92 29 3d
       0.036566097 0.07050451 -0.007910357 0.041399244
0003a0 88 4d 3a 3c 23 db 2d bc 63 01 64 bd 72 e6 9b bd
       0.011371024 -0.010611328 -0.055665385 -0.07612313
0003b0 36 2b a8 bd 33 35 55 bd 83 cd 2f bd b3 51 2c bd
       -0.08211367 -0.052052688 -0.0429206 -0.042070102
0003c0 53 99 80 bd f6 75 55 3c 87 3c 63 bd db 8b e5 3d
       -0.06279244 0.013028612 -0.055477645 0.11208316
0003d0 40 e3 85 3b 89 7c 43 3d f7 c5 52 3d a3 dc 9c 3d
       0.004085928 0.047726188 0.051458325 0.076592706
0003e0 58 d9 bf 3b 91 51 d2 3d df f2 2a 3c a2 ac c3 3c
       0.005854767 0.10269464 0.010433882 0.023886029
0003f0 30 b0 47 3d 35 d0 03 3d 7c a6 0c bd c9 38 0c bd
       0.04875201 0.032180984 -0.03433846 -0.034233842

conv4.bias f4 [64]
000000 ff 77 0e bd f4 0b 17 3c fa 94 1b 3d 2b 4d 3e bc
       -0.034782406 0.009219158 0.037983872 -0.011615078
000010 fa aa 04 bd 9f d2 e6 bc ff 02 f7 3c 29 fc 22 3d
       -0.03238962 -0.028176604 0.030152796 0.03979126
000020 a7 82 0c bd bd 87 28 bd 6f 28 28 3d ed f2 12 bd
       -0.034304287 -0.041145075 0.041054185 -0.035876203
000030 b6 0d 7d 3a 65 ce 2d bc 4b ac 94 bc da bb 10 3c
       0.0009653227 -0.01060829 -0.018148562 0.00883385
000040 55 ec 32 3c 7c 15 07 3d 2d 56 ec ba 8e 95 7a 3c
       0.010920604 0.032979473 -0.0018031053 0.015294446
000050 80 f9 18 3b 4e 50 09 bd 8c 3f d7 bc fb 6b cd 3c
       0.0023342073 -0.03352385 -0.026275419 0.025075903
000060 44 a4 19 bd 9d 63 da bc 2c b3 cb bc c5 14 0a bc
       -0.03751017 -0.026658827 -0.02486571 -0.008427803
000070 c5 9c 11 3d 69 49 1d 3d ff ca 83 3c 58 71 05 3d
       0.035549898 0.038400088 0.016088007 0.032578796
000080 e2 95 cf 3c 02 dd 0b 3d cb 78 d0 3c 7a cd 9e 3c
       0.025340024 0.034146316 0.025448224 0.019385088
000090 b0 ad 1b bd 01 48 13 3d dc aa 84 bc ba e7 14 3c
       -0.03800744 0.03595734 -0.016194753 0.009088451
0000a0 30 60 17 bd 02 89 29 3c 26 c4 4f 3c 8f 8f 1c bd
       -0.036956966 0.010347607 0.012681043 -0.038222846
0000b0 a1 47 78 bc b2 6e 2a bd a2 7f c9 bc 18 14 aa bc
       -0.015153796 -0.041609474 -0.024596993 -0.020761535
0000c0 ff f1 9c bb e9 e7 89 3c c7 56 13 3d 59 c0 ee 3b
       -0.0047895904 0.016834216 0.03597143 0.007286113
0000d0 16 de b7 bc 48 a8 de bb 8b 4f dc bc 7b 13 0b bd
       -0.022444766 -0.006794963 -0.026893398 -0.033954125
0000e0 2b c9 c8 3c 3c 39 bc 3b cf 99 21 bb 20 15 d4 bc
       0.024509987 0.0057441276 -0.0024658327 -0.02588898
0000f0 02 ce c7 3c 69 e2 e7 bc 3e bd b6 3c c4 3c b8 bc
       0.024390224 -0.028306203 0.022307035 -0.022489913

linear.weight f4 [5, 64]
000000 a4 b5 29 bf d1 77 20 bf 8e b4 5e bf b8 33 27 3f
       -0.66292787 -0.62682825 -0.86994255 0.6531329
000010 a0 3c 04 c0 57 80 96 bf ee 1a 8c be 1a 6d 0d bf
       -2.0662003 -1.1757916 -0.27364296 -0.552446
000020 94 60 1e bf 95 41 a3 be 0d 32 1a bf 58 f8 7b be
       -0.61866117 -0.31885973 -0.6023262 -0.24606454
000030 19 bb a7 bf d3 6e 23 40 61 2f 15 bf b8 b2 05 bf
       -1.3103973 2.5536392 -0.5827542 -0.5222583
000040 b6 f9 1b bf 88 d3 97 3f 92 1b bd be 01 a2 0f 40
       -0.60927904 1.1861429 -0.36935097 2.244263
000050 0c 6b e2 be ab 34 a2 bf 32 d6 ca bc a3 d8 b3 bf
       -0.44222295 -1.2672323 -0.02476034 -1.4050487
000060 b2 27 91 bf 54 8e 69 bf d4 f8 87 bf 10 12 ea be
       -1.1340239 -0.912328 -1.0622811 -0.45716906
000070 e0 e4 54 3d c0 32 37 be 05 32 9c be 26 7b 51 be
       0.051976085 -0.17890453 -0.30506912 -0.20457134
000080 7e 08 0b 3f 1c 9c 1e bf e8 8c b4 bd 50 77 79 3b
       0.54309833 -0.61956954 -0.08815938 0.00380655
000090 02 92 86 3f c7 3e cb 3d 31 56 c2 bf a1 11 9e 3e
       1.0513308 0.09924083 -1.5182554 0.30872825
0000a0 3b 4a 13 bf ba bd 4b bf 85 7a 85 3d aa 54 fc 3f
       -0.5753514 -0.79586375 0.06517509 1.9713337
0000b0 bc 67 e2 be 34 ea 4d 3e bd 79 28 bf 60 e1 e2 3d
       -0.44219768 0.20108873 -0.6581076 0.11078143
0000c0 41 55 33 bf 6e 7b 7f 40 5d 40 b8 be c7 4a 2c bf
       -0.7005196 3.9919086 -0.35986605 -0.673016
0000d0 94 3a e6 be 55 1c 85 be 6e f5 0c c0 6b 96 25 40
       -0.44966567 -0.25998178 -2.2024798 2.5873058
0000e0 aa 7c 73 bf dd a1 96 bf 80 11 36 bf 18 2c 46 bf
       -0.951121 -1.1768147 -0.7112045 -0.7741103
0000f0 61 5a 9a bf 70 7d 9f 3f 6e 3a ef 3d a8 bc 1d bf
       -1.2058831 1.2460155 0.116810665 -0.6161599
000100 8f 29 ef bd f7 d5 71 3f 05 b1 87 bf 66 8d 8c bf
       -0.116778485 0.9446711 -1.0600897 -1.0980651
000110 9e 0e 48 3f 91 65 2a bf a7 a1 7f 3f 60 9f e1 be
       0.78147304 -0.6656123 0.99856037 -0.44066906
000120 3c 98 ad bf 8a b5 6a 3e 27 2c fa be 84 c0 a9 3d
       -1.3562083 0.22920814 -0.4886181 0.082886726
000130 d0 ea 23 3f 00 3c d0 3e 82 95 d0 bd 17 c2 47 bc
       0.6403017 0.40670776 -0.10184766 -0.012192271
000140 c1 d7 af bd 15 9a 7b bf aa 82 5f bf 78 ff b4 be
       -0.08586074 -0.98281986 -0.8730875 -0.35351157
000150 f4 a7 67 bf 92 6f e2 3f d2 5a 14 be 7c 96 0f bf
       -0.9049065 1.7690299 -0.1448777 -0.56088996
000160 f0 5a 80 bf d8 05 b0 be d4 0b 8a bf e0 5b d7 be
       -1.0027752 -0.34379458 -1.078486 -0.42062283
000170 2e dc 0e bf b8 6d 45 40 2d c2 af be 3a 07 a7 3e
       -0.5580472 3.0848217 -0.34327832 0.326227
000180 82 7e d3 bf 57 23 c9 be d2 85 56 bf 95 6d b4 be
       -1.6522982 -0.39284775 -0.83797944 -0.35239854
000190 6b 2c 97 3e bb fd 90 3f 45 49 5d bf ed 80 8a 3e
       0.29526076 1.1327432 -0.86439925 0.27051488
0001a0 6a 8a af be df 0c 57 be 90 ce 84 bf 66 9f da bf
       -0.3428529 -0.21001004 -1.0375538 -1.7079895
0001b0 b2 6f 47 bf 19 c0 eb 3e 02 c3 99 be 3c 52 f8 3e
       -0.7790481 0.46044996 -0.30031592 0.4850024
0001c0 7b b4 75 bf fe ae 9f bf ba 10 40 be 7e 99 57 3f
       -0.95978516 -1.2475278 -0.1875638 0.84218585
0001d0 95 a6 35 40 b9 c5 57 be c3 d3 80 3f 09 2a d2 be
       2.8382924 -0.21071519 1.0064625 -0.41047695
0001e0 a4 c2 99 bf ea 9a 30 be a1 c4 90 bf a5 ce 96 bf
       -1.2012525 -0.17246595 -1.1310006 -1.1781813
0001f0 4f 82 4e 40 b8 4f a6 bf a8 37 5b bf 20 6b 4d be
       3.2267034 -1.2993078 -0.856318 -0.20060396
000200 89 90 ca be e8 0f ec 3e 35 5c ad bf f7 76 a0 be
       -0.39563397 0.46105886 -1.3543764 -0.31340763
000210 c3 62 a2 3d 5d 1f 54 40 fd a4 b5 3e 68 1a d7 3c
       0.079289936 3.3144143 0.3547744 0.026257709
000220 d0 76 bd 3e 9e 90 1d bf 80 a3 8c be 50 e9 4a bf
       0.3700471 -0.61548793 -0.2746849 -0.79262257
000230 c8 e0 fe 3e d5 4e 1a c0 fb 52 c3 be 92 62 11 bf
       0.4978087 -2.4110615 -0.38149247 -0.5679103
000240 78 14 81 3b fb f1 81 3f 9c 8f bb 3d b0 37 49 3f
       0.0039392076 1.0151972 0.09158251 0.786006
000250 f3 86 a8 be f3 d4 97 bf 52 e3 54 bd 89 56 ed bd
       -0.32915458 -1.1861862 -0.051974602 -0.11588771
000260 7f e9 c8 3f 17 6a 9d 3e f5 a4 1d 40 07 c0 0e 3f
       1.5696257 0.30745003 2.4631932 0.5576176
000270 7e 99 83 3e 42 0e b8 bf 03 9f ff bd 0f d1 83 bf
       0.25703043 -1.4379351 -0.12481501 -1.0298175
000280 e6 68 a1 be 2c 44 35 3f 41 67 15 c0 5c 2e af bd
       -0.31525344 0.7080715 -2.334427 -0.08553764
000290 8e ee 83 3e ab d0 f0 bf 50 90 6d 40 57 e4 e5 bf
       0.2576794 -1.881368 3.7119331 -1.7960309
0002a0 6d ad de 3e 87 59 cb be 8c d8 f4 be 0f a8 2e bf
       0.43491688 -0.3971674 -0.47821462 -0.6822519
0002b0 67 67 c7 be 26 6d 9d bf e1 32 c2 bd 2a b2 4e bf
       -0.38946077 -1.2298934 -0.09482361 -0.80740607
0002c0 75 c6 28 bf c8 f9 8e bf e7 1a c8 bf 6a 60 3b bf
       -0.6592782 -1.1169977 -1.563321 -0.7319399
0002d0 14 69 3b bf 0a 98 a0 bf 55 57 bb 3e d3 16 04 c0
       -0.7320721 -1.2546399 0.36590067 -2.063893
0002e0 23 8f 92 3e c0 ec 2f 3e b2 02 82 bc 78 ce a1 be
       0.2862483 0.17180157 -0.015870426 -0.31602836
0002f0 43 f2 7d bf 25 a0 33 be c7 21 7d be 49 26 88 bf
       -0.9919779 -0.17541559 -0.24719916 -1.0636684
000300 8f 26 48 bf 12 ec 66 be 00 23 0a 40 7d 30 42 bf
       -0.78183836 -0.22550991 2.1583862 -0.7585524
000310 6e 57 b0 3f b8 6f 9d bf 47 78 06 bf d2 4a 02 3f
       1.3776681 -1.2299719 -0.5252728 0.50895417
000320 7d 96 86 3c a8 c0 94 bf 4e bd 67 3e 5e 34 4a bc
       0.01642918 -1.1621294 0.22630808 -0.012341587
000330 59 b4 72 bf 8d 11 0e bf 1f 24 da 3d 62 9d 54 3e
       -0.9480644 -0.5549553 0.10651421 0.20763162
000340 ba b4 e8 be 5a 11 78 be ce f6 f3 be f2 d9 0d c0
       -0.45450383 -0.24225369 -0.47649235 -2.2164273
000350 b2 9c 39 bf fc 7d ab 3e 56 0f 3a bf 06 2d a0 3f
       -0.72504723 0.33494556 -0.7267965 1.251374
000360 98 b0 83 be 31 fb a5 bf 32 93 0d bf 56 d8 2b 3e
       -0.25720668 -1.2967283 -0.5530273 0.16781744
000370 fb fe 80 bf 29 8a f4 bf b5 0c 01 bf 32 58 e6 be
       -1.0077814 -1.9104663 -0.50410014 -0.44989163
000380 e5 49 20 3f ed 1a 20 bf 30 0d 53 40 aa db 9c bf
       0.62612754 -0.62541085 3.29768 -1.2254536
000390 16 37 d2 bf bc b5 16 3f 3d 64 b1 be 20 c0 01 be
       -1.6423061 0.58871055 -0.34646788 -0.12670946
0003a0 cf 02 d9 bd e7 dc e8 3f 8e ea 03 3d 59 c6 4b 3e
       -0.10596239 1.8192414 0.03220611 0.19899882
0003b0 0b 0e 4e bd b3 3a 56 be 64 1f 78 be 4a 21 a1 bf
       -0.05030636 -0.2092083 -0.24230725 -1.2588284
0003c0 82 32 31 3f c0 39 81 bf 86 70 9a 3e b4 99 ee be
       0.69217694 -1.0095749 0.30163974 -0.4660164
0003d0 3a da 8a bf 6d d7 85 3f d0 59 1c 3e af 6b 96 bf
       -1.0847847 1.0456368 0.15268636 -1.1751612
0003e0 8f aa 24 3f 5d fa 51 bf 54 64 21 40 28 b2 27 3d
       0.6432275 -0.8202265 2.5217485 0.040941387
0003f0 b3 f7 ab bf f5 67 59 3f b3 1a 55 bf 6e bb be 3d
       -1.3434967 0.8492425 -0.83243865 0.09313093

linear.bias f4 [5]
000000 06 82 36 3f 27 3f f0 be 08 77 62 3e fe 0d 5f 3f
       0.7129215 -0.4692318 0.2211572 0.87130725
000010 9a 06 bc bf
       -1.4689515
