MAMLExperiments/src/finetuned_model.pth (torch, 449799 bytes, 10 tensors)

conv1.weight f4 [64, 1, 3, 3]
0	0xbe1677c6	-0.14694127
1	0x3e06eda2	0.13176587
2	0x3e88ece2	0.26743227
3	0x3eaeca8e	0.34138912
4	0x3e9b2d9d	0.30308238
5	0x3de23e0c	0.11046991
6	0x3d8a8d4a	0.0676523
7	0x3b3083d8	0.0026934054
8	0x3e9b72ef	0.30361125
9	0xbe95f8d9	-0.29291418
10	0x3e7f6a96	0.24943003
11	0xbd44d576	-0.048055135
12	0xbbcc0f4c	-0.0062274095
13	0xbe902447	-0.28152677
14	0x3d49bd04	0.049252525
15	0xbd2a1cb3	-0.041531276
16	0x3e6181b4	0.22022134
17	0x3e18cdcf	0.1492226
18	0x3ebf1697	0.37321922
19	0xbdfe22c5	-0.124089755
20	0xbd972849	-0.07380731
21	0xbe3800cc	-0.17969054
22	0x3e08245a	0.13295117
23	0x3d16f2e2	0.036852725
24	0xbe1dc27d	-0.15406223
25	0xbe6c31ef	-0.23065923
26	0xbd57b819	-0.052665804
27	0x3d635795	0.055503447
28	0x3ea86a5e	0.32893652
29	0x3dacee82	0.08443929
30	0x3ceb553a	0.028727163
31	0xbdb020ca	-0.08600004
32	0xbe322bd7	-0.17399536
33	0xbe7bb79b	-0.24581759
34	0xbe34973b	-0.17635815
35	0x3e2637e3	0.16232257
36	0x3eac80eb	0.33692107
37	0xbe47c624	-0.19509178
38	0x3e6089a7	0.2192751
39	0xbe848ffb	-0.25891098
40	0xbc92c45b	-0.017915895
41	0xbba18fff	-0.0049304958
42	0x3d82ef03	0.06393244
43	0xbeb0023f	-0.34376714
44	0xbddb1f7c	-0.106993645
45	0xbe1b9b75	-0.15196021
46	0x3dab5295	0.08365361
47	0x3da867ac	0.08222899
48	0xbe8bef17	-0.2733085
49	0x3e02dcbc	0.12779516
50	0xbc0171d5	-0.007900675
51	0xbd44a8fe	-0.048012726
52	0xbe8fd1c0	-0.28089714
53	0xbe1cad23	-0.15300421
54	0xbeb3001a	-0.34961015
55	0x3d984473	0.07434931
56	0x3e81ebe1	0.25375274
57	0xbea2c587	-0.31791326
58	0x3e6a1e5f	0.22863148
59	0xbd9b1d00	-0.07573891
60	0x3e86f9c1	0.26362422
61	0x3d464d4b	0.048413556
62	0xbced6465	-0.028978536
63	0x3d3b953b	0.045796614
64	0x3e6b15b5	0.229575
65	0xbea97f27	-0.33104822
66	0x3e22d737	0.1590241
67	0x3d9b98fd	0.075975396
68	0xbe3e7578	-0.18599498
69	0xbe35d43d	-0.17756744
70	0x3e9f0b62	0.31063372
71	0xbe621fb4	-0.22082406
72	0x3d76c007	0.060241725
73	0xbeb11ebf	-0.3459377
74	0x3e3b98ef	0.18320058
75	0xbe87d298	-0.26527858
76	0xbe26dcb3	-0.16295128
77	0x3e7b2e62	0.24529412
78	0x3db7572d	0.08952174
79	0xbe21e13e	-0.1580858
80	0xbd8eca9d	-0.06972239
81	0x3cc789ec	0.024357758
82	0x3b830983	0.0039989366
83	0x3ec1ca73	0.3784977
84	0x3ce0433f	0.027375815
85	0xbe65f86a	-0.22458044
86	0xbe3334cc	-0.17500609
87	0x3d9c5bb7	0.07634681
88	0xbe548ac2	-0.20756057
89	0xbe889755	-0.26677957
90	0xbe0d5b87	-0.13804446
91	0xbc07d4b8	-0.008290462
92	0xbe59f35c	-0.2128424
93	0xbd8e39e4	-0.069446355
94	0xbe855c17	-0.2604682
95	0x3e8931c7	0.2679579
96	0xbd1ae0e3	-0.037812125
97	0xbd277afa	-0.040888764
98	0x3d72257b	0.059117775
99	0xbdb14120	-0.08655
100	0x3e971ae6	0.2951271
101	0xbe04002d	-0.12890692
102	0xbea2ea66	-0.31819457
103	0xbe661237	-0.22467886
104	0xbdf897a6	-0.121383
105	0x3e04242d	0.12904425
106	0x3e513b75	0.20432837
107	0xbc042d34	-0.008067418
108	0x3eb520cc	0.35376585
109	0xbe781819	-0.24227943
110	0xbe9cbd48	-0.3061316
111	0x3e62f1d6	0.22162566
112	0x3de67b64	0.11254004
113	0xbd99d617	-0.075115375
114	0x3cd123fb	0.025529852
115	0xbe98cb71	-0.29842713
116	0xbddee990	-0.10884392
117	0x3e15e228	0.14637053
118	0xbdd5226b	-0.10406955
119	0xbd160484	-0.0366254
120	0xbe2bb935	-0.1676987
121	0x3e5080bb	0.20361607
122	0x3e7522f1	0.2393911
123	0x3e3ffdaf	0.18749116
124	0xbddd0e3c	-0.107937306
125	0x3e210473	0.15724353
126	0x3e31eb99	0.1737503
127	0xbeac16fd	-0.3361129
128	0x3e8302a6	0.25587958
129	0x3e2435e5	0.16036184
130	0x3d85fc46	0.06542258
131	0x3d401d77	0.0469031
132	0xbd9b1129	-0.075716324
133	0xbe9cc20b	-0.30616793
134	0xbc85d6ce	-0.016337778
135	0xbdef8711	-0.11695684
136	0xbe78fbc4	-0.24314791
137	0xbdab6897	-0.08369558
138	0xbe870a76	-0.2637517
139	0x3e229d8c	0.15880412
140	0xbe9ede61	-0.31029037
141	0x3e58b9a8	0.21164572
142	0x3ce2249c	0.027605347
143	0x3ea82294	0.3283888
144	0xbb043c21	-0.0020177441
145	0x3e6c8327	0.23096906
146	0x3d8f96c1	0.07011176
147	0x3e03795f	0.12839268
148	0xbc76ecb3	-0.015071082
149	0xbe26c240	-0.16285038
150	0xbe02de96	-0.12780222
151	0xbe8eec96	-0.27914876
152	0xbe8caf82	-0.27477652
153	0x3dfb4ab2	0.122701064
154	0xbeaa78fc	-0.3329543
155	0x3e07619a	0.13220826
156	0xbe9dbe11	-0.30809072
157	0xbd972f78	-0.07382101
158	0x3d30a449	0.043125425
159	0x3ea02ae8	0.31282735
160	0xbea216de	-0.3165807
161	0xbea7aa8a	-0.32747298
162	0xbdbd3814	-0.09239212
163	0x3df23b5c	0.11827728
164	0x3daededb	0.085386
165	0xbe3a82f2	-0.18214014
166	0x3db519ed	0.088428356
167	0xbe5a54e9	-0.21321453
168	0x3dc4d7da	0.09611483
169	0x3e9348eb	0.2876657
170	0xbea294cb	-0.31754145
171	0xbeb4e149	-0.3532813
172	0x3dc08977	0.09401219
173	0xbe315f75	-0.1732157
174	0x3e6e618d	0.232794
175	0xbe081abe	-0.13291451
176	0x3d7dceeb	0.06196491
177	0x3d013924	0.031548634
178	0x3ca52d8f	0.020163326
179	0x3cf5d060	0.030006588
180	0xbe5a730c	-0.2133295
181	0x3dcfc79f	0.101454966
182	0xbea708bc	-0.3262385
183	0xbdc98330	-0.09839475
184	0x3c883e77	0.016631348
185	0xbe9557b9	-0.2916849
186	0x3e360c57	0.17778145
187	0xbe852c0d	-0.2601017
188	0xbd393524	-0.045216694
189	0xbe82b7dd	-0.25530902
190	0xbe85363a	-0.26017934
191	0x3e70545a	0.23469678
192	0x3e2563b8	0.16151321
193	0x3ea0478b	0.31304583
194	0x3c6756f8	0.014119856
195	0xbd379ffa	-0.0448303
196	0xbd99c19c	-0.07507631
197	0x3e58c0aa	0.21167246
198	0xbe53e8ab	-0.20694225
199	0xbd63e388	-0.055636913
200	0x3e0d1415	0.13777192
201	0xbc98d476	-0.018655997
202	0xbe706b2c	-0.23478383
203	0x3e26d1f0	0.16291022
204	0xbd8ac26c	-0.06775364
205	0xbd1722e9	-0.036898527
206	0xba7c2cca	-0.0009619711
207	0xbe56a7e5	-0.20962484
208	0xbdd4a1b9	-0.10382409
209	0x3e816250	0.2527032
210	0x3dd1d73f	0.10246133
211	0x3e039f84	0.12853819
212	0xbe0f3594	-0.13985282
213	0x3e73c0b1	0.23803975
214	0xbdf7afa3	-0.12094047
215	0xbe727348	-0.23676789
216	0xbd360d52	-0.044446297
217	0xbe0dc639	-0.13845147
218	0xbe8768d4	-0.26447165
219	0xbd852f07	-0.065031104
220	0x3cdfdbb5	0.027326444
221	0xbe0b0b18	-0.1357845
222	0xbd34c3cd	-0.044132043
223	0x3db5953a	0.08866353
224	0x3e9eba97	0.31001732
225	0x3e83f577	0.25773212
226	0x3e3491af	0.17633699
227	0xbe1b003d	-0.1513681
228	0x3e97faec	0.29683626
229	0xbe8db8ae	-0.27679962
230	0xbdcbde81	-0.099545486
231	0xbe81ac35	-0.25326696
232	0xbe3d856f	-0.18507932
233	0xbe66d802	-0.22543338
234	0xbd225507	-0.03963187
235	0xbec12918	-0.37726665
236	0xbe0ca35a	-0.13734189
237	0x3e577ac7	0.2104293
238	0x3e7522bb	0.2393903
239	0x3ea7f369	0.32802895
240	0xbd971795	-0.07377545
241	0x3e527c21	0.20555164
242	0x3cb554d7	0.022135181
243	0xbe2235a8	-0.1584078
244	0xbe32419e	-0.17407843
245	0xbd528a86	-0.051401637
246	0x39e152bc	0.00042976986
247	0xbd6559aa	-0.055993713
248	0xbd212d61	-0.039349917
249	0x3dd0c7a5	0.10194329
250	0x3dda92f3	0.106725596
251	0x3e2db301	0.16962816
252	0xbe93c34a	-0.2885993
253	0xbe810a58	-0.25203204
254	0x3de7817b	0.11303993
255	0x3e194db4	0.14971048

conv1.bias f4 [64]
0	0x3ea9c7d5	0.33160272
1	0x3e74fd23	0.23924689
2	0xbe4d24c5	-0.20033558
3	0xbe5516e3	-0.20809512
4	0xbe242b14	-0.16032058
5	0xbe84fb23	-0.25972852
6	0x3ea4f01b	0.32214436
7	0xbe9605dd	-0.29301348
8	0x3ca7146c	0.02039548
9	0x3e4c6870	0.19961715
10	0x3e2950d4	0.1653474
11	0x3e312db8	0.17302597
12	0x3dfbfbf0	0.12303913
13	0xbe6fbade	-0.23411128
14	0x3e5e72d4	0.21723491
15	0x3c6191cd	0.013767672
16	0x3e44e92c	0.19229573
17	0x3dbbe4b2	0.091744795
18	0xbe85437e	-0.26028055
19	0x3c267c87	0.010161526
20	0xbace2bc8	-0.00157296
21	0xbcd06c04	-0.02544213
22	0x3d7f0e31	0.062269393
23	0xbe98a126	-0.29810447
24	0x3def59f9	0.11687083
25	0xbc9c91b4	-0.019112445
26	0x3cb9ad57	0.022665663
27	0xbe6a5919	-0.2288555
28	0xbe7b5d3c	-0.24547285
29	0x3dec4ea8	0.1153844
30	0x3c78e311	0.015190856
31	0x3e9539fa	0.29145795
32	0x3d53f6fe	0.051749222
33	0x3e32c6fb	0.17458718
34	0x3dcea90e	0.100908384
35	0xbdf56e85	-0.119839706
36	0x3e6146b2	0.21999624
37	0x3ea86311	0.32888082
38	0xbda51fcd	-0.08062706
39	0x3e45c464	0.19313198
40	0xbe47a1b3	-0.19495277
41	0x3d991efe	0.074766144
42	0x3de773be	0.11301373
43	0xbe92e6dd	-0.2869176
44	0x3e60980e	0.21933004
45	0xbe4095d9	-0.18807162
46	0xbe74e447	-0.23915206
47	0x3e4f7f7c	0.20263475
48	0xbe4c5b17	-0.19956623
49	0xbe2c2d8f	-0.16814254
50	0x3e42040b	0.18946855
51	0xbe0ca12b	-0.13733356
52	0xbe6bcd04	-0.23027426
53	0x3ea19081	0.3155556
54	0xbd8ebf39	-0.069700666
55	0x3e21ac3e	0.15788361
56	0xbe7df2c2	-0.24799636
57	0x3e3cabfe	0.18424985
58	0x3e2e1294	0.16999274
59	0xbe3e8259	-0.18604411
60	0xbe475c83	-0.19468884
61	0xbe3e35ad	-0.18575163
62	0xbe2c1567	-0.1680504
63	0x3e5f94da	0.21834126

conv2.weight f4 [64, 64, 3, 3]
0	0xbd0e5dcb	-0.034757417
1	0xbcbabf5f	-0.022796331
2	0xbbbe3480	-0.0058045983
3	0xbba3c210	-0.0049974993
4	0xbcacdfaa	-0.021102745
5	0xbb98eb02	-0.004666687
6	0x3b250249	0.0025178364
7	0x3b14e9be	0.002272233
8	0x3c310df0	0.010806546
9	0xbcf38aff	-0.029729364
10	0xbccdc989	-0.025120514
11	0xbcb0126a	-0.021493156
12	0xbc4ef197	-0.012630842
13	0x3bac981d	0.0052671568
14	0xba9e4bee	-0.0012077072
15	0x3c41edd2	0.011836486
16	0x3ce475ab	0.02788814
17	0xbd49f175	-0.049302537
18	0xbb84cc46	-0.0040526716
19	0xbd6f7807	-0.058464076
20	0xbc935b67	-0.01798792
21	0xbd7464b4	-0.05966635
22	0xbc411cbc	-0.011786636
23	0xbd4b35d2	-0.049611874
24	0xbcd43794	-0.025905408
25	0xbccb8e91	-0.024848254
26	0x3b228713	0.0024799749
27	0xbd5d2d64	-0.053998366
28	0xbd4a84e2	-0.049443133
29	0xbc178d6f	-0.009250029
30	0x3b641e60	0.0034808144
31	0x3caf442e	0.021394815
32	0x3c573ffe	0.0131378155
33	0xbcb83717	-0.022487206
34	0xbb60a6ec	-0.003427918
35	0xbc12d2cb	-0.00896139
36	0x3ca4be92	0.020110402
37	0xbb75177f	-0.0037398038
38	0x3b9c2ff2	0.0047664577
39	0x3cf9cb23	0.030492371
40	0x3cfff442	0.0312444
41	0xbc88f405	-0.01671792
42	0x3d354d68	0.044263273
43	0xbbe53309	-0.0069946093
44	0xbbeeda42	-0.007289202
45	0x3d35823f	0.044313665
46	0x3d20311a	0.039109327
47	0xbb6460ac	-0.003484766
48	0xbcaa7cf5	-0.020811537
49	0x3d1b3cdd	0.03789984
50	0xbcdfc2af	-0.027314512
51	0x3cd53594	0.026026525
52	0x3cec4a95	0.028844157
53	0xbc1889be	-0.009310184
54	0xbcdd1348	-0.026986733
55	0xbd3a69e5	-0.045511145
56	0xbcbbb500	-0.022913456
57	0xbc32163f	-0.010869562
58	0x3c83e052	0.016098175
59	0x3c02ea92	0.007990496
60	0x375b6730	1.3077442e-05
61	0x3d0cb99a	0.03435669
62	0xbbc95906	-0.0061446456
63	0xbc79dd79	-0.015250557
64	0x3c2751d6	0.010212382
65	0x3ac4688e	0.0014984773
66	0x3d558086	0.052124523
67	0xbd1e56bb	-0.03865693
68	0x3cf6f89c	0.030147843
69	0x3c28529a	0.0102736
70	0xbb2535aa	-0.0025208988
71	0x3b9a788d	0.004714078
72	0x3ccb744f	0.024835734
73	0xbcbe7b59	-0.023252176
74	0xbcf75c0c	-0.030195259
75	0xbcfe9cbc	-0.031080596
76	0xbbd64b16	-0.0065397127
77	0xbd411dc6	-0.047147535
78	0x3d02d797	0.031943884
79	0xbd1ccf5b	-0.038283687
80	0xbd2bc567	-0.041936304
81	0x3b89f5fb	0.0042102314
82	0xbd1eb565	-0.03874721
83	0x3ccb33b3	0.024804926
84	0x3d2ec7ff	0.0426712
85	0xbd0ce201	-0.03439522
86	0xbd04b7be	-0.032401793
87	0x3d28c7ae	0.041206054
88	0x3d1b554b	0.03792314
89	0xbcb8e482	-0.022569899
90	0x3cd77522	0.02630097
91	0x3c9d2de4	0.019186921
92	0xbd137f59	-0.03601012
93	0x3d1edce7	0.038784888
94	0x3d162cff	0.036664005
95	0x3c838411	0.016054185
96	0x3c14dd65	0.009085988
97	0xbb261be6	-0.0025346219
98	0x3bfc5a84	0.00770122
99	0xba4b4efd	-0.00077556056
100	0x3d27e6d7	0.04099163
101	0xbc120819	-0.008913063
102	0x3bdf8e89	0.0068224114
103	0x3ce48200	0.02789402
104	0x3d181806	0.037132286
105	0x3cde8c81	0.027166607
106	0xbbdd3998	-0.0067512505
107	0xbcd904dd	-0.026491577
108	0x3c50bb86	0.012740022
109	0xbcef5246	-0.029214036
110	0xbc197a91	-0.009367601
111	0x3c83b186	0.01607586
112	0x3cf0dca2	0.02940208
113	0xbd01fae9	-0.031733427
114	0xbcdc2f05	-0.02687789
115	0xbce04fb8	-0.027381763
116	0xbc750094	-0.014953751
117	0xbd430a4b	-0.047617238
118	0xbd1b423c	-0.037904963
119	0xbd0e12e1	-0.034685973
120	0x3c8e14a3	0.017343825
121	0xbc892769	-0.016742425
122	0xbd6aa6ba	-0.05728791
123	0x3cd20406	0.025636684
124	0xbc0e52c6	-0.008686727
125	0xbce34e5a	-0.027747322
126	0xb95ac53c	-0.00020863576
127	0xbd05c920	-0.03266251
128	0xbc9a081f	-0.0188027
129	0x3cb36af1	0.02190158
130	0xbce97e1f	-0.028502522
131	0xbbbac72c	-0.0057000127
132	0xbcc94972	-0.024571154
133	0x3b72f2da	0.003707102
134	0xbd06fa88	-0.03295377
135	0x3cce5dbb	0.025191179
136	0xbcd9f91b	-0.02660804
137	0x3bc835db	0.0061099357
138	0xbb30c980	-0.0026975572
139	0xbc1a430a	-0.009415397
140	0x3b8ec5e5	0.004357087
141	0x3ce9fc56	0.028562706
142	0x3cbd9428	0.023141935
143	0xbd573cc6	-0.052548192
144	0xbd69f28f	-0.057116088
145	0xbc3e7040	-0.011623442
146	0x3cae09c5	0.021244893
147	0xbcd77d8f	-0.026304988
148	0x3c193688	0.00935138
149	0xbc6021d7	-0.013679943
150	0x3c929d38	0.017897233
151	0x3ac4eab0	0.0015023556
152	0xbbcf4a4f	-0.006325997
153	0xbc16d1f0	-0.009205326
154	0x3d4b56d8	0.049643368
155	0x3d1345c3	0.0359552
156	0x3baf23aa	0.0053448277
157	0x3d0fa52c	0.03506963
158	0x3d2333a6	0.039844178
159	0xbc40e605	-0.011773591
160	0xbca86693	-0.020556724
161	0xbc5f3fa9	-0.013626018
162	0xba9d87cc	-0.001201862
163	0xbb4669cc	-0.0030275462
164	0xbd2f1de4	-0.042753115
165	0xbcc83d7e	-0.024443384
166	0xbc36d286	-0.011158591
167	0x3c17e426	0.009270703
168	0x3cf1a116	0.029495757
169	0x3b43b5f4	0.0029863091
170	0xbc08f230	-0.008358523
171	0xbcd9cba1	-0.026586356
172	0x3cb06fdc	0.021537714
173	0x3cf98ca8	0.030462578
174	0xbcb3697b	-0.021900883
175	0xbcec8b2c	-0.028874956
176	0x3cddc8bf	0.027073262
177	0xb920c927	-0.00015333724
178	0x3aca32d5	0.0015426526
179	0x3b264ecc	0.0025376556
180	0xbc651300	-0.013981581
181	0xbc514194	-0.012771983
182	0x3c20a173	0.0098041175
183	0xbd1077fa	-0.03527067
184	0xbb91403b	-0.0044327057
185	0x3d33e85d	0.04392277
186	0xbc4e29d6	-0.012583217
187	0x3c6a24a7	0.014290965
188	0x3d09e6fe	0.033667557
189	0xbcee9880	-0.029125452
190	0xbcd31064	-0.025764652
191	0xbd7948b0	-0.060860336
192	0x3b6e2108	0.0036335606
193	0x3c35deab	0.011100451
194	0xbd541dc6	-0.051786207
195	0x3d06a7a3	0.032874715
196	0xbbe297b9	-0.0069150594
197	0xbd3dcea2	-0.04633964
198	0x3cca8d1c	0.02472549
199	0xbcef0c61	-0.029180707
200	0x3cfd0589	0.030886428
201	0x3d2a1a3c	0.041528925
202	0xb97feac6	-0.00024406155
203	0xb88e8756	-6.796296e-05
204	0x3cfd1427	0.030893398
205	0x3c103063	0.008800599
206	0xbbfcb3bf	-0.007711857
207	0x3d12dfd2	0.035857983
208	0x3c07c91c	0.008287694
209	0xbd5c05a5	-0.05371632
210	0x3d3e28e5	0.04642572
211	0x3d4d7606	0.050161384
212	0xbb5ef26a	-0.0034019002
213	0x3d734f4a	0.059401788
214	0xbc4e2bcf	-0.012583687
215	0x3c7f5b06	0.0155856665
216	0x3ca2431d	0.019807393
217	0xbcab7fd0	-0.02093497
218	0x3c90bdda	0.017668653
219	0xbb6bc606	-0.0035976185
220	0xbd06018f	-0.03271633
221	0xbcef4d4a	-0.029211659
222	0xbc4c0511	-0.01245238
223	0x3cc78a81	0.024358036
224	0xbd37da1a	-0.044885732
225	0x3ae22336	0.0017252925
226	0x3cc0c234	0.023530103
227	0xbd106171	-0.035249177
228	0xba742e93	-0.00093148014
229	0x3c8ae1e7	0.016953422
230	0x3bd2b74d	0.0064305426
231	0xbcf84cab	-0.030309996
232	0x3c94f7e8	0.018184617
233	0x3ce593c8	0.02802457
234	0x3cef9e64	0.029250331
235	0x3b8a8e7a	0.0042284103
236	0x3b2e0554	0.0026553469
237	0xbc9c4352	-0.01907507
238	0x3c1457cf	0.009054138
239	0xbd2128c5	-0.03934552
240	0xbc9c6d36	-0.019095045
241	0x3bf9f4e2	0.0076280693
242	0x3ce0a26f	0.027421204
243	0x3c8a441a	0.016878176
244	0xbd121824	-0.035667554
245	0x3d0fc337	0.03509828
246	0xbd0fe58d	-0.035131026
247	0xbcf62797	-0.030048175
248	0xb8a14b5e	-7.6911165e-05
249	0xbbf8bb0a	-0.007590656
250	0x3ce3218e	0.027725961
251	0xbc237b2f	-0.0099781
252	0xbd35333a	-0.044238307
253	0xbcb3408f	-0.02188137
254	0xbcacd614	-0.021098174
255	0xbca4e178	-0.020127043

conv2.bias f4 [64]
0	0x3c80a43e	0.015703317
1	0x3cbaf7cf	0.022823242
2	0xbd1f7b29	-0.038935814
3	0x3c977ce6	0.018492173
4	0xbc227009	-0.009914407
5	0x3b6dfd1f	0.0036314202
6	0x3d2920ac	0.041290924
7	0xbd2026d4	-0.03909953
8	0x3cbd6859	0.023121046
9	0x3b78263a	0.0037864582
10	0x3c859da4	0.01631052
11	0xbacfb926	-0.0015848025
12	0x3ce2452e	0.027620878
13	0x3c9f547b	0.019449463
14	0x3ca8a3d1	0.020585926
15	0xbc650f8a	-0.013980756
16	0x3cbfdf98	0.023422047
17	0xbc6a1976	-0.014288297
18	0x3bb09505	0.0053888583
19	0x3ca028c5	0.01955069
20	0x3ca5346e	0.020166602
21	0xbc85e11d	-0.016342694
22	0x3c6b0fd6	0.014347037
23	0xbc98cc48	-0.018652096
24	0xbcccb86d	-0.024990285
25	0xbd19114b	-0.037370007
26	0xbcb58050	-0.02215591
27	0xbd1592af	-0.03651684
28	0xbc771a00	-0.0150818825
29	0x3d23ea4c	0.040018365
30	0x3cb24dc1	0.021765592
31	0xbc9d595a	-0.019207645
32	0x3cbb5928	0.022869661
33	0x3d088383	0.033328544
34	0x3cd22e00	0.0256567
35	0xbad252c2	-0.0016046392
36	0xbd287e71	-0.04113621
37	0x3cba6f67	0.022758199
38	0xbd06ead1	-0.032938782
39	0x3c959447	0.01825918
40	0x3cd5a81c	0.026081137
41	0x3cc319d3	0.023816025
42	0xbaa70a45	-0.001274415
43	0xbc15bdb6	-0.009139469
44	0x3c265e6b	0.010154347
45	0x3d05cc6a	0.032665648
46	0xbc340128	-0.010986604
47	0x3c017fd5	0.007904013
48	0x3d17a2d2	0.037020512
49	0xbceee580	-0.029162169
50	0xbd103768	-0.03520909
51	0x3c8ad05f	0.016945062
52	0x3c522db9	0.012828284
53	0xbd03547c	-0.032062992
54	0x3d06788d	0.03282981
55	0x3c3df654	0.011594374
56	0x3d1e3284	0.038622394
57	0x3cb979cb	0.022641083
58	0xbb188501	-0.0023272636
59	0x3bc6c497	0.006065916
60	0x3cff91eb	0.031197509
61	0xbc25a5b6	-0.010110309
62	0xbcc551a7	-0.024086786
63	0x3c8d741d	0.017267281

conv3.weight f4 [64, 64, 3, 3]
0	0xbd34b902	-0.04412175
1	0xbb9c63cd	-0.0047726394
2	0x3c5ea69f	0.01358953
3	0x3ce8ac64	0.028402515
4	0xbc74c5a1	-0.0149396965
5	0xbc7fc0db	-0.015609945
6	0x3c96d55c	0.018412285
7	0xbbec1576	-0.007204707
8	0xbd31227f	-0.04324579
9	0x3c470442	0.012147011
10	0xbd182ed2	-0.037154026
11	0x3c54fcec	0.012999754
12	0x3c76337f	0.015026926
13	0xbd0416ef	-0.032248434
14	0xbd62ee7f	-0.05540323
15	0x3c45a899	0.012064123
16	0x3c9f6617	0.01945786
17	0xbc9bf42f	-0.019037334
18	0x3c5e2a21	0.013559849
19	0xbba3e1bb	-0.0050012744
20	0x3c5b948c	0.013402116
21	0x3d1d69ce	0.03843098
22	0x3c9eb0a4	0.019371338
23	0x3d370dfc	0.04469107
24	0x3c2db23d	0.010601577
25	0xbd0604b0	-0.032719314
26	0xbc8078be	-0.015682574
27	0x3c9b8893	0.018986022
28	0x3c86cc90	0.016454965
29	0xbd3f8334	-0.046755984
30	0xbcb36d01	-0.021902563
31	0xbb9ec410	-0.00484515
32	0x3ba6f744	0.0050953943
33	0xbc22d0f7	-0.009937516
34	0x3cfa3266	0.03054161
35	0xbca79e95	-0.02046136
36	0xbc8f15e4	-0.017466493
37	0xbba40bf9	-0.00500631
38	0x3c8987de	0.01678842
39	0x3c4ecaf5	0.012621631
40	0x3c00710f	0.007839455
41	0xbc98f0ef	-0.018669574
42	0x3cbc53c6	0.022989165
43	0x3c5d4aa1	0.013506562
44	0xbd473f5a	-0.0486444
45	0x3b2b91e5	0.002617949
46	0x3c2d2929	0.010568895
47	0x3d0e0077	0.034668412
48	0xbb860b2d	-0.0040906877
49	0x3d05c345	0.032656927
50	0xbc359e48	-0.0110851005
51	0x3ca11cac	0.019666992
52	0x3d3e82cc	0.046511456
53	0x3c245f72	0.010032522
54	0xbcd10c2a	-0.025518496
55	0xbca43066	-0.02004261
56	0xbd6079e9	-0.054803763
57	0xbc05e0d6	-0.008171281
58	0xbc37623d	-0.011192855
59	0x3c6217b8	0.0137996
60	0x3cb2dc78	0.021833643
61	0xbc92bb46	-0.017911565
62	0xbd09c49d	-0.03363477
63	0x3d6b8751	0.057502095
64	0x3cbbf8be	0.022945758
65	0x3bb7025a	0.005584997
66	0x3c596618	0.01326897
67	0x3c886c6d	0.016653264
68	0x3d1f4a48	0.0388892
69	0x3ce3193f	0.027722
70	0xbcb3160e	-0.021861102
71	0x3bb10f70	0.0054034516
72	0x3c834d6b	0.016028127
73	0xbd1c1f73	-0.03811593
74	0x3cd8cde9	0.026465373
75	0x3cc633eb	0.024194678
76	0xbd013c17	-0.031551447
77	0xb9c2fa4d	-0.00037189052
78	0xbac6ae8c	-0.001515822
79	0x3c842abf	0.016133664
80	0x3bf5e0ac	0.0075035896
81	0xbcde87c7	-0.027164353
82	0xbd30d13d	-0.043168295
83	0xbcd1562e	-0.025553789
84	0xbbbfc2fc	-0.0058521014
85	0xbcfd3fb5	-0.030914167
86	0x3b1aed40	0.0023639947
87	0xbd031713	-0.032004427
88	0xbbdddec3	-0.00677094
89	0xbccf92fe	-0.025338646
90	0x3c8d3cb4	0.01724086
91	0x3c995f82	0.0187223
92	0x3d0959ff	0.033533093
93	0xbbeab10c	-0.007162219
94	0x3cab4f69	0.02091189
95	0xbd348389	-0.044070754
96	0xbcead787	-0.028667225
97	0xbcd00091	-0.025390895
98	0x3cabe8ac	0.02098497
99	0x3d4c6479	0.049900506
100	0xbac32466	-0.0014888167
101	0x3ca6b1eb	0.02034851
102	0xbb925cbb	-0.0044666207
103	0xbbc14d7e	-0.0058991304
104	0x3b36307d	0.0027799897
105	0x3cd68ccf	0.02619019
106	0x3cb66d6c	0.022268973
107	0x3c6c5be6	0.014426207
108	0xbba300b2	-0.004974448
109	0xbd128835	-0.03577443
110	0xbc25d56b	-0.010121684
111	0xbccee18b	-0.025254032
112	0xbca403c2	-0.020021323
113	0x3cb2b79e	0.021816071
114	0x3cae2d22	0.021261755
115	0x3d272899	0.0408102
116	0x3c877913	0.016537225
117	0xbd1d03f2	-0.03833384
118	0xbd040766	-0.03223362
119	0x3d0f6eaa	0.035017647
120	0x3c45d881	0.012075544
121	0x3ca48b9b	0.0200861
122	0x3b56ed9c	0.0032795435
123	0x3d6f508c	0.058426425
124	0x3c3754cd	0.011189652
125	0x3d06505d	0.032791484
126	0x3cf12754	0.029437698
127	0x3c10fc06	0.00884915
128	0x3bf56398	0.007488679
129	0xbca22e9a	-0.019797612
130	0xbd6c5e7d	-0.0577073
131	0x3c8783ef	0.016542403
132	0x3a9787f6	0.0011560905
133	0xbced2632	-0.028948877
134	0x3c96507e	0.018348929
135	0xbc316a33	-0.0108285425
136	0xbc858d80	-0.016302824
137	0x3c9ab203	0.01888371
138	0x3d0b44be	0.034001105
139	0xbd3df5ac	-0.04637687
140	0xbcaadc27	-0.02085693
141	0x3d3df89f	0.04637968
142	0xbc895be9	-0.016767459
143	0x3c013f3e	0.007888613
144	0xbc69bef9	-0.014266723
145	0xbc2e5ac4	-0.010641757
146	0x3d0bd94f	0.03414279
147	0x3c09eda2	0.0084184725
148	0xbd3d99cb	-0.046289247
149	0xbc8f0044	-0.017456181
150	0xbcb8f2a2	-0.022576634
151	0xbd3ca303	-0.046053898
152	0xbd05a73f	-0.0326302
153	0x3bee5189	0.0072729033
154	0xbce0d050	-0.027443081
155	0xbd258c9b	-0.040417295
156	0xbc239a8c	-0.009985577
157	0x3cd79f65	0.026321122
158	0x3c77df20	0.015128881
159	0x3d32ad89	0.043622527
160	0xbc12814f	-0.008941962
161	0x3d00ad2a	0.031415142
162	0xbd224605	-0.039617557
163	0x3d107965	0.03527202
164	0x3c286169	0.010277131
165	0xbbf8de63	-0.00759487
166	0xbcd3cfef	-0.025855986
167	0x3c19c009	0.009384164
168	0xbc882df7	-0.01662348
169	0xbbee4dfd	-0.0072724805
170	0x3c272544	0.010201756
171	0x3c12e590	0.008965865
172	0xbc61b5c9	-0.013776251
173	0xbca4027c	-0.020020716
174	0x3ccb492e	0.024815168
175	0x3cadf738	0.021236047
176	0xbbda1bca	-0.0066561447
177	0xbafbbe28	-0.0019206451
178	0x3d1df0db	0.038559776
179	0x3d369ef5	0.044585187
180	0xbd05d6eb	-0.032675665
181	0xbb68336c	-0.003543104
182	0xbcf3b414	-0.029748954
183	0x3d23d0cf	0.039994057
184	0xbc7fbfd2	-0.015609698
185	0x3cc5541e	0.024087962
186	0x3cb01360	0.021493614
187	0x3d30bb44	0.04314734
188	0x3d432c5d	0.04764973
189	0x3cdc93da	0.02692597
190	0x3c8c34ba	0.017114986
191	0xbc7c2061	-0.015388579
192	0xbd57fcba	-0.052731253
193	0xbd180ea1	-0.037123326
194	0x3b050c81	0.0020301642
195	0xbcdea677	-0.027178986
196	0xbb7fbc6e	-0.0039022225
197	0x3c6e8f2d	0.014560503
198	0x3cb6d16e	0.02231666
199	0xbd376c33	-0.04478092
200	0xbd0115d8	-0.031514972
201	0x3bea9f57	0.007160108
202	0x3c8c5611	0.017130883
203	0x3cc4c450	0.02401939
204	0xbc168652	-0.009187298
205	0xbc216f0d	-0.009853137
206	0x3b8d6f5b	0.004316253
207	0xbc940ba4	-0.018071957
208	0x3b07e0fb	0.0020733464
209	0xbbe2ce92	-0.0069215978
210	0xbb95a85c	-0.004567189
211	0xbcec6cc4	-0.028860457
212	0xb937a710	-0.00017514476
213	0x3d05d04a	0.032669343
214	0xbcecedcf	-0.02892199
215	0xbd04f374	-0.032458737
216	0x3cbbf62f	0.022944538
217	0xbd1c043b	-0.038089972
218	0xbcd73074	-0.026268221
219	0xbd19151a	-0.03737364
220	0x3c80eeb9	0.015738832
221	0xbba2bab3	-0.004966104
222	0xbcd01b6e	-0.025403704
223	0xbd37e4ac	-0.044895813
224	0xba9dcb34	-0.0012038709
225	0xbd754171	-0.059876863
226	0xbcfcb4ec	-0.030847989
227	0xbd5ddd6a	-0.054166235
228	0xbd0d99da	-0.034570552
229	0xbd45d04c	-0.04829435
230	0xbd9aca55	-0.07558123
231	0xbcc418f2	-0.023937676
232	0x3bd7eabe	0.0065892627
233	0xbd320ec6	-0.04347112
234	0xba817850	-0.0009877775
235	0xbc457147	-0.012050933
236	0x3d1e8452	0.03870041
237	0xbcd74ef1	-0.02628276
238	0x3b0e77c7	0.0021738873
239	0xbcf342e6	-0.029694986
240	0x3baa4a05	0.005196812
241	0xbc9c3f15	-0.019073049
242	0xbba9a86c	-0.005177548
243	0x3d0db924	0.034600392
244	0xbc12329c	-0.008923199
245	0xbd035e71	-0.03207249
246	0xbd00fb2e	-0.031489544
247	0x3bb6dcd0	0.005580522
248	0xbcb43a45	-0.022000441
249	0x3d39b730	0.045340717
250	0x3cc5a394	0.024125852
251	0x3cc55385	0.024087677
252	0x3c3738b8	0.011182956
253	0x3b93503f	0.00449565
254	0xbd1dbf68	-0.038512617
255	0xbb94041c	-0.0045170914

conv3.bias f4 [64]
0	0x3d17b16e	0.037034445
1	0x3b20a9b0	0.0024515204
2	0x3b5dfc15	0.0033872176
3	0xbcf0a9e0	-0.029377878
4	0xbc8062ca	-0.015672106
5	0xbcb9b341	-0.022668483
6	0xbbad2285	-0.005283656
7	0x3b8c6aab	0.0042851768
8	0x3d00e6f9	0.031470273
9	0x3caddf6d	0.021224702
10	0x3b5474d9	0.003241828
11	0x3ad920e1	0.0016565585
12	0xbcf23c27	-0.029569698
13	0xbca9bb7a	-0.020719279
14	0x3bebef31	0.0072001447
15	0xbc5d7111	-0.013515727
16	0xbc690d19	-0.014224314
17	0xbc9d1153	-0.0191733
18	0xbba20ab0	-0.0049451217
19	0x3c07720a	0.008266935
20	0x3c91ed74	0.017813422
21	0xbd029397	-0.031879034
22	0xbcc55b35	-0.024091342
23	0x3d12f18d	0.035874892
24	0xbba7a02e	-0.0051155305
25	0xbb3f3842	-0.002917782
26	0x3caee6ae	0.021350231
27	0xbbb5315c	-0.0055295657
28	0xbd052473	-0.032505464
29	0x3cd23e27	0.025664402
30	0x3d28ad1a	0.041180708
31	0xbd162287	-0.03665402
32	0xbcf3ea0c	-0.029774688
33	0x3c435a15	0.011923333
34	0x3b146f90	0.0022649504
35	0xbc801643	-0.015635615
36	0x3c825118	0.01590781
37	0x3d011738	0.031516284
38	0xbc8d423e	-0.0172435
39	0xbd20225f	-0.03909528
40	0xbd221d96	-0.039578997
41	0x3cc9ac72	0.024618361
42	0xbcca178b	-0.02466943
43	0x3cfbde15	0.030745545
44	0xbcd12f23	-0.025535172
45	0xba889753	-0.0010421075
46	0x3ccd8f47	0.025092734
47	0x3c1edb75	0.009695877
48	0x3bd8545c	0.0066018533
49	0x3caaed7f	0.0208652
50	0x3cdb670d	0.026782537
51	0x3d03fafa	0.03222177
52	0x3ce82ff5	0.02834318
53	0x3d1cae98	0.038252443
54	0x3c4c49d6	0.012468776
55	0xbd074c96	-0.033032022
56	0x3cd8e883	0.026478058
57	0x3c1962ab	0.009361903
58	0xbc8e3335	-0.017358402
59	0xbb3ca960	-0.0028787479
60	0xbcaacbc9	-0.020849125
61	0x3ce63019	0.028099107
62	0xbd1cc2f5	-0.038271863
63	0xbc63cce1	-0.013903827

conv4.weight f4 [64, 64, 3, 3]
0	0xbc4fa24c	-0.012672972
1	0xbcd09512	-0.025461707
2	0x3c62332d	0.013806147
3	0xbcc65e43	-0.02421487
4	0xbce16dfe	-0.027518269
5	0xbbfba763	-0.007679866
6	0xbd15a6ed	-0.036536146
7	0xbd927d0e	-0.071527585
8	0xbd87cef4	-0.0663127
9	0xbd6a8f7c	-0.057265744
10	0xbc8c8886	-0.017154943
11	0x3a25c5c0	0.00063237175
12	0xbb17c73e	-0.002315953
13	0xbd185b40	-0.037196398
14	0x3c2d5230	0.010578677
15	0x3c7fddba	0.015616829
16	0xbcb59e09	-0.022170084
17	0x3b8c242e	0.004276774
18	0xbd44c3c7	-0.04803827
19	0xbd56d217	-0.05244645
20	0x3be432eb	0.0069640777
21	0xba0536b2	-0.00050816976
22	0x3b282cec	0.002566154
23	0xbd2069cd	-0.0391634
24	0xbd4a4b68	-0.04938832
25	0xbcafd4d7	-0.021463795
26	0x3c244a5e	0.010027496
27	0xbb888fc3	-0.0041675284
28	0x3cc1b78c	0.023647092
29	0x3d06d750	0.03292018
30	0x3d13b972	0.036065526
31	0x3c141e46	0.009040421
32	0x3d08b34f	0.033374127
33	0x3d6659d1	0.056238
34	0x3d4805d0	0.04883367
35	0xbcbdbee9	-0.023162322
36	0xbd1b2b44	-0.03788306
37	0x3c85ed34	0.016348459
38	0xbd8aefb7	-0.06784003
39	0xbc6b0a2f	-0.01434569
40	0xbd4f500e	-0.050613455
41	0xbd792757	-0.060828533
42	0xbd8b1876	-0.06791775
43	0xbc880851	-0.016605528
44	0xbd835040	-0.06411791
45	0x3a0e36b4	0.00054250215
46	0xbcf19a40	-0.029492497
47	0x3d956663	0.07294919
48	0xbcefc523	-0.029268807
49	0x3d10f975	0.03539415
50	0x3c1ff78f	0.009763612
51	0xbd057831	-0.032585327
52	0x3ca1a2aa	0.019730885
53	0x3d53dd35	0.05172463
54	0x3cf79883	0.03022409
55	0xbb4fcf40	-0.0031709224
56	0xbd0f8905	-0.03504278
57	0x3d1795ff	0.03700828
58	0xbc5250b0	-0.01283662
59	0x3ca1a8fb	0.019733896
60	0x3b7d840f	0.003868345
61	0x3c358f9a	0.011081601
62	0xbd2588a7	-0.040413525
63	0xbcbe0eac	-0.023200355
64	0x3c4ece14	0.012622375
65	0x3cd5d80f	0.026104001
66	0xbce8f4c5	-0.028437028
67	0x3cdd3868	0.027004436
68	0x3cb0d10d	0.021584058
69	0xbc49e17e	-0.012321828
70	0x3c6d8eac	0.014499348
71	0x3c8b6b65	0.017018983
72	0xbcaa41cb	-0.020783326
73	0x3d00cfbd	0.031448115
74	0x3d097be4	0.033565417
75	0x3d0372d3	0.032091927
76	0xbc270158	-0.0101931915
77	0xbd0dc5ca	-0.034612454
78	0x3c2c5e3b	0.010520513
79	0x3b5b7a55	0.0033489664
80	0xbcf6e583	-0.030138737
81	0x3c3d1e0a	0.011542806
82	0x3d1e226d	0.03860705
83	0x3c9f3ac0	0.019437194
84	0xbcfccc97	-0.030859275
85	0xbcf204b8	-0.029543266
86	0xbd2c56a2	-0.042074807
87	0xbd06c58c	-0.03290324
88	0x3cd5d950	0.0261046
89	0xbc8e78af	-0.01739153
90	0x3a724376	0.000924162
91	0x3d5999db	0.053125244
92	0xbd18cc2c	-0.03730409
93	0xba16480c	-0.0005732782
94	0x3d49961a	0.049215414
95	0x3ae011db	0.0017095165
96	0x3d38800d	0.045043994
97	0x3a34dc9c	0.00068993284
98	0x3d348530	0.04407233
99	0xbd09558c	-0.03352885
100	0xbbffa03c	-0.007801084
101	0xba8f6bf7	-0.001094221
102	0xbd810bc9	-0.06301076
103	0xbd4a1b29	-0.04934231
104	0xbba8c324	-0.0051502157
105	0xbd024247	-0.03180149
106	0xbd03ce92	-0.032179423
107	0xbcf17551	-0.029474886
108	0xbc8ad2ff	-0.016946314
109	0xbd162327	-0.036654618
110	0xbc924aa5	-0.017857859
111	0xbc3aad97	-0.011393926
112	0xbce63ae0	-0.028104246
113	0xbcaa20d9	-0.020767616
114	0xbc959d24	-0.018263407
115	0xbd8ec589	-0.069712706
116	0xbd8d690e	-0.06904803
117	0xbc1a59b6	-0.009420803
118	0x3d4d6d8e	0.050153308
119	0x3d388a34	0.045053676
120	0x3ce345db	0.02774327
121	0x3d570687	0.05249646
122	0x3d6fa8c7	0.058510568
123	0xbca3aa0a	-0.019978542
124	0x3d042735	0.032263953
125	0xbc3bca02	-0.011461737
126	0xbc9584a6	-0.018251728
127	0x3cdbfda8	0.026854351
128	0x3c77aebe	0.015117345
129	0xbce2db27	-0.02769239
130	0x3ca4bc03	0.020109182
131	0xbbb3ff63	-0.005493091
132	0x3c1fa1c9	0.009743162
133	0xbcec3cd8	-0.028837606
134	0x3cedf16f	0.029045789
135	0xba5aa337	-0.0008340361
136	0x3beb7f86	0.007186833
137	0x3b04702f	0.0020208468
138	0x3c034e92	0.008014338
139	0x3b253c3f	0.0025212911
140	0xbd4e5714	-0.050376013
141	0x3c5074ad	0.01272313
142	0xbc49233f	-0.01227647
143	0xbd6bf5f6	-0.057607614
144	0x3cb9637f	0.022630451
145	0xbc8f2242	-0.01747239
146	0xbcbd6d38	-0.023123369
147	0xbd034add	-0.032053817
148	0xbd170b04	-0.03687574
149	0x3d4f1bfa	0.05056379
150	0x3c930547	0.017946852
151	0xbcec0e1a	-0.028815318
152	0x3d0d603c	0.034515604
153	0x3c398b19	0.011324667
154	0x3b033791	0.0020022134
155	0x3c887f78	0.016662344
156	0x3ba91129	0.0051595164
157	0x3bf9e7ae	0.0076264953
158	0xbcb31ff2	-0.021865819
159	0x3d1fa9aa	0.038980164
160	0x3cd413dd	0.025888378
161	0xbca5db92	-0.0202463
162	0xbd3c3d6b	-0.04595701
163	0x3b388950	0.0028158017
164	0xbc69c371	-0.014267788
165	0xbcf46f56	-0.029838245
166	0xbd16f825	-0.036857743
167	0xbda066c7	-0.07832103
168	0x3c8d85f8	0.017275795
169	0xbb902e03	-0.0044000163
170	0xbd5a66d9	-0.05332074
171	0x3d7fee91	0.062483374
172	0x3cc43b49	0.02395405
173	0x3d18b559	0.03728232
174	0x3d218226	0.03943076
175	0x3d844a16	0.06459443
176	0x3d24db9f	0.04024851
177	0x3d7ea90a	0.062172927
178	0x3cfe225f	0.031022249
179	0x3d7cd787	0.06172898
180	0xbd85b54d	-0.06528721
181	0xbc38d170	-0.011280403
182	0xbd4410d0	-0.047867596
183	0xbb88211b	-0.004154337
184	0xbd0e7d72	-0.034787603
185	0xbd57d097	-0.05268916
186	0xbca87b7a	-0.02056669
187	0xbc186f52	-0.009303885
188	0xbd2687b1	-0.04065675
189	0x3b89e2c3	0.0042079403
190	0x3d10bb19	0.03533468
191	0x3d4b6a78	0.049662083
192	0xbc91327f	-0.017724274
193	0x3c0dd2cc	0.008656215
194	0x3ac1a39a	0.0014773489
195	0x3cf11922	0.02943093
196	0x3b86efde	0.00411795
197	0x3ca3dde9	0.020003276
198	0x3d106720	0.035254598
199	0x3c34b880	0.011030316
200	0x3c509c32	0.012732552
201	0x3c8252df	0.015908657
202	0xbc67b588	-0.0141424015
203	0xbcd8d455	-0.026468435
204	0x3d2d6c23	0.042339455
205	0x3cc73dd4	0.024321474
206	0xbc4ee924	-0.012628827
207	0x3d4b5f60	0.049651504
208	0x3d280109	0.041016612
209	0x3bab93bb	0.0052361167
210	0x3d2cee64	0.042219535
211	0xbc660b03	-0.014040711
212	0xbb91ba32	-0.004447245
213	0xbcc8285f	-0.024433313
214	0x3c058969	0.008150437
215	0xbc6514dd	-0.013982025
216	0x3bf4aa15	0.0074665644
217	0x3c66ecf5	0.014094581
218	0xbd670223	-0.056398522
219	0xbc64598e	-0.013937367
220	0xbd48dde0	-0.04903972
221	0x3bbb5a56	0.005717556
222	0xbc439e30	-0.01193957
223	0xbd4ea1c1	-0.05044723
224	0xbd075f86	-0.033050083
225	0xbc50d0b9	-0.012745076
226	0x3ab998e6	0.0014159947
227	0x3caeb0ae	0.021324482
228	0xbc1487d3	-0.009065586
229	0xbc34d47e	-0.01103699
230	0xbced2849	-0.028949874
231	0xbd06f0ae	-0.032944374
232	0x3b8569e7	0.0040714624
233	0xbd024dba	-0.031812407
234	0xbd013b3e	-0.03155064
235	0xbcb63775	-0.02224324
236	0x3d077ead	0.03307979
237	0x3cb185d6	0.021670263
238	0xbc82fbc4	-0.015989192
239	0x3cf7761b	0.030207684
240	0x398d7202	0.00026978558
241	0xbd14a27d	-0.036287773
242	0xbc899a7b	-0.016797295
243	0x3b166469	0.0022948033
244	0x3c6c0d8d	0.014407528
245	0x3cd019ac	0.025402866
246	0x3d0e640e	0.03476339
247	0x3d16c815	0.036811907
248	0xbc1356c4	-0.0089928545
249	0x3d7e3a46	0.062067293
250	0x3ce9acf1	0.028524848
251	0x3d7165b3	0.05893488
252	0xbd0a57c6	-0.033775114
253	0xbd64c52e	-0.055852108
254	0xbd441816	-0.047874533
255	0xbd633bef	-0.05547708

conv4.bias f4 [64]
0	0xbb34a993	-0.0027566894
1	0xbc880a0a	-0.01660635
2	0x3d17d2fa	0.037066437
3	0x3d22c937	0.039742675
4	0x3cac6d24	0.021048136
5	0x3c836ba3	0.016042536
6	0x3d0d65ae	0.034520797
7	0x3ad89795	0.0016524667
8	0x3bb5646a	0.005535652
9	0xbcea1e0f	-0.028578786
10	0xbd27da96	-0.040979944
11	0xbce9acc2	-0.02852476
12	0xbcc63188	-0.02419354
13	0x3d193767	0.03740635
14	0x3c8f36ad	0.017482126
15	0xbbe5c005	-0.007011416
16	0x3c84fb3b	0.016233077
17	0x3cefffb4	0.029296733
18	0x3c4656bb	0.012105639
19	0xbd209462	-0.03920401
20	0x3ce06b9c	0.027395062
21	0x3b5abe63	0.003337764
22	0x3b813748	0.0039433576
23	0xbd094bfd	-0.033519734
24	0x3b209b1d	0.0024506517
25	0xbd25bba6	-0.04046216
26	0xbcc3c04a	-0.023895402
27	0xbc5ae34d	-0.013359857
28	0xbcd445a7	-0.02591212
29	0x3a3e7b91	0.00072663376
30	0xbab91dfb	-0.0014123315
31	0x3d11e266	0.0356163
32	0x3b25d1e1	0.00253021
33	0xbcd28f4d	-0.025703097
34	0xbcd8b177	-0.02645181
35	0xbd160ae3	-0.036631476
36	0xbd1a6a94	-0.037699297
37	0x3b0e5dcf	0.0021723395
38	0xbb71002f	-0.003677379
39	0x3d0a80b8	0.033814162
40	0x3d1e3339	0.03862307
41	0xbca4ab91	-0.02010134
42	0xbc864d90	-0.016394407
43	0x3cbe1fbd	0.023208493
44	0x3c970a81	0.018437626
45	0x3c9a0f19	0.018806027
46	0x3c9ca137	0.019119842
47	0x3c97eb85	0.018544922
48	0x3c1e795d	0.00967249
49	0x3c7c475d	0.015397874
50	0xbcbd2147	-0.023087157
51	0xbac32f26	-0.0014891371
52	0x3c85b91c	0.016323619
53	0x3d237f52	0.039916344
54	0x3bf96a25	0.0076115304
55	0xbca46141	-0.020065906
56	0x3ce55563	0.027994817
57	0xbb6283ed	-0.0034563497
58	0x3d224e89	0.03962568
59	0x3d1a8826	0.037727498
60	0xbc64222e	-0.013924165
61	0x3c716f0d	0.014735949
62	0x3c90a99c	0.017659001
63	0x3cb7914a	0.022408146

linear.weight f4 [5, 64]
0	0x3e99a5d3	0.30009326
1	0x3f16fc13	0.58978385
2	0x3e8996fc	0.26873004
3	0x3e9e87c0	0.30962944
4	0xbe5c32c2	-0.21503738
5	0xbd858bf4	-0.065208346
6	0x3e836262	0.25660998
7	0x3f154204	0.58303857
8	0x3d96ed8c	0.07369527
9	0x3db8b71c	0.090193
10	0x3dc6e110	0.09710896
11	0x3efc9b5e	0.49337286
12	0x3e89c772	0.26909977
13	0x3f1fa3fb	0.6235959
14	0x3dcff134	0.10153428
15	0xbd246a8a	-0.040140666
16	0xbde01e50	-0.10943282
17	0x3d257a41	0.040399794
18	0xbe3d3dc0	-0.18480587
19	0x3e93a693	0.28838024
20	0x3eaa58f8	0.33271003
21	0xbe91438e	-0.28371853
22	0xbc706e48	-0.014674731
23	0x3e0090c8	0.1255523
24	0x3dab2435	0.08356515
25	0xbcc14d0c	-0.02359631
26	0xbe1ba918	-0.15201223
27	0x3e91a3df	0.28445336
28	0x3f09d7b2	0.5384475
29	0x3ec61b5c	0.3869275
30	0x3ea52921	0.3225794
31	0x3f0f0a92	0.55875504
32	0x3e6fe808	0.23428357
33	0x3d6ac2be	0.057314627
34	0x3f0b6581	0.5445176
35	0xbde307a2	-0.1108544
36	0x3c63a808	0.013895042
37	0x3eab52e0	0.33461666
38	0xbd1d040f	-0.03833395
39	0x3f228d30	0.63496685
40	0x3f1aae7f	0.6042251
41	0xbabf4200	-0.0014591813
42	0x3bac74f0	0.0052629635
43	0x3f0babb1	0.54558855
44	0x3ee22e62	0.44176012
45	0x3e374400	0.17897034
46	0x3ee23dea	0.44187862
47	0xbda3bbcf	-0.07994806
48	0xbd24761c	-0.0401517
49	0x3e4dd262	0.20099786
50	0x3d270070	0.0407719
51	0x3f0ad812	0.5423595
52	0x3dc18c38	0.09450573
53	0x3f4afd61	0.79292876
54	0x3e38a314	0.1803096
55	0x3ecdba6e	0.40181297
56	0x3d402f11	0.046919886
57	0xbe0ddaa6	-0.13852939
58	0x3f35d8d6	0.7103399
59	0x3f1c1719	0.60972744
60	0x3e258898	0.16165388
61	0x3d246a5e	0.040140502
62	0x3e87514c	0.26429212
63	0x3f115c22	0.5678121
64	0xbe067af9	-0.13132848
65	0xbed82cca	-0.4222167
66	0x3d54c4dd	0.051945556
67	0xbe523cfa	-0.20531073
68	0xbe877a21	-0.26460364
69	0x3e441ac8	0.19150841
70	0xbe97dd51	-0.2966104
71	0xbebe48ef	-0.3716502
72	0xbe98fa27	-0.2987835
73	0xbe101c98	-0.14073408
74	0xbe995d0d	-0.29953805
75	0xbe9904b5	-0.29886404
76	0x3d97ad2e	0.07406078
77	0xbe89b0a0	-0.26892567
78	0xbeac08a5	-0.33600345
79	0xbb96d86e	-0.004603437
80	0x3c6fbefc	0.014632937
81	0x3e02f9b5	0.12790568
82	0xbbb9e6b9	-0.0056732562
83	0xbe521c8e	-0.20518705
84	0xbee87a5c	-0.45405853
85	0xbeb5322a	-0.35389835
86	0xbdc80335	-0.09766237
87	0x3b7e7dd8	0.0038832333
88	0xbe89525b	-0.26820645
89	0x3e61d8ef	0.2205541
90	0xbe6ac860	-0.22928
91	0x3ce73457	0.0282232
92	0x3e242b46	0.16032133
93	0xbd620bc4	-0.055187
94	0xbe91d4cb	-0.2848266
95	0xbe692411	-0.22767664
96	0xbe2d9e2f	-0.16954874
97	0xbea9538a	-0.33071548
98	0xbdcf7bcb	-0.101310335
99	0xbb11e8bc	-0.0022263965
100	0xbe7434be	-0.23848245
101	0xbeb80064	-0.35937798
102	0xbc0f34b2	-0.008740591
103	0xbea6f383	-0.3260766
104	0xbee03ec9	-0.437979
105	0xbeabffe8	-0.33593678
106	0x3c0e6bc8	0.008692689
107	0xbecb4114	-0.39698088
108	0xbdf72015	-0.12066666
109	0xbea6a80e	-0.3255009
110	0xbde867e2	-0.11347939
111	0x3e094e83	0.13408856
112	0xbe96c756	-0.29448956
113	0xbed0b982	-0.4076653
114	0xbd9c4c4e	-0.076317415
115	0xbe4775f8	-0.19478595
116	0x3e4db21d	0.20087476
117	0xbe5c4ee0	-0.21514463
118	0xbe33e548	-0.17567933
119	0xbdda692c	-0.10664591
120	0x3dd7d9bb	0.10539576
121	0xbe46b629	-0.19405426
122	0xbe574d0f	-0.2102549
123	0xbe912b79	-0.2835348
124	0x3e19df9e	0.1502671
125	0xbd2b5a18	-0.041833967
126	0xbe457505	-0.1928292
127	0xbeaebc75	-0.34128156
128	0xbd86b18a	-0.06576832
129	0x3d9cce47	0.07656532
130	0x3ea8c827	0.32965204
131	0x3f14f23b	0.58182114
132	0x3f17db0b	0.5931861
133	0x3d30182f	0.042991813
134	0x3e545c2e	0.20738289
135	0x3e0484b1	0.12941243
136	0x3f1658a0	0.5872898
137	0x3ef26f43	0.4735051
138	0x3f044c7f	0.51679224
139	0x3f1d8fca	0.6154753
140	0x3e0c73b4	0.13716012
141	0x3e0742e4	0.1320911
142	0x3e7b2871	0.24527146
143	0x3e62b366	0.22138748
144	0x3f1ba07f	0.6079177
145	0x3da33e7a	0.07970901
146	0x3e7130ee	0.23553821
147	0x3f03e14c	0.5151565
148	0x3f024ce5	0.5089858
149	0x3f16ee39	0.5895725
150	0x3e4d5dbc	0.20055288
151	0x3ec28ce6	0.37998122
152	0x3f0f0097	0.55860275
153	0x3e6c1367	0.23054276
154	0x3e271dce	0.16319963
155	0x39fd4200	0.00048305094
156	0xbe1774aa	-0.14790598
157	0x3e8b4008	0.2719729
158	0x3e2c988f	0.16855071
159	0x3d167dc9	0.03674105
160	0x3e4605c2	0.19338134
161	0x3ec52caa	0.38510638
162	0xbce36c98	-0.027761742
163	0x3ed4f911	0.41596273
164	0x3edc405a	0.43017846
165	0x3eaac827	0.3335583
166	0x3ebb4236	0.36573952
167	0xbe0987f1	-0.13430764
168	0x3eeb974f	0.46013877
169	0x3ed81530	0.42203665
170	0x3f244efe	0.6418303
171	0x3e2f8826	0.1714178
172	0x3e39af24	0.18133217
173	0x3e88b80e	0.26702923
174	0x3e62a03d	0.22131439
175	0x3e0283c0	0.12745571
176	0x3f1aec57	0.60516876
177	0x3cfa7116	0.030571502
178	0x3ef7f327	0.48427698
179	0x3e4f3e8c	0.20238703
180	0x3e8677d1	0.26263288
181	0xbc334428	-0.010941543
182	0x3f13833f	0.5762214
183	0x3f02b6d7	0.5106024
184	0x3c7ae0b1	0.01531236
185	0x3eff4272	0.4985538
186	0x3da317ae	0.07963501
187	0xbd6d7d5e	-0.057980888
188	0xbd5c0304	-0.053713813
189	0x3eb1efac	0.34753168
190	0x3d45f668	0.048330694
191	0x3e338b5d	0.17533632
192	0xbce41cfa	-0.027845848
193	0x3b9b82b4	0.0047458056
194	0xbf0c3dec	-0.54781985
195	0xbd079b85	-0.0331073
196	0x3c4d8fb6	0.01254647
197	0xbe30fcfc	-0.17284006
198	0xbe75abad	-0.2399127
199	0xbcc1605e	-0.023605522
200	0xbd81b532	-0.063333884
201	0xbe4e42d2	-0.20142677
202	0xbe9344e5	-0.287635
203	0xbd9bb23e	-0.076023564
204	0xbf1c3ff0	-0.6103506
205	0xbe10a843	-0.14126687
206	0x3e35f05f	0.17767476
207	0xbe7c20df	-0.24621914
208	0x3d860b46	0.06545119
209	0xbeb52718	-0.3538139
210	0xbdb40cbc	-0.087914914
211	0xbe5ae0c0	-0.21374798
212	0xbd52aa7e	-0.051432125
213	0xbcb08c00	-0.021551132
214	0xbdf84164	-0.12121847
215	0x3c94dfe8	0.018173173
216	0xbdb6b53d	-0.08921287
217	0xbea61294	-0.3243605
218	0x3eb56bfa	0.35433942
219	0xbe8f3af3	-0.27974662
220	0xbef9eb79	-0.48812464
221	0xbe4a0d46	-0.19731626
222	0xbe469faf	-0.19396852
223	0xbe54fd0d	-0.20799656
224	0xbd851e9c	-0.06499979
225	0xbd321522	-0.043477185
226	0xbeea5df9	-0.4577482
227	0xbd8137b7	-0.06309455
228	0xbda419d0	-0.08012736
229	0x3da59cbc	0.08086535
230	0xbe8595ac	-0.26090753
231	0xbe0d41ad	-0.13794585
232	0xbe339a2f	-0.17539285
233	0x3d7044f8	0.058659524
234	0xbe34193e	-0.17587754
235	0xbe2f05f5	-0.17092116
236	0x3c625985	0.013815288
237	0xbe95aa09	-0.2923129
238	0xbe7f6626	-0.2494131
239	0xbe801f8e	-0.25024074
240	0xbd7f6130	-0.062348545
241	0x3dbf00c4	0.09326318
242	0x3e5a6b3a	0.21329966
243	0xbd8a0e52	-0.06741013
244	0xbeea2771	-0.45733216
245	0xbe88254f	-0.26590964
246	0xbd324444	-0.043522134
247	0xbe223af1	-0.15842797
248	0xbe1bad15	-0.15202744
249	0x3e4c690d	0.19961949
250	0xbe17f9a0	-0.14841318
251	0xbe42b793	-0.1901534
252	0xbf0b8b23	-0.5450918
253	0xbd78952d	-0.06068914
254	0xbee9d625	-0.45671192
255	0x3beea949	0.007283364

linear.bias f4 [5]
0	0x3ede67d3	0.43438587
1	0xbea1fe5f	-0.31639382
2	0x3f38c290	0.7217188
3	0xbe20d4ec	-0.15706223
4	0xbeb35cb4	-0.35031664
