MAMLExperiments/src/finetuned_model.pth (torch, 449799 bytes, 10 tensors)

conv1.weight f4 [64, 1, 3, 3]
0	0x3de69b39	0.11260075
1	0x3e73853c	0.23781294
2	0x3ec20af8	0.37898993
3	0xbe9e1ecd	-0.30882874
4	0xbe071649	-0.13192095
5	0x3e39f8d2	0.18161324
6	0xbe91ac0e	-0.2845158
7	0xbedbc5d8	-0.4292438
8	0xbe7e7d6f	-0.24852537
9	0x3ecdc570	0.40189695
10	0xbeb5a7ab	-0.35479483
11	0x3e899ac0	0.26875877
12	0x3ebd349e	0.36954206
13	0xbec4ea06	-0.38459796
14	0x3d2a86bc	0.0416324
15	0x3e02b115	0.12762864
16	0x3c90f538	0.017695054
17	0x3ee15996	0.4401366
18	0x3e7b8b4c	0.24564856
19	0xbea16c2e	-0.31527847
20	0xbddd6547	-0.10810333
21	0xbcfe9c4b	-0.031080386
22	0xbe108d17	-0.14116322
23	0xbc80b592	-0.01571158
24	0xbec0bf80	-0.37646103
25	0xbeef3aa6	-0.46724433
26	0x3f1d9740	0.61558914
27	0x3f10fd0c	0.5663612
28	0x3d440072	0.047851987
29	0xbf235a63	-0.63809794
30	0x3e30095b	0.17191069
31	0xbe8bbc90	-0.272923
32	0xbe80b599	-0.25138548
33	0xbf582f3c	-0.84447074
34	0xbe8d7990	-0.27631807
35	0x3f440567	0.76570743
36	0x3e429fa7	0.19006215
37	0xbeddeda9	-0.43345383
38	0x3e5a1316	0.21296343
39	0x3ea7b992	0.32758766
40	0xbeeb09c5	-0.4590589
41	0x3ea11c81	0.3146706
42	0x3f4df2c7	0.80448574
43	0xbe723353	-0.23652391
44	0x3e7b2b4e	0.24528238
45	0x3eb02898	0.3440597
46	0xbe51ac37	-0.20475851
47	0xbea76225	-0.32692066
48	0xbe623e18	-0.22094
49	0x3eadaab2	0.33919293
50	0xbe947c61	-0.29001144
51	0xbf060051	-0.5234423
52	0xbea81e4c	-0.32835615
53	0x3f22d029	0.6359888
54	0x3e983486	0.29727572
55	0xbed0c96c	-0.40778673
56	0x3e4f68ba	0.20254794
57	0xbe1d41f3	-0.15357189
58	0xbefb2dc8	-0.49058366
59	0xbd936559	-0.07197065
60	0x3f2611ad	0.6487072
61	0xbeb42d2b	-0.3519071
62	0x3e54e780	0.20791435
63	0x3f0d7ba9	0.55266815
64	0xbe3c176e	-0.18368313
65	0x3f1cd2ec	0.6125934
66	0x3d66e384	0.05636932
67	0xbea9f4f7	-0.33194706
68	0xbcdde41e	-0.027086314
69	0x3f257cc1	0.64643484
70	0xbe861e9e	-0.26195234
71	0x3ee92190	0.4553342
72	0xbe6fa823	-0.23403983
73	0xbbe96496	-0.0071225865
74	0xbe8a5614	-0.27018797
75	0xbf018427	-0.50592273
76	0xbe919f41	-0.28441814
77	0xbe0bdbc0	-0.13658047
78	0xbe162815	-0.14663728
79	0x3e067d8d	0.13133831
80	0x3ec91a28	0.39277768
81	0xbe4ec216	-0.20191225
82	0xbe374705	-0.17898186
83	0x3e7b8c4a	0.24565235
84	0xbe83878b	-0.2568935
85	0xbeb6223d	-0.35572997
86	0xbed04f0a	-0.40685302
87	0x3e353e6c	0.17699593
88	0x3b96bbf6	0.0046000434
89	0xbeab2ee1	-0.33434203
90	0xbe61402d	-0.21997137
91	0x3eee43ae	0.4653601
92	0xbec37a55	-0.3817927
93	0xbe22eca0	-0.15910578
94	0x3eb4670d	0.35234872
95	0xbeccbcdc	-0.39987838
96	0xbeea70ee	-0.45789284
97	0x3f0f68ce	0.56019294
98	0xbe64a071	-0.22326829
99	0xbe913903	-0.2836381
100	0xbea51cbb	-0.32248482
101	0xbebecf93	-0.37267742
102	0x3d77f623	0.06053747
103	0xbdfd5977	-0.1237058
104	0xbe6a0c37	-0.22856222
105	0x3db29aca	0.0872093
106	0xbddcbb54	-0.107779175
107	0x3e835a50	0.2565484
108	0x3efa9a21	0.48945716
109	0x3dbd8de8	0.09255582
110	0x3dad79ac	0.08470473
111	0xbf1f871d	-0.6231554
112	0xbe3ef946	-0.18649778
113	0xbf130540	-0.57429886
114	0xbdb25f76	-0.08709614
115	0xbe73e915	-0.23819382
116	0x3e95c35f	0.2925062
117	0x3f17571b	0.5911729
118	0xbdab2b72	-0.08357896
119	0xbe070db5	-0.13188823
120	0x3ef2fb56	0.4745738
121	0xbe5c0f18	-0.21490133
122	0xbee307d4	-0.4434191
123	0x3de88913	0.1135427
124	0x3e8f0f16	0.27941197
125	0xbe8fe1fe	-0.28102106
126	0x3ee41319	0.4454582
127	0x3e42490a	0.18973175
128	0x3e8de42b	0.2771314
129	0xbea136d1	-0.31487134
130	0xbec5a8d0	-0.38605356
131	0xbe9707ae	-0.29498047
132	0xbecd6806	-0.40118426
133	0x3db1bd9d	0.08678744
134	0xbe48795e	-0.19577548
135	0x3e0b23af	0.13587831
136	0xbefa1107	-0.48841116
137	0xbdbf9711	-0.093549855
138	0xbe9f8769	-0.31157997
139	0xbd15ac27	-0.03654113
140	0xbd9c21c1	-0.076236255
141	0xbebe5121	-0.3717127
142	0x3e62323c	0.22089475
143	0x3e3b1cad	0.18272658
144	0xbec3fc65	-0.382785
145	0x3f06a30a	0.5259253
146	0xbd824aed	-0.06361947
147	0x3ea7809d	0.32715312
148	0xbebac296	-0.36476582
149	0xbef04dd4	-0.46934378
150	0xbe7a60c4	-0.24450976
151	0xbf057569	-0.5213228
152	0x3ef2a586	0.4739191
153	0xbf1c7a5d	-0.6112421
154	0x3dc84641	0.09779025
155	0x3eae3f3f	0.34032628
156	0xbe19c847	-0.15017806
157	0x3deeba97	0.11656683
158	0x3e12c4e3	0.14332919
159	0xbf151ccf	-0.58247083
160	0x3e2f3ff2	0.17114237
161	0x3f023b94	0.5087216
162	0xbf171b46	-0.5902599
163	0xbe1aef92	-0.15130451
164	0x3e1fc42b	0.15602176
165	0xbd2e6a93	-0.042582106
166	0x3ed16aec	0.40901887
167	0xbe11e9c4	-0.14249331
168	0x3ee6bb6e	0.45064873
169	0x3e24e7b6	0.16104016
170	0xbf048694	-0.5176785
171	0x3e89c44a	0.2690757
172	0xbe046547	-0.12929259
173	0xbe65cef8	-0.22442234
174	0x3e625354	0.221021
175	0xbe426c08	-0.18986523
176	0xbe42f9ee	-0.19040653
177	0x3f28e1bc	0.65969443
178	0x3ece1fa5	0.40258518
179	0xbdb3c212	-0.0877725
180	0xbf0b2c0e	-0.543641
181	0x3e926a5b	0.28596768
182	0x3ea96148	0.33082032
183	0x3de20f05	0.11038021
184	0x3e91b23c	0.28456295
185	0xbed1971c	-0.409356
186	0x3e5508f5	0.20804198
187	0xbf4f5745	-0.8099254
188	0x3d02a062	0.031891234
189	0xbe94d20a	-0.29066497
190	0xbe8c4e5a	-0.27403527
191	0x3ec3b612	0.38224846
192	0xbe924f58	-0.2857616
193	0xbe9b7b00	-0.3036728
194	0x3edc72a7	0.43056223
195	0xbeddf8dc	-0.43353927
196	0x3e38627f	0.18006323
197	0x3e8482dc	0.25881088
198	0x3f28d3b8	0.6594806
199	0xbe7f174e	-0.24911234
200	0xbf0d4788	-0.55187273
201	0x3eaf8b27	0.34285852
202	0xbe747882	-0.23874095
203	0xbe44e826	-0.19229183
204	0x3e64ecbf	0.22355936
205	0xbe3db91d	-0.18527646
206	0x3e3fd77f	0.18734549
207	0x3b1be584	0.0023787925
208	0xbe4fddb8	-0.20299423
209	0xbe991c58	-0.29904437
210	0xbf0b8d4d	-0.5451248
211	0xbeb8844b	-0.36038432
212	0xbe23e55e	-0.16005465
213	0xbca5a9c8	-0.02022256
214	0x3e591c22	0.21202138
215	0x3e4afc51	0.19822814
216	0x3eba0aba	0.3633631
217	0x3e91df34	0.28490603
218	0x3ed0bbec	0.40768373
219	0xbf2a2f92	-0.66478837
220	0xbeedaed4	-0.46422446
221	0xbf180192	-0.59377396
222	0xbdb1987e	-0.08671664
223	0x3c031fb2	0.008003162
224	0x3e299e85	0.16564377
225	0xbe33e8cd	-0.17569275
226	0x3d983314	0.074316174
227	0xbddd4037	-0.10803264
228	0xbe4592eb	-0.19294326
229	0x3d0afb79	0.03393123
230	0xbd6c87bc	-0.057746634
231	0xbf2cd261	-0.6750851
232	0xbdaecec8	-0.08535534
233	0x3f1f29d1	0.6217318
234	0x3eff9b29	0.49923065
235	0xbe63cb69	-0.22245564
236	0x3ef368c7	0.47540876
237	0xbea374b7	-0.31924984
238	0xbf28f915	-0.6600507
239	0xbe09e898	-0.13467634
240	0x3f4844b5	0.7822984
241	0xbd3ea62d	-0.046545196
242	0x3e416390	0.18885636
243	0xbce23fe3	-0.027618354
244	0xbf0804bd	-0.5313223
245	0x3dd229cb	0.102618776
246	0xbbd5c1db	-0.0065233535
247	0xbef39960	-0.47577953
248	0xbd637082	-0.055527218
249	0xbc15dea2	-0.009147318
250	0xbf142f45	-0.5788463
251	0x3daadbe8	0.08342725
252	0x3e2aa29b	0.16663592
253	0xbeeead11	-0.46616414
254	0x3ed21bbc	0.41036785
255	0x3efe5a7c	0.4967841

conv1.bias f4 [64]
0	0x3e4c8c21	0.1997533
1	0x3ea7ea09	0.32795742
2	0xbe9d543f	-0.30728337
3	0xbd2f521a	-0.042802908
4	0xbbe4b872	-0.0069799954
5	0xbe205ab9	-0.15659608
6	0x3e44cfc7	0.19219886
7	0x3dadfb17	0.08495157
8	0xbe867cd9	-0.26267126
9	0xbe986c82	-0.29770285
10	0x3d59f08f	0.05320793
11	0x3c693fd2	0.014236407
12	0x3da9a64e	0.08283673
13	0x3e49535b	0.19660704
14	0x3e4663ee	0.19374058
15	0x3d9d3a02	0.0767708
16	0x3e96aa3c	0.29426754
17	0xbc5b6e92	-0.013393061
18	0xbdf3c8b2	-0.11903514
19	0x3e8eb652	0.27873474
20	0x3e1ed069	0.1550919
21	0xbe68de2d	-0.22741003
22	0xbe92c966	-0.2866928
23	0x3e7f72fb	0.24946205
24	0x3e8cb642	0.27482802
25	0xbe2dd68c	-0.16976374
26	0xbe71807a	-0.23584166
27	0x3bee03dd	0.007263644
28	0xbe362eac	-0.17791241
29	0x3e9851fb	0.29750046
30	0x3ddee41b	0.108833514
31	0xbe77f391	-0.24214007
32	0xbe93291f	-0.2874231
33	0x3e845e3c	0.25853145
34	0x3e983969	0.297313
35	0x3cd2413e	0.025665876
36	0x3e0a1728	0.13485396
37	0xbe95f3ae	-0.29287475
38	0x3e8adf02	0.27123266
39	0xbe2d5803	-0.16928105
40	0x3e94a400	0.29031372
41	0xbd62079d	-0.05518304
42	0xbe876f78	-0.2645223
43	0xbe8e7fde	-0.2783193
44	0x3e74fc0a	0.2392427
45	0x3d0502e9	0.03247348
46	0xbe7e2981	-0.2482052
47	0x3e053fc9	0.13012613
48	0x3e829b41	0.25509074
49	0xbe771483	-0.24128918
50	0x3da01d59	0.078180976
51	0x3e730478	0.23732173
52	0x3d967fc7	0.0734859
53	0x3d46c211	0.04852492
54	0x3e234fd9	0.15948428
55	0x3d27d56f	0.04097503
56	0x3e11e0b2	0.1424587
57	0x3dd1d698	0.10246009
58	0xbea24d51	-0.31699613
59	0xbe9a64a6	-0.30154914
60	0x3e6bde53	0.23034029
61	0x3ea506e0	0.32231808
62	0x3c2350ca	0.009967992
63	0xbe93bacb	-0.2885345

conv2.weight f4 [64, 64, 3, 3]
0	0xbca9f408	-0.020746246
1	0xbb4cefea	-0.003127093
2	0x3cd4203a	0.025894273
3	0xbc194e55	-0.009357055
4	0xbd70b4b6	-0.05876609
5	0xbd100bc9	-0.03516749
6	0xbd835945	-0.06413511
7	0x3ab101b4	0.0013504536
8	0xbd8117d2	-0.063033715
9	0xbcd8c465	-0.026460836
10	0xbb8de6ed	-0.004330507
11	0x3d3bb173	0.045823526
12	0x3d30340c	0.043018386
13	0x3c7b47e0	0.015336961
14	0x3dfbdc5e	0.12297891
15	0x3d5dd67b	0.054159623
16	0x3cd57947	0.026058806
17	0x3dd5dc31	0.10442389
18	0x3d16ea47	0.036844518
19	0xbdb02be8	-0.086021245
20	0x3dc7a87a	0.09748931
21	0xbc3cd340	-0.011524975
22	0xbc5d46a7	-0.013505614
23	0x3dabb28c	0.083836645
24	0x3d1969c5	0.037454385
25	0xbd12cc05	-0.0358391
26	0x3d37e8ff	0.044899937
27	0x3b8d8430	0.0043187365
28	0xbdadab60	-0.08479953
29	0xbd437f35	-0.047728736
30	0xbd58db90	-0.052943766
31	0xbd14aa26	-0.03629508
32	0xbd0d7b6d	-0.034541536
33	0xbca1c9bd	-0.019749517
34	0xbc71e175	-0.014763226
35	0xbd4935bf	-0.049123522
36	0xbc6b0e38	-0.014346652
37	0xbbdfd029	-0.0068302345
38	0x3e0ce1a6	0.13757953
39	0x3c8b1b70	0.016980857
40	0x3d312d73	0.043256234
41	0x3e1396ae	0.14412948
42	0x3d68fc0e	0.056881003
43	0x3d22d89a	0.03975735
44	0x3e3fd708	0.18734372
45	0x3d30fdd9	0.043210838
46	0xbd3fe23f	-0.046846624
47	0xbc08f113	-0.008358258
48	0xbd43eca3	-0.047833096
49	0xbce584ec	-0.028017484
50	0x3c770a62	0.015078159
51	0xbb8ad2f1	-0.004236572
52	0x3cb253eb	0.02176853
53	0x3d34cf76	0.044143163
54	0xbcb679ab	-0.022274813
55	0xbca5d39a	-0.020242501
56	0x3de7cde0	0.113185644
57	0xbcd1bfa8	-0.025604084
58	0xb99d0598	-0.0002994954
59	0x3da640ec	0.081178516
60	0xbc9ac85f	-0.018894373
61	0xbca16de1	-0.019705715
62	0x3d728342	0.05920721
63	0xbcc1ca42	-0.023656014
64	0xbce6f669	-0.02819367
65	0x3cdb9488	0.026804224
66	0xbd8de7b3	-0.06928959
67	0xbda6b927	-0.08140784
68	0xba5303a0	-0.00080495514
69	0xbd8a64a5	-0.06757478
70	0xbdff0da4	-0.124537736
71	0x3ce86e56	0.028372925
72	0xbcf05a39	-0.029339897
73	0xbd69771d	-0.05699836
74	0xbc5c44ec	-0.013444167
75	0xbd87001c	-0.06591818
76	0xbd26dfa5	-0.040740628
77	0x3babd8b2	0.005244338
78	0x3a9b61fe	0.0011854765
79	0x3bc17990	0.005904384
80	0x3c98d248	0.018654957
81	0x3aa96506	0.0012923784
82	0xbd23d3bd	-0.03999685
83	0xbbab68a5	-0.0052309805
84	0xbbf0298f	-0.007329173
85	0xbc9535fb	-0.018214216
86	0xbd847976	-0.06468479
87	0x3c3dd670	0.01158677
88	0xbac0c45e	-0.001470696
89	0xbd79b862	-0.060966857
90	0x3d318d23	0.04334749
91	0x3dc1b7ad	0.094588615
92	0x3da54718	0.08070201
93	0x3dbdd919	0.09269924
94	0x3d433744	0.047660127
95	0x3c7778c6	0.015104478
96	0x3c657c1f	0.014006644
97	0x3d2f0dc7	0.04273775
98	0x3cc08cfc	0.023504727
99	0xbc9203ae	-0.01782402
100	0xbc0077c5	-0.007841055
101	0xbc0ad6fe	-0.00847411
102	0xbd80303e	-0.062592015
103	0xbd3a9f81	-0.04556227
104	0x3c9f95b6	0.019480567
105	0xbd19b36d	-0.03752463
106	0xbd700f1c	-0.05860816
107	0xbcaca380	-0.021074057
108	0xba5bde1d	-0.00083872845
109	0xbd3b4141	-0.045716528
110	0xbbcf7e5f	-0.0063322033
111	0xbd45e715	-0.04831608
112	0xbd62151a	-0.055195905
113	0xbd307692	-0.043081827
114	0xbdda56d2	-0.10661091
115	0xbd89ec1e	-0.06734489
116	0xbd8026ae	-0.062573776
117	0xbdb712aa	-0.08939107
118	0x3b5f09ee	0.0034033018
119	0xbd4e99b3	-0.050439548
120	0xbd8fcffe	-0.07022093
121	0xbd022570	-0.031773984
122	0x3c8165ee	0.015795674
123	0xbd3cf93f	-0.046136137
124	0xbd296a5e	-0.041361205
125	0x3cf5ba00	0.029995918
126	0xbd2c1314	-0.04201038
127	0xbc8bc044	-0.017059453
128	0xbd6b0d42	-0.05738569
129	0xbdc920ab	-0.09820684
130	0xbda4925a	-0.08035727
131	0xbdbb2088	-0.09137064
132	0xbd82e98b	-0.06392201
133	0xbd44f14b	-0.048081677
134	0xbdc68c68	-0.09694749
135	0x3cbf6314	0.023362674
136	0xbd435a6a	-0.047693647
137	0xbc85d453	-0.016336596
138	0x3d17a18e	0.037019305
139	0x3c0c3599	0.008557701
140	0xbd9fdf87	-0.07806306
141	0xbccab86f	-0.024746148
142	0x3c25f100	0.01012826
143	0xbd9cf001	-0.076629646
144	0xbb67d42a	-0.0035374262
145	0xbc86f62f	-0.016474811
146	0x3d27cdc5	0.04096772
147	0x3c37719b	0.011196519
148	0xbdb8e7fc	-0.090286225
149	0xbc47201c	-0.012153652
150	0x3bd94b37	0.0066312808
151	0xbc5f4287	-0.013626701
152	0xbdc22974	-0.09480563
153	0xbc7bdace	-0.015371991
154	0xbd5480be	-0.05188059
155	0xbc6a0af5	-0.014284839
156	0x3ccd4e1e	0.025061663
157	0xbc8897f4	-0.01667402
158	0x3cf64c9f	0.030065833
159	0xbba047b8	-0.004891362
160	0xbd3a584b	-0.04549436
161	0x3d9a24ba	0.07526536
162	0xbdf85682	-0.12125875
163	0xbda7d919	-0.08195705
164	0x3bbf8aae	0.0058453893
165	0xbd428615	-0.04749115
166	0xbdaa1186	-0.083041236
167	0xbd9d615d	-0.07684586
168	0xbc8a234a	-0.01686253
169	0xbcd58477	-0.02606414
170	0xbd8f4ac5	-0.06996683
171	0xbdd4d86d	-0.103928424
172	0xbd8252bc	-0.063634366
173	0xbcfb8451	-0.030702742
174	0xbde4fe5a	-0.11181326
175	0xbd1a3358	-0.03764662
176	0xbd0b0d10	-0.033948004
177	0xbddeed38	-0.1088509
178	0xbdb15939	-0.08659596
179	0xbd212b58	-0.039347976
180	0x3c9333ca	0.01796903
181	0xbd088b3f	-0.03333592
182	0x3ca166f3	0.01970241
183	0xbcd25e62	-0.02567977
184	0xbd0d1dd6	-0.034452282
185	0xbd0645ff	-0.032781597
186	0xbd443d2e	-0.047909908
187	0xbd74cdf8	-0.05976674
188	0xbd586246	-0.052828096
189	0x3d4e4594	0.050359324
190	0xbd9507f1	-0.07276905
191	0x3d2ce010	0.04220587
192	0xb74d0000	-1.2218952e-05
193	0xbcbcaf26	-0.023032736
194	0x3d910ca9	0.07082493
195	0xbd13de62	-0.036100753
196	0xbd9f5d49	-0.077814646
197	0x3d82f0b1	0.063935645
198	0xbc9b3a5e	-0.01894873
199	0x3c17e3fe	0.009270666
200	0xbcafb04d	-0.021446371
201	0xbdaa4d82	-0.08315565
202	0xbc0b2198	-0.008491896
203	0x3d254ec6	0.040358327
204	0xbdaaee27	-0.08346205
205	0x3bd00715	0.0063485005
206	0xbc3f7a38	-0.011686854
207	0xbd76b94d	-0.06023531
208	0xbd5bdf4b	-0.053679746
209	0xbd924350	-0.07141745
210	0xbdabf55b	-0.08396407
211	0xbda38264	-0.079838544
212	0xbc668006	-0.014068609
213	0xbd659e9b	-0.05605946
214	0xbd3014f7	-0.042988744
215	0xbd4793c7	-0.048724916
216	0xbd8bd298	-0.06827277
217	0xbd9ed242	-0.07754947
218	0x3d3f3bb3	0.046687793
219	0xbdec58b3	-0.115403555
220	0xbdf63f5f	-0.12023806
221	0xbd3e0a9d	-0.04639684
222	0xbdd74db6	-0.10512869
223	0xbe00709d	-0.12542959
224	0xbdba191c	-0.090868205
225	0x3c85c4da	0.016329218
226	0xbd3522d6	-0.044222675
227	0xbc8becdd	-0.017080719
228	0xbd41b598	-0.047292322
229	0xbd7234d5	-0.059132416
230	0x3cf12584	0.029436834
231	0xbd2b7d5c	-0.0418676
232	0xbd627855	-0.05529054
233	0x3d0b6221	0.03402913
234	0xbd293e6a	-0.04131929
235	0xbd12ff5a	-0.035888053
236	0x3ccb1701	0.024791243
237	0xbdaf7ccc	-0.08568725
238	0xbd949157	-0.07254284
239	0x3d13f17e	0.036118977
240	0xbd18f783	-0.03734542
241	0xbd0e2fb8	-0.034713477
242	0xbba85c20	-0.0051379353
243	0x3d372dd1	0.04472143
244	0x3d72d599	0.059285734
245	0x3d9a91ad	0.07547317
246	0x3c7d2e71	0.015452967
247	0x3d4b03bc	0.04956411
248	0x3e03aa73	0.1285799
249	0x3d8a8ecf	0.0676552
250	0x3d528561	0.05139673
251	0x3db8ed28	0.09029609
252	0x3c891df4	0.016737916
253	0xbd0fdbb7	-0.035121646
254	0x3e325071	0.17413498
255	0xbd02d982	-0.031945713

conv2.bias f4 [64]
0	0x3d1260de	0.03573691
1	0x3cc53db2	0.02407727
2	0xbad5932f	-0.0016294474
3	0xbbaaeeaa	-0.0052164393
4	0x3c310b30	0.01080589
5	0x3bcd62d1	0.0062678833
6	0x3ae129cb	0.0017178593
7	0xbd1f220c	-0.03885083
8	0x3c58729e	0.013210921
9	0x3c6b4813	0.014360446
10	0xbd102207	-0.0351887
11	0x3c0ac8a8	0.008470692
12	0x3cca414d	0.024689341
13	0x3cee92b7	0.029122693
14	0x3b1ec4c8	0.0024226177
15	0x3b3660a4	0.0027828598
16	0x3d0bdf89	0.034148727
17	0x3bfd533a	0.0077308686
18	0x3d1ac6da	0.037787296
19	0xbc3857db	-0.011251415
20	0x3cb3db92	0.021955285
21	0xbcb5b8ec	-0.022182904
22	0x3cf7b867	0.030239297
23	0x3c912a34	0.01772032
24	0x3c5c8fcb	0.013462017
25	0x3bd812bf	0.0065940316
26	0xbb33a1fe	-0.0027409787
27	0xbd0cebf1	-0.0344047
28	0x3bb961d6	0.005657415
29	0x3d082659	0.033239696
30	0x3c97faa3	0.01855213
31	0xbad94fa2	-0.0016579519
32	0xbcf8e589	-0.030382888
33	0x3d0698f5	0.032860715
34	0xbcca0f28	-0.02466543
35	0x3af7f4f5	0.0018917607
36	0xbb9432f5	-0.004522676
37	0xbcdfd739	-0.027324306
38	0xbb87b2a4	-0.0041411687
39	0xbd020f6d	-0.031752992
40	0x3bdc5f25	0.0067252093
41	0x3d1c2d1c	0.038128957
42	0xbb118f38	-0.002221061
43	0x3abb633b	0.0014296541
44	0xbccf77ef	-0.025325743
45	0xbc6cb1a2	-0.014446648
46	0x3cecec2a	0.028921206
47	0xbb33e8c3	-0.002745197
48	0x3c19de29	0.009391346
49	0x3c5e8826	0.013582265
50	0xbd08d135	-0.03340264
51	0x3c1db79d	0.009626296
52	0xba61c515	-0.00086124364
53	0x3cfdb46a	0.030969817
54	0xbcbc0380	-0.022950888
55	0xbc3812e7	-0.011234975
56	0xbc2f5e9f	-0.010703712
57	0x3c6ecdb0	0.014575407
58	0xbcf32161	-0.029679002
59	0x3c228501	0.009919406
60	0xbd22f1ed	-0.0397815
61	0x3c2bf9b7	0.010496548
62	0xbd1854f4	-0.037190393
63	0xbceaee6d	-0.028678143

conv3.weight f4 [64, 64, 3, 3]
0	0x3d19fd58	0.037595123
1	0x3dae7af4	0.08519545
2	0x3e0d4c8c	0.13798732
3	0x3dc5cf4c	0.09658679
4	0x3d6c79f2	0.057733484
5	0x3e1fb3c2	0.15595916
6	0x3c8fdb0f	0.01756051
7	0x3d55df4c	0.052214906
8	0x3e125910	0.14291787
9	0x3d8e365d	0.06943963
10	0x3c87756a	0.01653548
11	0x3d9da1e3	0.07696893
12	0x3dc5cf58	0.09658688
13	0x3d77c9fd	0.060495365
14	0x3d343912	0.04399974
15	0x3db1b62b	0.08677324
16	0x3dc61a89	0.0967303
17	0x3d6c26bc	0.057654127
18	0x3b15a315	0.00228328
19	0xbd4b9c28	-0.04970947
20	0xbe0414f1	-0.12898614
21	0x3bc8d7b1	0.006129228
22	0xbc9de449	-0.019273894
23	0xbcd1c0bd	-0.0256046
24	0x3d67c5ea	0.05658523
25	0xbb8b99f9	-0.0042602983
26	0xbc7fbae6	-0.015608525
27	0x3d065ba9	0.032802258
28	0xbcc412e4	-0.023934789
29	0x3db54895	0.088517345
30	0x3bd5c313	0.006523499
31	0xbc5bf581	-0.013425232
32	0x3d0138b1	0.031548206
33	0x3bda0ce3	0.0066543682
34	0x3d5aca64	0.05341567
35	0x3da4e88e	0.08052169
36	0x3c52c095	0.012863298
37	0x3c504626	0.012712037
38	0xbd369428	-0.044574887
39	0xbc1e7032	-0.009670304
40	0xbc5ce06a	-0.013481239
41	0xbc9141d9	-0.017731594
42	0x3d922e4f	0.07137739
43	0xbd305114	-0.043046072
44	0xbbd2ff53	-0.0064391284
45	0x3cc47fb0	0.023986667
46	0x3db69fb4	0.0891718
47	0x3d8dfe7b	0.06933304
48	0x3d997657	0.07493275
49	0x3ceebf98	0.029144093
50	0x3da34307	0.07971769
51	0x3d1a1130	0.037614048
52	0x3d8a61dc	0.067569464
53	0x3d7b706f	0.061386522
54	0xbd6aa4ec	-0.057286188
55	0xbddd4bc6	-0.10805468
56	0xbdb7b125	-0.089693345
57	0xbc98cdb2	-0.01865277
58	0xbc9fa078	-0.019485697
59	0xbd318dba	-0.04334805
60	0xbcf0956f	-0.02936813
61	0xbbe6c62a	-0.007042666
62	0xbd43ef85	-0.047835846
63	0xbdd2faaa	-0.103017166
64	0xbde47694	-0.111554295
65	0xbd56a11b	-0.052399736
66	0xbc9c29f6	-0.019062977
67	0xbd911ad1	-0.07085193
68	0xbd85ed89	-0.06539447
69	0xbca45829	-0.02006157
70	0xbd543bfb	-0.051815014
71	0xbd0b838a	-0.034060992
72	0x3cfc2dfb	0.030783644
73	0x3bf6de9c	0.0075338613
74	0x3ca32c93	0.019918716
75	0x3d9498ba	0.07255693
76	0xbc7c6d56	-0.015406927
77	0x3da46ac7	0.08028179
78	0x3d07645f	0.033054706
79	0x3d0f34ba	0.034962393
80	0x3d0c38d6	0.03423389
81	0x3d24a55e	0.04019677
82	0x3d20c37c	0.03924893
83	0x3d053b1c	0.032527074
84	0x3ca8f1b2	0.020623062
85	0xbd0be4a2	-0.034153588
86	0xbcf2b9e5	-0.029629657
87	0xbc0659ee	-0.008200152
88	0xbafb30dc	-0.0019164342
89	0xbc0d1a67	-0.008612252
90	0x3db888aa	0.090104416
91	0x3d6a66a0	0.057226777
92	0x3c79e07c	0.015251275
93	0x3d23d2e3	0.03999604
94	0x3db13669	0.08652956
95	0x3da70d95	0.081568874
96	0x3d6c0443	0.05762125
97	0x3dd2cdf9	0.102931924
98	0x3cd210ee	0.025642838
99	0x3e7756f6	0.24154267
100	0x3e7f265b	0.24916975
101	0x3e47b39a	0.19502106
102	0x3e7b2544	0.24525934
103	0x3e837b28	0.25679898
104	0x3e4a05a9	0.19728722
105	0x3e670074	0.22558767
106	0x3e89b951	0.26899198
107	0x3e873d76	0.26414078
108	0x3ba11851	0.004916229
109	0xbba08138	-0.0048982166
110	0x3d74bd98	0.059751123
111	0x3da790ea	0.08181937
112	0xbc052e80	-0.008128762
113	0x3b40c547	0.0029414461
114	0x3d1284f3	0.03577132
115	0x3d15285c	0.036415443
116	0x3c16acd4	0.009196479
117	0x3e014159	0.12622584
118	0x3dd7d3e9	0.105384655
119	0x3dcbb21c	0.09946081
120	0x3da75267	0.08170014
121	0x3d82ead0	0.06392443
122	0x3df0ec15	0.11763779
123	0x3de736ce	0.1128975
124	0x3dcde2d0	0.10053027
125	0x3d69a84c	0.057045266
126	0xbccaba8d	-0.024747157
127	0xbd19d5ee	-0.037557535
128	0xbc9b0eb4	-0.01892791
129	0x3d36770d	0.04454713
130	0x3d1be79b	0.038062673
131	0x3daae5be	0.08344601
132	0xbb9b2d7b	-0.0047356463
133	0xbc22df92	-0.009940999
134	0x3db30f87	0.08743196
135	0x3d26a357	0.040683117
136	0x3d27f23d	0.0410025
137	0x3d278942	0.040902384
138	0x3d6dba2f	0.058038887
139	0x3ca62bc5	0.020284543
140	0x3d64c4d8	0.055851787
141	0x3ce0115d	0.02735203
142	0x3d3dfe98	0.046385378
143	0x3d6b729e	0.057482354
144	0xbdc66699	-0.09687538
145	0xbc3cf536	-0.011533072
146	0xbc6490c4	-0.01395053
147	0xbddcaffe	-0.10775755
148	0xbc3c4283	-0.011490467
149	0xbd6f6606	-0.058446907
150	0xbe0b7ab6	-0.1362103
151	0xbd607d4a	-0.054806985
152	0xbd8dda40	-0.069263935
153	0x3dc95d18	0.09832209
154	0x3db92f34	0.090422064
155	0x3dda7750	0.10667288
156	0x3d4b3509	0.049611125
157	0x3d907c1b	0.07054921
158	0x3dbbb8d4	0.091661125
159	0x3dd5ca39	0.104389615
160	0x3c5d7d96	0.013518712
161	0x3d46b38a	0.048511066
162	0xbd2d954a	-0.0423787
163	0xbd29e7bd	-0.04148077
164	0xbd102791	-0.035193983
165	0x3d135763	0.03597201
166	0xb9c88500	-0.00038246065
167	0xbc8d4648	-0.017245427
168	0xbcd7cdda	-0.026343275
169	0xbd171b70	-0.0368914
170	0xbd16cb94	-0.03681524
171	0x3cdff026	0.027336191
172	0x3c4fc484	0.01268113
173	0x3c345d56	0.011008581
174	0xbc482948	-0.0122168735
175	0x3c6d78aa	0.014494101
176	0xbbc8404a	-0.0061111795
177	0x3d8f80c8	0.07006985
178	0x3d3b468f	0.045721587
179	0x3d62bfab	0.05535857
180	0x3d179061	0.037002925
181	0x3d82e649	0.0639158
182	0x3da6ddb6	0.08147757
183	0x3d0ca9b2	0.03434152
184	0x3d301cf8	0.042996377
185	0x3d192a27	0.037393715
186	0x3d8ab418	0.067726314
187	0x3da80162	0.08203389
188	0x3d935a99	0.071950145
189	0x3d8886e9	0.06666357
190	0x3d547b31	0.051875297
191	0x3d1888f0	0.03723997
192	0x3c865fcd	0.016403103
193	0x3d9481f9	0.07251353
194	0x3d851aab	0.06499227
195	0x3d748ad2	0.059702702
196	0x3daa0c40	0.08303118
197	0x3e17fb49	0.14841951
198	0x3c9d0d93	0.019171512
199	0x3cbfc2ea	0.023408372
200	0x3dafbbc1	0.08580733
201	0x3d7d66a2	0.061865456
202	0x3db8e3fb	0.09027859
203	0x3db29b86	0.0872107
204	0x3c8abbf0	0.016935319
205	0x3d957f98	0.07299727
206	0x3d805f36	0.0626816
207	0x3d051ae0	0.032496333
208	0xbb7f4291	-0.0038949589
209	0x3d48c895	0.049019415
210	0x3d20d4e4	0.03926553
211	0xbc0e0442	-0.008668007
212	0x3d9e70c3	0.07736351
213	0x3d80a5cf	0.062816255
214	0x3b2d2211	0.002641801
215	0x3d3aed64	0.04563655
216	0xbc8a5ab9	-0.016888963
217	0x3bc1763e	0.005903988
218	0x3d3292d4	0.043597057
219	0xbc0982c6	-0.008392995
220	0x3ba97d99	0.005172443
221	0x3ce13d72	0.02749512
222	0x3c03d518	0.008046411
223	0x3cf57c8b	0.029966613
224	0x3c158b40	0.009127438
225	0x3d893cf3	0.06701078
226	0x3db502e1	0.0883844
227	0x3dd4a20d	0.10382471
228	0x3d8b2c20	0.067955256
229	0x3d6cca45	0.057810087
230	0x3e269bf6	0.16270432
231	0x3dc844da	0.097787574
232	0x3de0861d	0.1096308
233	0x3debbeb6	0.115109846
234	0xbdb6322d	-0.08896289
235	0x3a632e40	0.00086662546
236	0xbc18e31f	-0.009331494
237	0xbdbecdbe	-0.09316586
238	0xbd94bc1c	-0.072624415
239	0xbc815fbc	-0.01579272
240	0xbe0f1035	-0.13971026
241	0xbd89ea5b	-0.06734153
242	0xbd1bcca5	-0.03803696
243	0xbd091169	-0.03346387
244	0x3ccb6a3f	0.024830936
245	0x3d77de40	0.06051469
246	0xbd30c9f2	-0.04316134
247	0xbd04a507	-0.032383945
248	0x3c987a7a	0.018613089
249	0xbd0be847	-0.034157064
250	0xbd4587ff	-0.0482254
251	0xbb4b1fcd	-0.0030994297
252	0x3bbc4c3b	0.005746392
253	0xbcf95a10	-0.030438453
254	0xbd0a44d4	-0.033757046
255	0xbcb2d8e7	-0.021831943

conv3.bias f4 [64]
0	0x3cfc7e24	0.030821867
1	0x3d0e21d7	0.03470024
2	0x3bd8daec	0.0066178944
3	0xbbc93d2a	-0.0061413245
4	0x3c8bcd04	0.017065533
5	0xbb27466e	-0.0025524157
6	0x3c07914f	0.00827439
7	0x3cbfb584	0.023401983
8	0xbc988a15	-0.01862053
9	0x3c52247f	0.012826084
10	0x3d10d9a4	0.03536381
11	0xbb51bc54	-0.0032003121
12	0xbd19f286	-0.037584804
13	0xbc0d5f14	-0.008628625
14	0x3cb42013	0.02198795
15	0x3bcb5de5	0.0062062615
16	0xbd1136bb	-0.035452586
17	0xbc60c5cd	-0.013719034
18	0x3c0a1a5c	0.008429136
19	0x3c399b9e	0.011328606
20	0xbcb1f2f1	-0.021722289
21	0xbb5b6b10	-0.0033480562
22	0xbb9ce785	-0.0047883415
23	0xbd1409f2	-0.036142297
24	0x3c88a89a	0.016681958
25	0x3c84953b	0.01618444
26	0x3b80c111	0.0039292653
27	0x3c7e193d	0.015508947
28	0xbd029232	-0.031877704
29	0x3cee895a	0.029118229
30	0x3c1b4112	0.009475963
31	0xbca96e4f	-0.020682482
32	0x3cdea8b4	0.027180053
33	0x3ceab5c4	0.028651126
34	0x3ccf1ab9	0.025281297
35	0x3be930c1	0.0071164076
36	0x3b95c895	0.0045710304
37	0xbcb6a637	-0.022296054
38	0xbb2a1814	-0.0025954293
39	0x3b458bd2	0.0030143154
40	0x3ce363a4	0.027757473
41	0xbc9b70a5	-0.018974612
42	0xbbf87f77	-0.0075835544
43	0x3a0d9cc0	0.0005402081
44	0x3c721b26	0.0147769805
45	0xbc191746	-0.009343928
46	0xbc1f848b	-0.009736191
47	0xbc88f1cb	-0.016716858
48	0x3c996f50	0.018729836
49	0xbc82821a	-0.015931178
50	0xbc9f7dd7	-0.019469185
51	0xbce3b5fa	-0.027796734
52	0x3c3e8446	0.011628216
53	0xbbbb61c7	-0.005718443
54	0xbca7d6f7	-0.020488245
55	0x3ca9324b	0.020653864
56	0xbd28c623	-0.041204583
57	0xbc93586e	-0.017986502
58	0xbb42b95a	-0.002971253
59	0x3baddc56	0.005305807
60	0x3d09d1c8	0.03364733
61	0x3ccd15bb	0.025034776
62	0x3b086d41	0.0020817074
63	0x3d1e77b9	0.038688395

conv4.weight f4 [64, 64, 3, 3]
0	0xbd2a59be	-0.04158949
1	0xbda0f3c6	-0.07858996
2	0xbd6df5dc	-0.058095798
3	0xbd4592e7	-0.0482358
4	0xbd933999	-0.0718872
5	0xbdced222	-0.100986734
6	0xbd9ea92f	-0.07747113
7	0xbd2f27bc	-0.042762503
8	0xbdcb62b0	-0.099309325
9	0x3c97c144	0.018524773
10	0xbc74e4e3	-0.014947149
11	0xbd1215cd	-0.035665322
12	0xbd644a12	-0.0557347
13	0xbd97c05f	-0.07409739
14	0xbd0c520a	-0.034257926
15	0xbc8e2b51	-0.01735464
16	0xbd8e369e	-0.06944011
17	0xbcd7f596	-0.026362222
18	0x3d37774d	0.04479151
19	0x3cf85eda	0.030318666
20	0xbd3c4d97	-0.045972433
21	0xbbd73918	-0.0065680854
22	0xbcfdbf03	-0.03097487
23	0xbd0693a9	-0.032855663
24	0x3b53a6f7	0.0032295564
25	0x3ced903b	0.028999439
26	0x3c949e0c	0.018141769
27	0xbd2e0815	-0.042488176
28	0xbd2bdebe	-0.04196047
29	0xbd175c21	-0.036953095
30	0x3b3a5761	0.002843343
31	0xbd9f6622	-0.07783152
32	0xbd6291e3	-0.05531491
33	0xbcf31f56	-0.029678028
34	0xbdb2a7c9	-0.08723409
35	0xbdbe1415	-0.09281174
36	0x3d2ade66	0.041716002
37	0x3d6b2340	0.057406664
38	0x3c8cf3f6	0.017206173
39	0x3d44a948	0.048013
40	0x3d76c72f	0.06024855
41	0x3d1b604d	0.037933636
42	0x3d9ed149	0.07754762
43	0x3cc1c054	0.02365128
44	0x3d872333	0.065985106
45	0xbd1dee4b	-0.038557332
46	0xbcb7063c	-0.02234184
47	0xbd81c8fb	-0.06337162
48	0xbd7dc696	-0.061956964
49	0xbd8fa646	-0.07014136
50	0xbca02548	-0.019549027
51	0xbc534643	-0.01289517
52	0x3c964fc7	0.018348588
53	0xbbcb6d98	-0.006208133
54	0xbd1724b2	-0.03690023
55	0xbae9245c	-0.0017787325
56	0x3d056048	0.032562524
57	0xbbb99bad	-0.00566431
58	0xbd22f149	-0.03978089
59	0xbbf2bd0e	-0.007407791
60	0xbd1d7eb3	-0.038450908
61	0xbd4dbf08	-0.05023101
62	0xbcbd7eab	-0.023131689
63	0x3c8aaf19	0.016929196
64	0x3cb183cf	0.021669297
65	0xbd041043	-0.03224207
66	0x3c1070c6	0.00881595
67	0x3c068613	0.008210677
68	0xbd88535b	-0.06656524
69	0xbd2f9320	-0.04286492
70	0xbd355ce2	-0.044278033
71	0xbdaa0303	-0.08301356
72	0xbd107d2f	-0.035275634
73	0xbd871b10	-0.06596959
74	0x3c9422e6	0.018083047
75	0xbd8bfc2a	-0.06835206
76	0xbd18d0c6	-0.037308477
77	0xbd2a5c74	-0.041592076
78	0x3ca9ea3b	0.020741573
79	0xbcacc4c9	-0.021089928
80	0xbc44fa0c	-0.012022506
81	0xbc5510e4	-0.013004515
82	0xbcfde01f	-0.030990658
83	0xbdd42bd6	-0.103599235
84	0xbd0c210f	-0.034211215
85	0xbdac2c27	-0.08406859
86	0xbd3a0ef9	-0.045424435
87	0xbd9535d2	-0.07285656
88	0xbd88f027	-0.066864304
89	0xbd0ec4e6	-0.034855746
90	0x3d9f16bf	0.0776801
91	0x3d8f147a	0.069863275
92	0x3dcb506a	0.09927447
93	0x3d1c467b	0.038153153
94	0x3d97e67e	0.0741701
95	0x3e07cf93	0.13262777
96	0x3dfd6a7c	0.12373826
97	0x3e1630b1	0.14667012
98	0x3e18ab71	0.1490915
99	0x3c5376f9	0.012906783
100	0x3b17a7c8	0.0023140777
101	0xbc803438	-0.0156499
102	0x3c8bc384	0.017061003
103	0xbc241dbf	-0.010016858
104	0xbcddffad	-0.027099455
105	0xbd832fb9	-0.06405587
106	0xbc6de139	-0.014519029
107	0xbc6fd904	-0.014639143
108	0xbd94e124	-0.07269505
109	0xbd2f3d7c	-0.042783245
110	0xbcff89b9	-0.031193601
111	0xbd6e1e37	-0.058134284
112	0xbcfe130a	-0.031014938
113	0xbcdcdeb0	-0.026961654
114	0xbdc8e0b9	-0.098084874
115	0xbd0a61e4	-0.033784762
116	0xbdb55bde	-0.08855413
117	0x3cea06a0	0.028567612
118	0xbc6d6206	-0.014488703
119	0xbd28866c	-0.04114382
120	0x3d368e2c	0.04456918
121	0xbcc50ea4	-0.024054833
122	0x3ad15b7c	0.0015972699
123	0xbd3e3a84	-0.046442524
124	0xbd482baf	-0.048869785
125	0xbcf11d3c	-0.029432885
126	0x3e1a18f9	0.15048589
127	0x3dea8bc2	0.11452438
128	0x3dc5a63b	0.096508466
129	0x3db873ac	0.09006438
130	0x3de2763f	0.1105771
131	0x3d17df02	0.03707791
132	0x3de37630	0.11106527
133	0x3dab8e61	0.08376766
134	0x3ddf0d66	0.108912274
135	0xbc4cf14b	-0.012508701
136	0xbd1762b6	-0.036959372
137	0xbd6d3ad4	-0.05791743
138	0xbb807ea8	-0.0039213486
139	0x3c050d2c	0.008120816
140	0xbd8f5774	-0.06999102
141	0xbbc0c616	-0.0058829887
142	0xbda67be8	-0.08129102
143	0xbcfc8051	-0.030822905
144	0x3ddcbe43	0.10778477
145	0x3e065177	0.13117014
146	0x3e0cafc9	0.13738932
147	0x3db375b0	0.087626815
148	0x3dc6c7ff	0.09706115
149	0x3dd42b9c	0.1035988
150	0x3e235085	0.15948685
151	0x3e34d722	0.17660192
152	0x3dff525c	0.12466881
153	0x3c3a74da	0.011380399
154	0x3d2938f5	0.041314084
155	0x3dcf9031	0.10134924
156	0x3c16ec3c	0.009211596
157	0x3d8cf64f	0.06882917
158	0x3dc00986	0.093768165
159	0x3d30894d	0.04309969
160	0x3da15c4f	0.078789346
161	0x3e1fea73	0.15616779
162	0x3e2ad246	0.16681775
163	0x3e14e9e3	0.14542346
164	0x3e5d3c1f	0.21604966
165	0x3e14b135	0.14520724
166	0x3e4cb958	0.19992578
167	0x3e2f4b37	0.17118536
168	0x3e0a5643	0.13509469
169	0x3e369651	0.17830779
170	0x3e2dfb25	0.16990335
171	0xbde36604	-0.11103442
172	0xbe2ec7b3	-0.17068367
173	0xbde2693a	-0.110552266
174	0xbe12dad8	-0.14341295
175	0xbde8f593	-0.113749646
176	0xbdeefa62	-0.116688505
177	0xbdcfa303	-0.10138514
178	0xbde36ad4	-0.1110436
179	0xbd9da5ab	-0.07697614
180	0xbd00f5aa	-0.031484284
181	0xbd3609e6	-0.044443034
182	0xbcf5b693	-0.029994285
183	0xbe00217a	-0.1251277
184	0xbe0d375a	-0.13790646
185	0xbda31a95	-0.079640545
186	0xbe090967	-0.13382493
187	0xbdf9729e	-0.121800646
188	0xbe0793bd	-0.13239951
189	0x3d8fd039	0.07022137
190	0x3d5189fd	0.051156987
191	0x3d65fe35	0.056150634
192	0x3d657535	0.05601998
193	0x3d685eb4	0.05673094
194	0x3c879866	0.016552161
195	0x3d7ab0e8	0.061203867
196	0x3d991a0c	0.07475671
197	0x3d8545cc	0.06507453
198	0xbba46bbe	-0.0050177267
199	0xbafa3a7d	-0.0019090917
200	0xbd952f99	-0.07284469
201	0xbd62c9c2	-0.055368192
202	0xbd4a0d34	-0.049328998
203	0xbde9391f	-0.11387848
204	0xbdc4bb8a	-0.09606083
205	0xbdd53f79	-0.10412497
206	0xbddc3cd2	-0.10753788
207	0xbd26ac90	-0.040691912
208	0xbd134217	-0.0359517
209	0xbd065e8b	-0.032805007
210	0xbaca83e0	-0.0015450679
211	0xbd969387	-0.07352357
212	0xbd56ae99	-0.052412603
213	0xbdb60dd1	-0.08889354
214	0xbd07d279	-0.033159707
215	0xbd18b8c7	-0.037285592
216	0x3cb96871	0.02263281
217	0x3daaa61c	0.08332464
218	0x3d64a9f2	0.055826135
219	0x3d9aa0ea	0.07550223
220	0x3d6c2865	0.05765571
221	0x3d4358f0	0.04769224
222	0x3d498322	0.049197324
223	0x3da24b91	0.079245694
224	0x3d83a46d	0.06427846
225	0x3d697eda	0.05700574
226	0x3d7de9e8	0.06199065
227	0x3d52aa86	0.051432155
228	0x3d941ac1	0.072316654
229	0x3dbcbfe4	0.09216288
230	0x3c070c93	0.008242744
231	0x3d940627	0.07227736
232	0x3ce255dd	0.027628833
233	0x3ac49fe5	0.0015001266
234	0xbd1458b0	-0.03621739
235	0xbd9eb43c	-0.07749221
236	0xbdb15b26	-0.08659963
237	0xbd53b651	-0.051687542
238	0xbd841249	-0.064488
239	0xbd88473c	-0.06654212
240	0xbd95762d	-0.07297931
241	0xbc9a75e0	-0.018855035
242	0xbdb93268	-0.09042817
243	0x3d69cc0f	0.05707937
244	0xbcd8ebae	-0.026479568
245	0x3cbcee99	0.023062991
246	0xbc86bf44	-0.016448624
247	0x3d2309d7	0.039804306
248	0xbc6ca3fe	-0.014443396
249	0x3d2adc2a	0.04171387
250	0xbc91e342	-0.01780856
251	0x3c4f9849	0.012670585
252	0xbd84b132	-0.0647911
253	0xbd4f43e9	-0.050601874
254	0xbd66135f	-0.056170817
255	0xbde404e4	-0.11133745

conv4.bias f4 [64]
0	0xbd0e77c7	-0.034782197
1	0x3c170da9	0.009219565
2	0x3d1b95ee	0.03798478
3	0xbc3e4f38	-0.011615567
4	0xbd04ab12	-0.032389708
5	0xbce6cda1	-0.028174223
6	0x3cf70446	0.030153405
7	0x3d22fc3c	0.03979133
8	0xbd0c82a2	-0.03430427
9	0xbd288781	-0.04114485
10	0x3d282864	0.041054145
11	0xbd12f2dd	-0.035876144
12	0x3a7d024d	0.0009651527
13	0xbc2dc95b	-0.010607089
14	0xbc94ac9c	-0.018148713
15	0x3c10bd42	0.008834185
16	0x3c32ebfc	0.010920521
17	0x3d0714f2	0.03297896
18	0xbaec3c22	-0.0018023292
19	0x3c7a9a50	0.01529558
20	0x3b18fece	0.0023345235
21	0xbd095019	-0.033523653
22	0xbcd73f4e	-0.026275303
23	0x3ccd6c12	0.025075946
24	0xbd19a351	-0.037509266
25	0xbcda630f	-0.026658563
26	0xbccbb210	-0.02486518
27	0xbc0a13c1	-0.008427561
28	0x3d119d5e	0.035550468
29	0x3d1d4998	0.038400263
30	0x3c83cb81	0.01608825
31	0x3d057198	0.032579035
32	0x3ccf96eb	0.025340518
33	0x3d0bdd7e	0.03414678
34	0x3cd0791d	0.025448376
35	0x3c9ecd33	0.019384956
36	0xbd1bad77	-0.038007226
37	0x3d134826	0.035957478
38	0xbc84a684	-0.016192682
39	0x3c14e70a	0.009088287
40	0xbd175f9d	-0.03695642
41	0x3c298a60	0.010347933
42	0x3c4fc4a3	0.012681159
43	0xbd1c8fb3	-0.03822298
44	0xbc78459b	-0.015153314
45	0xbd2a6e68	-0.041609198
46	0xbcc97ee2	-0.024596635
47	0xbcaa1482	-0.020761732
48	0xbb9cf300	-0.00478971
49	0x3c89e950	0.016834885
50	0x3d135710	0.0359717
51	0x3beec1b2	0.007286274
52	0xbcb7daeb	-0.022443255
53	0xbbdeaa70	-0.00679522
54	0xbcdc500b	-0.026893636
55	0xbd0b12d3	-0.0339535
56	0x3cc8c998	0.02451019
57	0x3bbc38cb	0.005744075
58	0xbb21874d	-0.0024647296
59	0xbcd414e8	-0.025888875
60	0x3cc7d107	0.024391664
61	0xbce7e224	-0.028306074
62	0x3cb6bd4d	0.022307063
63	0xbcb83c6a	-0.022489745

linear.weight f4 [5, 64]
0	0xbf73d8d9	-0.9525276
1	0xbf8d3d5d	-1.1034352
2	0xbf43ee64	-0.7653563
3	0x3eb9ea04	0.36311352
4	0xbf8c29c8	-1.0950251
5	0xbefff4f0	-0.4999156
6	0xbe3835f7	-0.17989336
7	0xbe9080f0	-0.28223372
8	0xbe2a8768	-0.16653216
9	0xbe9c45f2	-0.30522114
10	0xbe91d01a	-0.2847908
11	0x3da92d3a	0.082605794
12	0xbf637915	-0.8885663
13	0x3f85ad98	1.0443602
14	0xbe273764	-0.16329724
15	0xbe867be2	-0.2626639
16	0xbe8414d5	-0.25797144
17	0x3fa32bbc	1.2747722
18	0x3e19c61a	0.15016976
19	0x3f639edb	0.8891427
20	0xbf0a3a27	-0.53994983
21	0xbf68d8a8	-0.9095559
22	0x3eaa7fee	0.33300728
23	0xbfa68a2f	-1.301092
24	0xbde9c609	-0.11414725
25	0xbf1ece3b	-0.6203343
26	0xbf2ded06	-0.67939794
27	0xbe4fe0c1	-0.2030058
28	0xbbf8ee5c	-0.007596774
29	0x3cfb061e	0.030642565
30	0xbe90098c	-0.28132284
31	0xbf4d346d	-0.8015812
32	0x3e3696d5	0.17830975
33	0xbecdda7b	-0.4020575
34	0xbe97ca26	-0.29646415
35	0xbccf3700	-0.02529478
36	0x3f622bd6	0.8834814
37	0xbe4a0c3e	-0.19731233
38	0xbebd2891	-0.36945012
39	0x3f248811	0.6427012
40	0xbed18595	-0.40922228
41	0xbe312836	-0.17300496
42	0xbf11e13f	-0.56984323
43	0x3fc82560	1.5636406
44	0xbeb9b214	-0.36268675
45	0x3ef0ed9d	0.47056285
46	0xbf1d5830	-0.6146269
47	0x3c85b008	0.01631929
48	0xbf128ddc	-0.5724771
49	0x3fe4d526	1.7877548
50	0xbe9395cc	-0.28825223
51	0xbf0c5437	-0.54816
52	0xbe85baeb	-0.2611917
53	0xbe2e62f2	-0.17029932
54	0xbf9bde14	-1.2177148
55	0x3f2f2e2f	0.68429846
56	0xbf1ef22d	-0.6208828
57	0xbf28bf6b	-0.6591708
58	0xbf4c0a12	-0.79702866
59	0xbea466b0	-0.32109594
60	0xbecc1467	-0.39859316
61	0x3fb8dc3a	1.4442208
62	0x3e80d4b5	0.25162283
63	0xbf63942d	-0.88897973
64	0xbd42ff8c	-0.04760699
65	0x3f9fa07f	1.2470855
66	0xbe845a0e	-0.25849956
67	0xbf0a0ca7	-0.53925556
68	0x3d580885	0.0527425
69	0xbead779a	-0.3388031
70	0x3f75599f	0.95839876
71	0xbe119d64	-0.14220196
72	0xbfadf269	-1.3589603
73	0x3f3c3116	0.735124
74	0xbf1bc0cc	-0.6084106
75	0x3f0aa41c	0.5415666
76	0x3ef39803	0.47576913
77	0x3f0bf874	0.54675984
78	0x3d8ec048	0.069702685
79	0xbecbccba	-0.3980463
80	0x3e0990a1	0.13434078
81	0xbf7e05bf	-0.9922752
82	0xbf39e25a	-0.7261101
83	0xbf373bfb	-0.715759
84	0xbf8da997	-1.106738
85	0x3f401abc	0.75040793
86	0xbd0bca14	-0.034128264
87	0xbe9a03ed	-0.3008112
88	0xbf428aa3	-0.7599279
89	0x3d2abfc4	0.04168679
90	0xbf2c55e7	-0.67318577
91	0xbe031ace	-0.12803194
92	0xbdf3b7ec	-0.11900315
93	0x3fdf7cd5	1.7459971
94	0xbde92920	-0.11384797
95	0x3dfb68c0	0.12275839
96	0xbf960f95	-1.1723505
97	0x3cc58130	0.024109453
98	0xbf0453f8	-0.51690626
99	0x3e8a6c30	0.27035666
100	0x3e607af1	0.21921898
101	0x3f42f162	0.7614957
102	0xbf310e39	-0.6916233
103	0x3eb53c34	0.35397494
104	0xbe69b9a2	-0.2282472
105	0x3e34acb6	0.17644009
106	0xbf5c760d	-0.8611763
107	0xbfd1b562	-1.6383479
108	0xbcc96e0c	-0.024588607
109	0x3f3b8c2e	0.7326077
110	0xbea8cb64	-0.32967675
111	0x3f119f4b	0.56883687
112	0xbf0cd4a9	-0.55011994
113	0xbf659c16	-0.89691293
114	0x3eca0108	0.39453912
115	0x3f81ae90	1.0131397
116	0x3f4142c4	0.754925
117	0x3e1bd188	0.15216649
118	0x3e85b8b2	0.26117474
119	0xbeacd027	-0.33752558
120	0xbf352a06	-0.7076725
121	0x3d11c721	0.035590295
122	0xbf261be5	-0.64886314
123	0xbf938ef5	-1.1528002
124	0x3f1f2304	0.62162805
125	0xbf480ec2	-0.7814752
126	0xbf7bc0c0	-0.9834099
127	0xbe05dc45	-0.13072307
128	0xbd36596f	-0.044518884
129	0x3ece92a8	0.40346265
130	0xbf71711b	-0.9431321
131	0xbebd2893	-0.36945018
132	0x3eb4b3c3	0.35293397
133	0x3fc4e34a	1.5381863
134	0xbccab044	-0.024742253
135	0xbc80244a	-0.015642304
136	0x3ec97498	0.39346766
137	0xbf09f170	-0.5388403
138	0xbc9e4fd0	-0.019325167
139	0xbf3e4416	-0.7432264
140	0x3f6aa2ba	0.9165455
141	0xbfc879d3	-1.5662178
142	0xbcfa6b9b	-0.030568888
143	0xbeda8e0e	-0.42686504
144	0x3cec7456	0.028864067
145	0x3f764e48	0.962132
146	0xbeb681af	-0.35645816
147	0x3f0825d3	0.53182715
148	0xbe843d50	-0.25828028
149	0xbeedf45a	-0.46475488
150	0xbd956fd4	-0.0729672
151	0xbd48b387	-0.048999336
152	0x3f948a0f	1.1604632
153	0x3edc1f0a	0.4299243
154	0x3fb21080	1.3911285
155	0x3e942ca6	0.28940314
156	0xbdde6ec8	-0.108609736
157	0xbf53a6ec	-0.8267658
158	0xbeb20fd9	-0.34777716
159	0xbf52cc6e	-0.82343185
160	0xbe368b4a	-0.17826572
161	0x3ebd97ce	0.3702988
162	0xbfa11f4a	-1.2587674
163	0xbe987e94	-0.2978407
164	0x3ddb5848	0.10710198
165	0xbf99f558	-1.2027998
166	0x3fd28d9e	1.6449468
167	0xbfc5e04b	-1.5459074
168	0xbda4a730	-0.08039701
169	0xbe44b0a3	-0.19208007
170	0xbf07abd2	-0.5299655
171	0xbf1bb529	-0.60823303
172	0xbe8e3026	-0.2777111
173	0xbfba6bd8	-1.4564161
174	0x3df37d91	0.11889184
175	0xbf6f649e	-0.93512905
176	0xbed66798	-0.4187591
177	0xbf6ecc76	-0.9328073
178	0xbfd3a019	-1.6533233
179	0xbf250975	-0.64467555
180	0xbc960a52	-0.018315468
181	0xbf09f8f8	-0.5389552
182	0x3ebb1678	0.3654058
183	0xbf8ca545	-1.0987936
184	0xbe17d41b	-0.14827006
185	0xbdb80917	-0.08986109
186	0x3e9e2808	0.30889916
187	0xbdc646ab	-0.096814476
188	0x3d823ba2	0.0635903
189	0xbf1003ae	-0.56255615
190	0xbe4e2804	-0.20132452
191	0xbf177d12	-0.5917522
192	0xbf2ec100	-0.68263245
193	0xbedd3452	-0.4320398
194	0x3f291888	0.66053057
195	0xbe2be661	-0.16787101
196	0x3f17caa5	0.59293586
197	0xbfa06c0a	-1.2532971
198	0xbf15c5b7	-0.58504814
199	0x3e9c7dea	0.30564815
200	0xbd8d26c4	-0.068921596
201	0xbfaba36a	-1.3409245
202	0xbc8c8e36	-0.017157655
203	0xbe0d6290	-0.1380713
204	0xbf981247	-1.1880578
205	0xbf33e536	-0.70271623
206	0x3d98815d	0.07446549
207	0x39436630	0.00018634717
208	0xbf0d2909	-0.5514074
209	0xbf2cfd13	-0.6757366
210	0xbde52d2c	-0.111902565
211	0xbf76f0ef	-0.96461385
212	0xbdbc957f	-0.092082016
213	0x3e20eb9e	0.15714881
214	0xbf5c252c	-0.8599422
215	0x3f286bc5	0.65789443
216	0xbf37ebf2	-0.718444
217	0xbfa9cc04	-1.3265386
218	0xbf358718	-0.7090926
219	0x3e02d723	0.1277738
220	0xbf4c7c2d	-0.7987698
221	0xbf8fda3f	-1.1238478
222	0xbf1b20be	-0.60596836
223	0x3e4d3eee	0.20043537
224	0x3ed2ec43	0.41195878
225	0xbf0b21b4	-0.543483
226	0x400701ce	2.1094851
227	0xbf980f97	-1.1879758
228	0xbfcea802	-1.6145022
229	0x3e55f9f4	0.20896131
230	0xbec96dba	-0.39341527
231	0xbea7c0e7	-0.3276436
232	0xbe81b4b4	-0.25333178
233	0x3f79eaeb	0.9762408
234	0x3ea0e253	0.31422672
235	0x3e32e023	0.17468314
236	0xbef8c532	-0.48587948
237	0xbed82112	-0.4221273
238	0xbe546d6a	-0.20744863
239	0xbf267118	-0.6501632
240	0x3f3d83cc	0.7402923
241	0xbe0d87f6	-0.13821396
242	0x3e76c512	0.24098614
243	0xbf1264dc	-0.5718515
244	0xbe8ea940	-0.27863503
245	0x3e461d65	0.1934715
246	0xbd9ed084	-0.07754615
247	0xbf05782b	-0.52136487
248	0xbc88efdb	-0.016715935
249	0xbf2d08db	-0.6759164
250	0x3fa312ba	1.274009
251	0xbe2acf97	-0.16680752
252	0xbf0e2467	-0.55524296
253	0x3f4857e8	0.78259134
254	0xbf98951c	-1.1920505
255	0xbddae652	-0.10688461

linear.bias f4 [5]
0	0x3ea841d4	0.32862723
1	0xbf90fb2a	-1.1326649
2	0x3eb8d728	0.3610165
3	0x3ddb066c	0.10694584
4	0x3e5020b5	0.20324977
