MAMLExperiments/src/trained_models/finetuned_model.pth (torch, 449799 bytes, 10 tensors)

conv1.weight f4 [64, 1, 3, 3]
00000000: 5151 26bf 30f9 e43e 220b d93e c6b3 4fbf
00000010: c818 233e d802 c93e 94f2 4dbf 638e 79bf
00000020: 0b57 92bf 649b 5b3f 0910 83bf f941 1abf
00000030: 06f8 b83e 9b6e 80bf aaeb dcbe 18f9 503e
00000040: 7485 16be b748 393f ac36 f43d bcae 70be
00000050: cc6c e63d 4cce 393e 7f4d ecbe a601 2f3e
00000060: dad0 09bf 3c4d a8bf 4b45 ce3f 1354 8c3f
00000070: 9bea 86be b07b b4bf caa3 b03e 5b50 d83d
00000080: 8c02 0cbf 6d1c 62bf 8e3d 0f3e 3b12 713f
00000090: 389b cf3c c97a 0fbe 7093 abbd 39ac 9cbe
000000a0: 388f 9abf 9bbe 1cbd 5f23 0040 b94d 59bf
000000b0: 4d01 ff3e fa31 303f 63ab 8ebf 5895 adbf
000000c0: 5a1e 143f 2451 6e3f 6c0c 39be 3af8 f4be
000000d0: 1148 c1be df17 773f fc56 b33b b6bc 01bf
000000e0: 3823 ccbe 2e92 d4be d331 42bf 4e0f eebe
000000f0: 23fe 803f 07fe f8be 4023 28be 31ea e63f
00000100: 0121 28bf b2df 903f 766d b4bf 51d6 0fbf
00000110: 4bbb c9be b0f3 cd3f 096a 8fbe e1d7 183f
00000120: f90c 1dbf fb08 99be 02d0 06bf 47de 5cbf
00000130: dfd6 bcbd 28d3 8abc e8b6 45bf 5967 f33d
00000140: 304f 4d3f b652 04bf 82b3 78be 900d 0c3f
00000150: 89d4 5bbe c997 3ebf 7c2c d9be 7ed4 a13e
00000160: 0966 cdbc 4496 31bf f658 dd3e d195 56be
00000170: 1a87 84bf 000d d03d ac95 8d3d faeb a5bf
00000180: bdef b9be 31a1 8f3f 5da9 6ebe 7137 7abf
00000190: 0b80 52bf 17b9 66bf e760 003e ba66 d93d
000001a0: 9a62 d3bc b74c 863e 2aff 843a ca29 b83e
000001b0: 2266 633f f608 dd3a a4b7 13bf 0725 f9be
000001c0: 5ca8 bebe 31da 40bf 8c74 18bf ec24 e4be
000001d0: 6572 5ebd 4ba4 723f 9385 bebc a254 82bf
000001e0: c8c5 953e 5eca 5bbe b75d 5abf 8cab e0be
000001f0: a375 86be 7f4a 80bf d236 783f 8830 97be
00000200: 9fb9 62be 9dde 5bbe dc8f 0ebf 5160 0dbf
00000210: e127 40bf 5811 14bf 1a10 01bf 8ff7 babe
00000220: e482 34bf 24de 2fbe 8d10 63bf 9bc0 1fbd
00000230: a5a2 d73e 0d98 5fbf 249d 103d e3dc fe3e
00000240: ec06 c6be 60b4 923e 73c0 a1be ab30 5e3e
00000250: 04ff e7be cf9e 78bf d101 a3be 2552 1fbd
00000260: a70c a33f 723e 8dbf b969 82bc 9612 223e
00000270: d019 83bf 4044 f238 2511 043d c3a8 96bf
00000280: 8683 f03d f158 fa3e 3912 a8bf 53cd 00bf
00000290: 0bc2 47be 325b 473d 8b28 e93e 5c34 cfbe
000002a0: 91e9 7f3f 2c2d dd3d 4aa0 60bf 88a8 fbbe
000002b0: 4d8b 10bf 958e f8be 5da3 38bf 2b3a 07bf
000002c0: 9a10 0bbf df87 b83e 87aa 1c3f dea9 933e
000002d0: eb36 a1bf fd05 d43d ec52 413d 1d3b 273e
000002e0: 943f a13e fca0 5cbf a744 2f3f 3273 1dbf
000002f0: aa48 fb3d 56a3 29bf 3e50 9fbe c240 3c3f
00000300: 4acb 4abf bf65 0abf 7713 923e 251b 7abf
00000310: 6adf 2dbe e994 ee3e d845 9c3f ac15 1cbf
00000320: 8243 99bf b204 af3e f623 edbe 8ba3 243e
00000330: c070 cabe 1636 cdbe b381 103f 7728 12bd
00000340: 951a bebe 04f6 4abf 983f 29bf 95e6 6ebe
00000350: 004c 0c37 5991 0fbf 1909 603e 45fe 243f
00000360: 5508 d63f b0aa c53e 4d9a 7d3f a35e 80bf
00000370: 4013 59bf d5d0 25bf 133a 0bbf 7eda d43d
00000380: 65a9 043f d2c4 513e 949b 7e3e 1d29 f1be
00000390: 22c6 4dbe 201d 343f ece7 c13b 5ab3 dabf
000003a0: 4696 953e 3191 6f3f d206 c73f e423 0fbf
000003b0: 5360 ec3e 969c ffbf 7dfb 51bf 1e3f 263e
000003c0: d5e0 d23f e144 0bbc be38 c1bc aeee d0be
000003d0: 3283 2cbf db13 363e dc63 27bd 40ec 31bf
000003e0: 30d6 273e 526a 0f3e 4fca 68bf 7514 953e
000003f0: 8450 96be 55e2 a7bd 0ae8 743f 75c0 cc3e
-0.6496783 0.44721365 0.42391306 -0.8113369 0.15927422 0.39259982 -0.8044827 -0.9748289
-1.1432813 0.8578398 -1.0239269 -0.60256916 0.36126727 -1.0033754 -0.43148547 0.20407522
-0.14699346 0.7237658 0.1192449 -0.23504156 0.1125122 0.18145102 -0.46152875 0.17090473
-0.5383431 -1.314857 1.6114897 1.0963157 -0.26350865 -1.4100246 0.3449996 0.105622016
-0.54691386 -0.88324624 0.13988325 0.9416844 0.025342569 -0.14011683 -0.08377731 -0.30600145
-1.2074957 -0.038267713 2.0021589 -0.8488422 0.4980568 0.6882626 -1.1146053 -1.3561201
0.5785881 0.9309256 -0.18071145 -0.47845632 -0.37750295 0.965208 0.005473016 -0.50678575
-0.3987062 -0.41517776 -0.75857276 -0.46496052 1.0077556 -0.48631307 -0.16419697 1.804022
-0.6567536 1.1318266 -1.4095905 -0.56186396 -0.39400706 1.6089993 -0.28010586 0.59704405
-0.6134792 -0.29889664 -0.52661145 -0.8627667 -0.09220671 -0.01694639 -0.7723222 0.118849464
0.80198956 -0.51688707 -0.24287227 0.54708195 -0.21467794 -0.74450356 -0.4241675 0.3160743
-0.025073068 -0.6936991 0.43231934 -0.20955588 -1.035373 0.101587296 0.06913313 -1.2962639
-0.36315718 1.1221067 -0.23306794 -0.97740847 -0.8222663 -0.90126175 0.12536965 0.10615297
-0.025803853 0.26230404 0.0010146846 0.35969383 0.8882772 0.0016863632 -0.5770209 -0.48661062
-0.37237823 -0.75332934 -0.59552836 -0.4455942 -0.054308314 0.9478194 -0.023257053 -1.0182078
0.29252458 -0.21463916 -0.8529925 -0.4388088 -0.26261625 -1.0022734 0.9695865 -0.29529214
-0.22141121 -0.21471639 -0.5568826 -0.5522509 -0.7506085 -0.57838964 -0.50415194 -0.36516997
-0.70512223 -0.17174584 -0.8869713 -0.039002042 0.42116275 -0.87341386 0.03530611 0.49777898
-0.38677156 0.2865324 -0.3159214 0.21698253 -0.4531175 -0.9711732 -0.31837323 -0.0388967
1.2738236 -1.1034682 -0.015919553 0.15827402 -1.0242252 0.00011552172 0.032242913 -1.1770252
0.11743836 0.48895982 -1.3130561 -0.503133 -0.19507615 0.048670955 0.45538744 -0.40469635
0.9996577 0.107996315 -0.8774458 -0.49152017 -0.56462556 -0.4854628 -0.7212427 -0.5282313
-0.54322207 0.3604116 0.61197704 0.28840536 -1.2594885 0.10352705 0.04719822 0.16331144
0.3149382 -0.8618314 0.6846413 -0.615039 0.12269719 -0.66264856 -0.31115907 0.7353631
-0.79216444 -0.540615 0.28530475 -0.9769767 -0.16979757 0.46597984 1.2208815 -0.6097057
-1.1973727 0.3418327 -0.463165 0.16078012 -0.39539146 -0.40080327 0.56447905 -0.03568312
-0.37129655 -0.7928164 -0.6611266 -0.23330148 8.362345e-06 -0.5608116 0.2187847 0.64450485
1.6721293 0.38606787 0.9906357 -1.0028881 -0.84795 -0.6477178 -0.5438549 0.103932366
0.51820976 0.20485237 0.24864036 -0.4710168 -0.20095113 0.7035694 0.00591754 -1.7085984
0.29216212 0.9358092 1.5548956 -0.5591414 0.4616724 -1.9969661 -0.82024366 0.16235015
1.6474863 -0.008500309 -0.023586627 -0.40807098 -0.6738769 0.17781012 -0.040866718 -0.69501114
0.163903 0.14005402 -0.909337 0.2911717 -0.29358304 -0.08197466 0.95666564 0.39990583

conv1.bias f4 [64]
00000000: 5a8c 4c3e 08ea a73e b054 9dbe 8e51 2fbd
00000010: d3bc e4bb d35a 20be 67cf 443e 27fa ad3d
00000020: e57c 86be 866c 98be 8bef 593d c341 693c
00000030: caa5 a93d 9653 493e 2164 463e 0e3a 9d3d
00000040: 33aa 963e 866f 5bbc 6bc9 f3bd 5cb6 8e3e
00000050: 9ad0 1e3e 2ade 68be 29c9 92be 1773 7f3e
00000060: 50b6 8c3e bdd6 2dbe 447f 71be 1905 ee3b
00000070: 7a2f 36be da51 983e 36e3 de3d 60f3 77be
00000080: 2029 93be 315e 843e 9339 983e 2c3e d23c
00000090: 6617 0a3e bbf3 95be dfde 8a3e ef57 2dbe
000000a0: bca3 943e 450a 62bd 8f6f 87be 927f 8ebe
000000b0: c8fb 743e 9102 053d c529 7ebe cb3f 053e
000000c0: 089b 823e 7f14 77be fe1c a03d aa04 733e
000000d0: d77f 963d 08c2 463d af4f 233e 09d5 273d
000000e0: 30e0 113e acd6 d13d 344d a2be 3d64 9abe
000000f0: 54de 6b3e de06 a53e e856 233c ceba 93be
0.19975415 0.3279574 -0.30728674 -0.042802386 -0.0069805174 -0.15659647 0.19219743 0.084949784
-0.26267162 -0.29770297 0.05320696 0.01423687 0.08283575 0.19660792 0.19374134 0.07677089
0.29426727 -0.0133932885 -0.11903652 0.27873504 0.15509263 -0.22740999 -0.28669098 0.24946247
0.27482843 -0.16976447 -0.23583704 0.0072637913 -0.17791548 0.29749948 0.10883181 -0.24213934
-0.28742313 0.25853112 0.29731426 0.025664411 0.13485488 -0.29287514 0.27123162 -0.16928075
0.2903117 -0.055185575 -0.264523 -0.27831703 0.23924172 0.03247315 -0.24820621 0.13012616
0.25508904 -0.24128912 0.0781803 0.23732248 0.07348602 0.048524886 0.15948366 0.04097465
0.14245677 0.102460235 -0.31699526 -0.301546 0.2303403 0.32231802 0.0099694505 -0.28853458

conv2.weight f4 [64, 64, 3, 3]
00000000: 1f0a af3c 85f0 80ba befe 0cbb 2ee0 d13c
00000010: f743 0ebd 65ac 2fbd 0db3 d5bd b3f0 94bc
00000020: 4507 adbd efe4 f1bd d314 6abd 0900 bf3d
00000030: 4626 803d a7b4 723d 8b6e 243e 4e77 153e
00000040: bc77 e93d 4354 f03d 8491 a6bd 2dec cdbd
00000050: 92bd 523e 4664 94bd c6a5 8dba e278 623e
00000060: 49a2 b03c 87d9 dcbc 2044 583e 72ec 0dbe
00000070: 1714 babd 1f65 d0bc 407c 02be b7b1 6bbc
00000080: ba59 283c ccd1 c5bd 487e 36bd 819f bcbd
00000090: 9e0e 02be e7a0 2fbe 8bec 093c 6e9f e13c
000000a0: 8638 d43c d82e 083e 101c 1b3e dd6c 033e
000000b0: f86e 733e 795f 82bd 6792 b2bd c525 c1bc
000000c0: 1aba c4bd 6d96 87bd 524c 16bc 0db6 83bd
000000d0: 87ef 12bd fcf2 0ebd f1f3 f4bc c6b0 99bd
000000e0: 3a31 c73d 994f 963d 7c78 8f3d 6a5b 133e
000000f0: 6ccb b83d 6ac1 833d 1939 823d 6e56 52be
00000100: 88ad 35be 4c94 dfbd f8b1 e6bd 844d b9bd
00000110: 2fd0 19bd 0fbd 20bd 5b62 99bd ca6b bc3c
00000120: e7ab e5bc c868 07bd 3d96 7b3d 22ee fabc
00000130: 188d 093d 791f 143e 602c 0f3d 4663 833d
00000140: cf67 1e3e 4181 3d3d 12dc 6fbc d37f 76bc
00000150: 1cf4 303d 81d8 f33c 7aca a0bd d3ad 893c
00000160: 0b6b 7d3c e98c 0cbe 402c 81bd c33c 353d
00000170: 562d 4b3d e5a0 693d cafa 3ebc 0574 083d
00000180: f5e1 ef3c fc31 e7bc 688e 2c3c 3ad2 debc
00000190: b783 1bbd 41f3 95bb 228d b03c 14b3 033d
000001a0: a8b5 983d 8cc5 843d 472c b53c 394f 0b3d
000001b0: a3f9 2bbc 40af a1bc 42b1 a33c a44f debc
000001c0: c470 4ebc fec9 2dbc 28b7 9abd a0e6 18bd
000001d0: ddd9 58bd 0a08 17be 4d9e ebbc 5d3f b33c
000001e0: f318 b3bd c919 09bd c32a 543d d9bf 0dbd
000001f0: 8bb0 edbc adb6 263d a0c6 53bd d631 09bc
00000200: e070 babc 46ef 66bd c8e4 31bd a30a 9abd
00000210: 1ecd 76bc 1616 d6bc be28 b9bd c18b 5b3c
00000220: c0ed b6bc 9477 883d 78f2 193d 434b 473d
00000230: f967 3e3d 7e6f 16bd b84b 1a3d ad4e 5a3d
00000240: 7a41 d63b b651 5a3c 7609 4c3d 3efe 013d
00000250: 32ab 0dbc 4a33 d93c 47c8 d9bc 0356 8ebc
00000260: a6cd 8abd e9a6 3c3d 552b 72bd 0784 2b3d
00000270: 1c34 f83d 62ff 153d 9322 113e 10c3 b43d
00000280: ef9d 6d3c ec21 683e 481b debd 5eaf 06be
00000290: 13c1 b3bd 863b 9fbb 5e32 c1bd a2af 03be
000002a0: bc17 d43d 81b1 593d 7997 2fbd 9e7a 73bd
000002b0: 0177 38bd a9db eabc 23b5 8a3d f2e4 063e
000002c0: 3659 c53d 7c84 033d a5d7 d63c 7097 113d
000002d0: 8730 143d d071 26bb df61 89bd 78c2 d4bb
000002e0: 0714 47bd 2cac c3bd 30c1 19bd fb9c a4bd
000002f0: adf1 c5bd efbc 6c3c 548a bfbd 4414 353d
00000300: a727 3ebd 786e c3bb d215 083e f760 bbbd
00000310: aa9f 9fbd 21f5 363e f3d0 06be 38af d4b9
00000320: f671 b53d 9b76 adbd 096b a33c 23ea 0b3e
00000330: 218f 53bc 26c0 bb3d 3444 133d 742c f7bc
00000340: 5d25 93bc b288 abbb cf93 10bd 4c9a 3dbb
00000350: f137 b03d fdbc 04bd 8451 733c 8c11 913c
00000360: 8c58 1abe 05aa d1bd 0a5f 6e3c 64ff e4bd
00000370: 18d0 81bd 3235 3fbd 8f67 b1bd bc26 b3bd
00000380: 426c b7bd 50e5 d7bd e715 c5bd af7b d03c
00000390: fe65 0fbe 2db8 e9bd 80ad a23d a24e 16be
000003a0: a662 2cbe cf32 d53b 83b0 44be 3d59 f4bd
000003b0: a64e a3bd ec71 b9bd 77e1 ddbc 03cd 4a3d
000003c0: 35a6 d33c 9645 993d 3864 053c cb9f 543a
000003d0: ef7e 613d 4ee0 8f3d 7667 46bd b7b1 ce3c
000003e0: 7ee8 ea3d 685f abbb 2099 b23c 994c ba3d
000003f0: 8f94 78bd 8a9a e7bd 305c f03d b6ba e4bc
0.02136713 -0.0009837305 -0.0021514143 0.025619593 -0.034732785 -0.042889018 -0.10434542 -0.01818118
-0.08448652 -0.11811244 -0.057148766 0.093261786 0.062573 0.059254315 0.16057794 0.14596292
0.11399791 0.11734822 -0.08133224 -0.100548126 0.20580128 -0.07245688 -0.0010806851 0.22116426
0.021561759 -0.026959194 0.21119738 -0.13859728 -0.09085863 -0.025438843 -0.1274271 -0.014385632
0.010275299 -0.09659156 -0.044554025 -0.092101105 -0.12700889 -0.17151223 0.008418213 0.027541842
0.025905859 0.1329912 0.15147424 0.12834497 0.237728 -0.06365866 -0.0871933 -0.02357758
-0.096058086 -0.06620488 -0.00917347 -0.06431208 -0.035872962 -0.034899697 -0.029901477 -0.0750442
0.09726186 0.07339401 0.070054024 0.1439034 0.09023175 0.06433375 0.06358547 -0.20540783
-0.17741978 -0.10916957 -0.112644136 -0.09047988 -0.037552055 -0.0392428 -0.07489463 0.023000617
-0.028036071 -0.03305891 0.061422575 -0.030631129 0.033581823 0.14465131 0.03495443 0.06415419
0.15469287 0.046265844 -0.014639871 -0.015045124 0.04320155 0.029766323 -0.07851119 0.016806519
0.015467416 -0.13725628 -0.06307268 0.0442474 0.049603783 0.057038207 -0.011656472 0.03331377
0.02928255 -0.028222077 0.010531999 -0.027199853 -0.03796741 -0.0045761173 0.021551672 0.032153204
0.07456523 0.064829916 0.02211584 0.0340111 -0.01049653 -0.019736886 0.019981984 -0.027137585
-0.012600128 -0.010607241 -0.075544655 -0.037329316 -0.052942146 -0.1474916 -0.028762007 0.0218808
-0.08744993 -0.033471856 0.051798593 -0.03460679 -0.029014846 0.040701557 -0.051703095 -0.008373698
-0.022758901 -0.056380533 -0.043431073 -0.0752156 -0.015063552 -0.026133578 -0.09040974 0.013400019
-0.022330165 0.06663433 0.03758475 0.04865576 0.046485875 -0.03672742 0.037669867 0.053297687
0.006538567 0.0133251455 0.04981371 0.031736605 -0.008646773 0.026513714 -0.026584757 -0.017374998
-0.067775056 0.046057615 -0.059123356 0.041873958 0.12119314 0.036620505 0.14173345 0.08826268
0.014502986 0.2266919 -0.10845047 -0.13152835 -0.0877706 -0.0048593907 -0.09433435 -0.12859967
0.103560895 0.053147797 -0.042869065 -0.05944311 -0.045035366 -0.028669195 0.0677283 0.13173273
0.09636156 0.03210877 0.026225874 0.035544813 0.03617909 -0.0025397427 -0.067081206 -0.006492909
-0.048603084 -0.095543236 -0.037537754 -0.08037754 -0.096652366 0.014449342 -0.09352556 0.04420878
-0.046424534 -0.0059640966 0.13289574 -0.09149354 -0.077941254 0.17866947 -0.13165645 -0.0004056634
0.08859627 -0.08469888 0.0199485 0.13663535 -0.012912543 0.09167509 0.035953715 -0.030172564
-0.017962152 -0.005234801 -0.03529721 -0.002893108 0.0860442 -0.032406796 0.014850978 0.017708562
-0.1507284 -0.10237507 0.014549026 -0.111815244 -0.06338519 -0.04668159 -0.0866233 -0.08747622
-0.089561954 -0.10541785 -0.09623318 0.025449602 -0.1400375 -0.11412082 0.07943249 -0.14678434
-0.16834506 0.006506301 -0.19207959 -0.11931083 -0.079739854 -0.09054932 -0.02708505 0.04951192
0.02583609 0.074839756 0.00814157 0.0008110969 0.055052694 0.070252046 -0.04843851 0.025231225
0.114701256 -0.005229879 0.021801531 0.09096641 -0.06068855 -0.11308773 0.11736333 -0.027921062

conv2.bias f4 [64]
00000000: e460 123d b13d c53c 928e d5ba 6aed aabb
00000010: 530b 313c 4c63 cd3b 6326 e13a f921 1fbd
00000020: 9872 583c 1b48 6b3c f821 10bd 66c8 0a3c
00000030: 8d41 ca3c 8f92 ee3c 46c5 1e3b cd60 363b
00000040: 0adf 0b3d e553 fd3b 02c7 1a3d d257 38bc
00000050: 9bdb b33c a2b8 b5bc 7eb8 f73c 972a 913c
00000060: a48f 5c3c e00f d83b 5ba1 33bb f8eb 0cbd
00000070: e160 b93b 5226 083d aefa 973c f64b d9ba
00000080: 8de5 f8bc b698 063d a40e cabc 87f8 f73a
00000090: df31 94bb 99d7 dfbc 6ab2 87bb d70e 02bd
000000a0: c25e dc3b 052d 1c3d e38d 11bb dd61 bb3a
000000b0: 0a78 cfbc 46b0 6cbc 37ec ec3c d0e8 33bb
000000c0: 50de 193c 1589 5e3c 3dd1 08bd 4cb9 1d3c
000000d0: d6c8 61ba 06b4 fd3c 7a03 bcbc 5213 38bc
000000e0: 0b5e 2fbc 13cd 6e3c f620 f3bc d284 223c
000000f0: a5f2 22bd cbf9 2b3c 2455 18bd 4cee eabc
0.035736933 0.024077268 -0.00162931 -0.0052162902 0.010805923 0.0062679406 0.0017177578 -0.03885076
0.013210915 0.014360453 -0.035188645 0.00847063 0.02468946 0.029122619 0.002422647 0.0027828694
0.034148254 0.0077309483 0.037787445 -0.011251407 0.021955302 -0.022182766 0.03023934 0.017720504
0.013461981 0.0065936893 -0.0027409408 -0.034404725 0.005657301 0.03323967 0.01855215 -0.0016578424
-0.030382896 0.03286048 -0.024665184 0.0018918671 -0.0045225467 -0.027324485 -0.0041411417 -0.031752434
0.006725163 0.03812887 -0.0022209815 0.0014296133 -0.025325794 -0.014446324 0.02892123 -0.0027452
0.009391382 0.013582488 -0.03340267 0.009626698 -0.0008612996 0.03096963 -0.022950877 -0.011235075
-0.010703574 0.014575261 -0.029678803 0.009919362 -0.039782185 0.010496567 -0.03719057 -0.028678082

conv3.weight f4 [64, 64, 3, 3]
00000000: b3db c53d c213 f23d 667d 0b3e b6f2 0a3e
00000010: e479 a93d 6ea5 2c3e 2d5a 333d cd65 d23d
00000020: 5836 493e 0531 543e 1bf7 493e caa5 8a3e
00000030: 4897 163e 1526 063e 4a07 0a3e 3205 093e
00000040: 641e 183e b213 ef3d 9bd8 1dbe cbab 43be
00000050: 76ed 90be 25bc ccbd 4451 abbd 71f9 b7bd
00000060: 26c6 61bd 5475 9ebd 0122 9bbd 39b0 25bd
00000070: fc46 03bd b84f f93d 7b93 c6bc 4f0e 3c3c
00000080: a231 9a3d 5521 c53b 211a 983d e138 c53d
00000090: f1e1 3bbe 9571 bdbd ab12 24be fea0 41be
000000a0: 97ad 1cbe 42cc 2fbe 720a 85bd 57d7 54be
000000b0: 3c37 4cbe 30c7 7dbd fc68 0e3c c201 c2ba
000000c0: 1d75 7d3d b56f 233c 1699 863d 3508 a63c
000000d0: 9879 2a3d f2ad 153d 1419 f9bd 3ef1 4fbe
000000e0: 08e5 85be f770 a23d 3750 683d 2233 1cbd
000000f0: d515 173e 5a6d 193e 947b 2d3d 64f3 aebe
00000100: 39f9 bebe 0c5b babe 2cc6 a4bd f21a 20be
00000110: 1d3c 3bbe 4db4 743d f7ee 1e3b 4baf ac3c
00000120: 6079 a63d ef24 c53d e34b 053e 15ce bf3d
00000130: f09f 753c 698a f13d 4b03 b73d 4c58 a93d
00000140: 20d5 893d 8358 97bc 8b35 53bd 86dc 9fbd
00000150: be21 01bd d269 c9bd 6a09 cdbd f343 16bd
00000160: 8312 e2bc 9794 ebbc 7b92 1c3e ccf4 193e
00000170: 3277 223e d260 453d 30c6 e93d 9fff 273e
00000180: 82a8 5d3d c688 e83d 8224 aa3d dcd7 8d3e
00000190: 40fa 7a3e 6505 433e 0069 363e 71a9 383e
000001a0: 627c 113e 769d 1e3e 337a 6c3e 5694 843e
000001b0: e76c c73b 62a8 073d 039d 8b3d 1b07 c63d
000001c0: fb41 a03d 963e 9d3d 4d5a f73d 1389 693e
000001d0: 8910 513e ba0a 2a3e 8713 3f3e d503 703e
000001e0: 77b4 733d 1a83 6e3d 1509 213e 94fb c83d
000001f0: acc7 a43d f147 573d 530c cbbc 7eef 24bd
00000200: fad5 ee3c c694 563c 06db 0c3c df6b d13d
00000210: 99db 42bc 2a7f df3b a09c 143e 84c9 c7bd
00000220: fd39 9ebd dfb7 f5bc 45f7 7cbc 26aa f7bc
00000230: 5d79 263d 2eeb 75bd 883e 58bc 35ee 0f3d
00000240: 8bbc 71be 2548 51be 4c73 94be 9053 27be
00000250: 71a1 adbd 89f1 41be 1f32 e8bd d87a 76bc
00000260: c9a0 7abd c878 5a3d feb5 3f3d 1638 a73d
00000270: 9f23 e63b bb9b 283d 04fb a93d 47d6 a83d
00000280: c71c bd3c 8ca8 a53d d267 383e 5b23 013e
00000290: 48f2 13bc daed 913e 53cd 193e 867e b2bb
000002a0: 276c 743e 1ad8 df3d 1305 2dbc 703e 3a3d
000002b0: a0e7 07bc 72fb 3f3c c9e2 b0bc 0579 3abc
000002c0: af02 5f3b 8224 9f3d 4b86 9d3d d8bb 073e
000002d0: 654e 8f3d a353 4c3d 3115 c13d 704c e93c
000002e0: ae80 3a3c 8a3c 383d c613 7f3d e52b b23d
000002f0: 5cfe f33d 174f 8c3d f626 3d3d bba4 cd3d
00000300: c64d 25bc a0a4 d23c bec7 b83d 8e66 933d
00000310: 0196 a33d 5d9d 4a3e 6a90 50bd d06c 81bd
00000320: 1d62 193d 8802 913c b96b 963c 69c3 483d
00000330: 2919 d7bb 0d78 b63c 6030 5d3d 7f37 a83b
00000340: bb5e 05bc 0ddb aebb d69a 4a3d 563a 273d
00000350: f718 e23d bc60 f73d 1a06 ee3d 1a07 273e
00000360: 945e 85bd 5d49 92bd ab51 34bd bfcf d0bc
00000370: 8296 ebbc 4ff8 96bc b446 9abc aefe 14bc
00000380: 7d49 c3bc 9b96 3d3e 4b11 153e a505 013d
00000390: fb3d 2e3e f48a ea3d aecc 0f3e 3b5e 3e3e
000003a0: 5136 483e 8a1b 473e af24 cebd 9d96 89bd
000003b0: 5dc9 60bd 2d9e d1bd 74ff fcbd b01e 03bd
000003c0: 8e05 c2bd 52d0 d6bc 2bdc 393d 8199 91bd
000003d0: 4ac6 dfbc 7089 cf3c bdbf cabd 363f 90bd
000003e0: b018 a33b fa28 50bd 3c7d 07bd 3d75 003d
000003f0: cdd0 01bc 4e46 68bd c501 b1bd bf0c 96bd
0.09661045 0.11820175 0.13622054 0.1356915 0.08275202 0.16859981 0.04378717 0.10273323
0.19649637 0.20721824 0.1972317 0.27079612 0.14706147 0.13100465 0.13479343 0.13380888
0.14855343 0.116736785 -0.1541466 -0.19108503 -0.28306168 -0.09996823 -0.083651096 -0.08983124
-0.05512061 -0.07737222 -0.07574845 -0.040451262 -0.032050118 0.12173408 -0.024240246 0.011478021
0.07528998 0.0060159364 0.07426859 0.096299894 -0.18347909 -0.0925018 -0.16022746 -0.1890907
-0.15300594 -0.17167762 -0.06496133 -0.2078527 -0.19942945 -0.061957538 0.008692022 -0.0014801549
0.061879266 0.0099753635 0.065721676 0.020267585 0.041619867 0.03654284 -0.121629864 -0.2030687
-0.261513 0.079317026 0.056717124 -0.0381347 0.14754422 0.1498312 0.04235418 -0.34170067
-0.37299517 -0.36397588 -0.08045611 -0.15635279 -0.1828465 0.05974226 0.002425132 0.02107968
0.08128619 0.09626185 0.1301723 0.09365479 0.014991745 0.11793978 0.08936175 0.082687944
0.067301035 -0.018474823 -0.051564734 -0.078057334 -0.03152632 -0.09834637 -0.10011561 -0.036685895
-0.027596718 -0.028757377 0.15290253 0.15034789 0.15865782 0.04818804 0.114147544 0.16406105
0.05411578 0.113542125 0.083077446 0.2770375 0.24509525 0.19045027 0.17813492 0.18033387
0.14207605 0.15489754 0.2309349 0.2589442 0.00608598 0.033119567 0.06817057 0.09669324
0.07825085 0.07677953 0.120777704 0.22806196 0.20416464 0.16605654 0.18659793 0.23438962
0.059498277 0.058230497 0.15726121 0.0981361 0.08045897 0.052558843 -0.02478615 -0.04026746
0.029154766 0.013096994 0.008597141 0.10225653 -0.0118931765 0.006820579 0.14512873 -0.09755233
-0.07725904 -0.029994903 -0.015439813 -0.0302325 0.040643085 -0.060038738 -0.013198502 0.03513928
-0.2360708 -0.20437677 -0.28994215 -0.1634047 -0.08478058 -0.18939795 -0.11337685 -0.015043937
-0.061188493 0.053337842 0.04680442 0.081649944 0.0070232893 0.04116414 0.082998306 0.08243995
0.023085011 0.080887884 0.18008354 0.12611143 -0.009029932 0.2850178 0.15019731 -0.0054472117
0.23869382 0.1092989 -0.010560292 0.0454697 -0.00829497 0.011717664 -0.021592515 -0.011381392
0.00340287 0.07770635 0.0769163 0.1325525 0.069973744 0.04988445 0.0942787 0.028478831
0.011383219 0.04497961 0.062274717 0.086997785 0.119137496 0.06851023 0.046179734 0.100411855
-0.010089343 0.025713265 0.09022473 0.07197295 0.07987595 0.19786592 -0.050918974 -0.063195825
0.037447084 0.017701402 0.018361913 0.049014483 -0.0065642786 0.022274042 0.054001212 0.005133569
-0.008140261 -0.0053361715 0.04946407 0.040827118 0.11039918 0.120789975 0.116222575 0.16311303
-0.0651218 -0.07142899 -0.044023197 -0.025489686 -0.028758291 -0.01842895 -0.018832542 -0.0090939235
-0.023838753 0.18514483 0.14557378 0.031499524 0.17015831 0.114522845 0.14042923 0.18590634
0.1955197 0.19444099 -0.100655906 -0.0671818 -0.054879535 -0.10235248 -0.12353411 -0.032011688
-0.09473716 -0.026222382 0.045375984 -0.07109357 -0.027316231 0.02533409 -0.098998524 -0.070433065
0.004977308 -0.05082033 -0.033078417 0.031361807 -0.007923317 -0.056707673 -0.08642916 -0.0732665

conv3.bias f4 [64]
00000000: 647e fc3c cd21 0e3d 8ddb d83b b03e c9bb
00000010: 5fcd 8b3c 7a46 27bb e291 073c 1cb6 bf3c
00000020: 0c8a 98bc e023 523c 0eda 103d 83bf 51bb
00000030: 8df2 19bd 405f 0dbc 3f20 b43c 6f5d cb3b
00000040: fc36 11bd 74c5 60bc 2618 0a3c 5e9a 393c
00000050: e0f2 b1bc 3b6c 5bbb 95e6 9cbb ef09 14bd
00000060: dda8 883c a194 843c 8bc0 803b 1b19 7e3c
00000070: d691 02bd cc87 ee3c 4742 1b3c e06c a9bc
00000080: 83a8 de3c fab5 ea3c 7c1a cf3c e333 e93b
00000090: 30c9 953b 02a7 b6bc 6e19 2abb f589 453b
000000a0: 1c64 e33c 9570 9bbc 1080 f8bb 40be 0d3a
000000b0: 391b 723c 8517 19bc b480 1fbc c0f1 88bc
000000c0: d66e 993c 8681 82bc a27e 9fbc 07b6 e3bc
000000d0: 4984 3e3c cd61 bbbb f0d6 a7bc 5632 a93c
000000e0: 8ac6 28bd 6c58 93bc d2b9 42bb 48da ad3b
000000f0: ddd1 093d cd15 cd3c 4b6e 083b ba77 1e3d
0.030821986 0.034700204 0.0066179694 -0.006141506 0.017065702 -0.0025524185 0.008274527 0.023402266
-0.018620513 0.012825936 0.035364203 -0.003200502 -0.03758483 -0.008628666 0.021988032 0.0062062065
-0.035452828 -0.0137189515 0.008428609 0.011328308 -0.021722257 -0.0033481258 -0.0047882297 -0.036142286
0.016682083 0.016184153 0.003929203 0.015508915 -0.03187736 0.029117487 0.009476251 -0.020681798
0.027179962 0.028651226 0.025281183 0.007116781 0.0045711026 -0.022296432 -0.0025955099 0.0030142043
0.027757697 -0.018974582 -0.0075836256 0.00054070726 0.014776998 -0.009343986 -0.009735275 -0.016716838
0.018729609 -0.015930902 -0.019469563 -0.027796758 0.011628219 -0.005718446 -0.020488232 0.020653885
-0.041204967 -0.017986499 -0.0029712808 0.005305562 0.033647407 0.02503481 0.0020817693 0.0386884

conv4.weight f4 [64, 64, 3, 3]
00000000: 2c70 babd 9897 1bbe 80ff 1ebe 78f5 70bd
00000010: 2858 d0bd 7373 1abe 8f73 06bd 066f b3bc
00000020: f09d c5bd 6d14 3abd c278 b7bd dfaf a3bd
00000030: da0f efbd 9371 10be 1c22 8abd 9f49 1abd
00000040: 57a5 c8bd 47fa c6bc cafa 9f3e fcf3 923e
00000050: aa2f 3c3e d0c2 623e 4e65 3a3e b1d4 253e
00000060: cb6c 373e 66c2 443e 4944 2a3e 1df7 57bd
00000070: 5fa5 76bd ecd3 40bd a966 08bc 1bfd babd
00000080: 2e5d 73bd d0cd 99bb 4e3a 83bd 8857 8cbd
00000090: 41c8 55bc 3fc3 c83c 45c7 c5bc cafd a5bb
000000a0: 0677 ef3c 0d99 7c3b 58fe 95bb ea74 0cbd
000000b0: 60df f73b 1efa bdbd 6565 b5bc 1c9c 51bd
000000c0: 242b f1bd 22b7 8fbd dc2a cbbb 9368 b7bd
000000d0: d457 2fbc 0dd1 cfbc 426f 1abe 906a 1bbe
000000e0: 4d46 02be e89c e5bd bae3 37be 1af0 26be
000000f0: a995 dfbd f536 1ebe 0204 16be f6f7 28bd
00000100: 2bd9 34bd a289 d2bd 4ff1 d53b d581 633b
00000110: fa3a a3bd dea1 343d 851c 123d 08fe b2bc
00000120: 71c0 b03b d018 8dbc f7a2 843d 40c2 d3bb
00000130: f827 083d 1c9a d43c 68c2 c23d fcce 843d
00000140: c0fb 933d 22d9 99bc 03b6 f3bc fcae c2bd
00000150: 4171 09bd 77b2 9bbd 64ef e0bc 409d 0fbd
00000160: 7dff a4bc 6126 5d3c bca7 423e 2106 5f3e
00000170: 41d2 913e a890 263e 2c66 683e a33b a03e
00000180: efdc 6f3e 6e3f 8d3e 2241 9a3e 1e6e 3e3d
00000190: d28f 8dbb 9df9 efbc db69 493d e6b7 81bc
000001a0: a0be 16bd 4dca 7cbc 9015 b63b 209c b2bb
000001b0: 54ed 013e 40b4 1d3e 88d5 023e 7948 c13d
000001c0: 260e ef3d 1b92 b83d 1c62 6b3d 4e3d ea3d
000001d0: cc19 023d b81d af3b 610b d9bb ea6b a73a
000001e0: 036b 563d 4c03 683c 0d28 973d 0fc6 1ebc
000001f0: 4347 863c 31fe 803d 87b4 cf3c c1a9 4e3d
00000200: ffbe 813d 9ae9 0ebd f8f7 1c3d 6226 3abc
00000210: 9abd 723b 9a18 483c 0562 543d bffc 143d
00000220: 8eaa 06bd 147d 53bd 8a6a 323d 663c d33c
00000230: 9a04 1cbd 70f2 303d 2d1b 54bd 9f4e 9e3c
00000240: e3dc 5f3e a624 793e f6f9 933e 8c02 653e
00000250: ea28 823e b37d 993e f50a 9f3e 043a b83e
00000260: 2207 ad3e 8d16 2a3e aa80 3e3e af01 463e
00000270: a72f 393e 4b87 6c3e b552 563e c66a 683e
00000280: 35e7 7e3e 9234 923e eb84 0a3e 20b7 8c3d
00000290: f0f1 a93d 772c 3e3d 890a 423d 9e8f 16bd
000002a0: 6ac3 c13c 30e9 733c fae0 39bd 3221 a33d
000002b0: af44 4fbc b918 2e3c c495 6c3c 5127 1e3c
000002c0: e65f 87bc f362 a53c 214d c0bc ed41 22bc
000002d0: 0eb4 da3c 00bd 6d3d 624f 963d 3290 98bd
000002e0: 1666 25bd ac5a be3c 33e9 ccbd dbb0 3abd
000002f0: 1fb0 47bd 6e69 a8bc 4de6 cebc 3066 ac3b
00000300: 87c0 8bbb 897a a03b 50c4 08bc a447 873c
00000310: 3a5d 143d 4d16 4e3d 72a3 0cbe c9f0 cebd
00000320: 7355 0fbe 45d8 21be dc3c f2bd 42c8 1cbe
00000330: 2f0c 17be cf1e febd f37a dabd fd76 3fbd
00000340: cb94 efbc e930 20bc 1afb b63b d091 59bd
00000350: bd49 61bc e579 38bd 3735 cd3c 1fb0 063d
00000360: ea4f bc3d 597b 2b3e e70c 3b3e 6f89 1f3e
00000370: e59e 283e dc2f 4a3e c6f3 033e 2829 3d3e
00000380: 7184 523e cd19 06bd 2fa2 1ebd b4d2 6abd
00000390: ea49 5cbd 642e 02bd e1e4 fabd 3b23 5dbd
000003a0: bf63 b0bd dcca ecbd b219 91bd 895f 9bbd
000003b0: e8ec 9bbd 6694 86bd 6caf 30bd 7fb0 29bd
000003c0: bd79 90bd 5012 883c 822d 53bd fea4 143e
000003d0: 3208 703d 5281 c13d ba6e a03d e06c fa3d
000003e0: e3e9 1d3d a888 053e 51df 463d 067f 313d
000003f0: 73ae 453d 37eb 583d 918e 35bc 9396 f5bc
-0.09103426 -0.15194547 -0.15527153 -0.058827847 -0.101730645 -0.15083103 -0.03282505 -0.021903526
-0.09649265 -0.045429636 -0.089585796 -0.07992529 -0.11672945 -0.14105825 -0.06744787 -0.037667867
-0.09797161 -0.024289263 0.31246024 0.2870177 0.18377557 0.22144628 0.18202707 0.16194417
0.17912595 0.19214782 0.16627611 -0.0527259 -0.060216304 -0.047077104 -0.008325257 -0.09130307
-0.059415035 -0.004693724 -0.06407605 -0.06852633 -0.0130482325 0.024507163 -0.02414287 -0.0050656544
0.02923156 0.0038543374 -0.0045774393 -0.034291185 0.00756447 -0.09276222 -0.022143075 -0.051174268
-0.117758065 -0.07017352 -0.0062001776 -0.08955493 -0.010702092 -0.025368238 -0.15081504 -0.15177369
-0.1272213 -0.11211568 -0.17957965 -0.16302529 -0.10917217 -0.15450652 -0.14649966 -0.0412521
-0.04415242 -0.102801576 0.0065290104 0.0034714837 -0.07970233 0.04409968 0.03567173 -0.021849647
0.0053940346 -0.017223746 0.064763956 -0.0064623654 0.033241242 0.025952391 0.09509736 0.06484792
0.07225752 -0.018780295 -0.029749876 -0.09506032 -0.033555273 -0.07602399 -0.0274579 -0.035062075
-0.020141358 0.01349792 0.19009298 0.21779682 0.28480724 0.1626612 0.22695225 0.312955
0.23424123 0.27587456 0.30127817 0.046491735 -0.0043201232 -0.02929383 0.049173217 -0.01583476
-0.036802888 -0.015429092 0.0055567697 -0.0054507405 0.1268819 0.15400791 0.12776768 0.09437651
0.116726205 0.090122424 0.05746661 0.11437474 0.031762883 0.005344119 -0.006623671 0.001277325
0.052348148 0.014160942 0.07380686 -0.009690776 0.016391402 0.06298483 0.025354637 0.05045486
0.06335258 -0.03489075 0.03832242 -0.01136169 0.003703928 0.012212897 0.05185129 0.03637385
-0.032877497 -0.051632956 0.043558635 0.025785636 -0.038090326 0.043199956 -0.05178373 0.019324599
0.21861605 0.24330387 0.28901643 0.22364253 0.2542184 0.29978713 0.31063047 0.35981762
0.33794504 0.16610165 0.18603769 0.1933658 0.18084584 0.23098485 0.20929988 0.22696981
0.24892886 0.28555733 0.13527267 0.06870866 0.08298099 0.046429124 0.04737333 -0.036758058
0.023652751 0.014887139 -0.04538057 0.07965316 -0.012650653 0.0106260115 0.014440004 0.009652928
-0.01652522 0.020188784 -0.023474278 -0.009903413 0.026697185 0.058041573 0.0733936 -0.07449378
-0.04038056 0.023236595 -0.10005417 -0.04557882 -0.048751947 -0.020558085 -0.0252563 0.005261205
-0.0042648944 0.00489742 -0.008347586 0.016513653 0.03622172 0.050314236 -0.13734224 -0.1010452
-0.1399744 -0.15805157 -0.11828014 -0.15310767 -0.14750741 -0.1240822 -0.10667982 -0.046744335
-0.029245755 -0.009777286 0.005584133 -0.053117573 -0.013750491 -0.045038123 0.025049789 0.032882806
0.0919493 0.16746272 0.1826664 0.1557977 0.16466863 0.1974482 0.12885961 0.18472731
0.20558335 -0.03273945 -0.03872889 -0.05732985 -0.053781427 -0.031782523 -0.122506864 -0.053988677
-0.08612775 -0.1156213 -0.07084979 -0.07586581 -0.07613546 -0.065712735 -0.043136045 -0.041428085
-0.0705447 0.016610295 -0.05155707 0.14516065 0.058601566 0.09448494 0.078336194 0.122277975
0.03855313 0.13040411 0.048552815 0.04333403 0.04826207 0.052958693 -0.011081354 -0.029979026

conv4.bias f4 [64]
00000000: 2978 0ebd 2a0b 173c 7894 1b3d d54d 3ebc
00000010: 06ab 04bd cdd3 e6bc b502 f73c 68fc 223d
00000020: 6c82 0cbd a987 28bd bc28 283d e9f2 12bd
00000030: 9a1f 7d3a d6cd 2dbc fdab 94bc 97bb 103c
00000040: afec 323c f015 073d 8756 ecba 5195 7a3c
00000050: 2dfa 183b 4350 09bd 573f d7bc 8d6c cd3c
00000060: a7a4 19bd 8863 dabc 82b3 cbbc ec15 0abc
00000070: 809c 113d 2e49 1d3d 20cb 833c 1871 053d
00000080: 8495 cf3c 07dd 0b3d 9778 d03c 3acd 9e3c
00000090: 3dae 1bbd f247 133d efab 84bc 8ce7 143c
000000a0: ac60 17bd 6685 293c 67c3 4f3c b28f 1cbd
000000b0: ba48 78bc 9d6e 2abd 6080 c9bc 6014 aabc
000000c0: 08f1 9cbb f2e5 893c fc56 133d 2ac0 ee3b
000000d0: 12e0 b7bc 92a8 debb 8e4f dcbc 7014 0bbd
000000e0: c2c8 c83c ce38 bc3b cea8 21bb a915 d4bc
000000f0: 7acc c73c 6de2 e7bc 2dbd b63c 353d b8bc
-0.034782562 0.00921897 0.037983388 -0.011615236 -0.032389663 -0.028177166 0.030152658 0.039791495
-0.034304067 -0.041145 0.041054472 -0.03587619 0.0009655893 -0.010608157 -0.018148417 0.008833787
0.010920688 0.032979906 -0.0018031158 0.015294389 0.0023342476 -0.03352381 -0.02627532 0.025076175
-0.03751054 -0.026658788 -0.02486587 -0.008428078 0.03554964 0.038399868 0.016088068 0.032578558
0.02533985 0.034146335 0.025448127 0.019384969 -0.038007963 0.035957284 -0.016195266 0.009088408
-0.036957428 0.010346746 0.012680865 -0.038222976 -0.015154058 -0.041609395 -0.024597347 -0.020761669
-0.0047894754 0.01683328 0.035971627 0.0072860913 -0.022445712 -0.0067949975 -0.026893403 -0.033955038
0.024509791 0.0057440763 -0.0024667266 -0.025889235 0.024389494 -0.02830621 0.022307003 -0.022490123

linear.weight f4 [5, 64]
00000000: 9b8e 3fbf 17b6 47bf a4f6 95bf 6b60 103f
00000010: 5bb0 14c0 6683 95bf 6b2d a1be 3435 1cbf
00000020: b58a 39be d293 c53d 3005 a9be 9c3d 5bbe
00000030: 588f 96bf 0e3c 3440 e2f5 17bf ddb5 d7be
00000040: 3cf6 09bf 7028 9c3f 5fb0 243d b693 0640
00000050: dcfe 5dbf 1e03 b5bf bda4 023f c695 9abf
00000060: 4976 45bf ae1b 87bf 77c7 2ebf 487b 11bf
00000070: 3c9b 933d f8b8 31bf 5846 b43e f864 f6be
00000080: 9c04 dd3e 246c e1be c696 0fbf 7a9f 00bd
00000090: f62d 853f 359a 263d 65bd e1bf 5567 0f3f
000000a0: c33e 42bf c5a2 bbbf 6078 19bc 1896 f73f
000000b0: 79c4 d7be af84 c33e b90a 30bf 7072 d53d
000000c0: ed2f 0cbf 265a 8b40 c61e a8be 7ce4 58bf
000000d0: 7d94 75bf 86e6 29bf 270d 05c0 569e 7c40
000000e0: 69a2 9cbf e24f 7fbf 8cae bdbf b35b 8abf
000000f0: 2240 aebf 7800 9e3f 675d 18be 246e 87bf
00000100: eed1 8abe 16e9 6a3f 7f5a 8bbf f131 b4bf
00000110: 8e41 2e3f b334 1fbf 3591 803f 5bcd 29bf
00000120: 512f dcbf f76a 693e a78d 2fbf 597b 953d
00000130: 9b36 3a3f 18fb 2d3f b8eb 483e 2ce9 923d
00000140: 285a 623d da82 8cbf 4f8e 4abf c247 cfbe
00000150: e1d0 5dbf 6502 0540 2fa4 d5be bef7 09bf
00000160: ac6b b8bf a032 84be 211d a0bf 39ca e5be
00000170: 646e 04bf ed17 5740 9357 31bf 9c6f b03e
00000180: c2a2 e8bf d54f 02bf 1837 47bf a791 f4be
00000190: 84dc 913e 4019 733f f0be 1fbf f089 383e
000001a0: cf52 98bd 8ea9 40be 5367 99bf 4631 d1bf
000001b0: e7f3 4fbf b111 0d3f ef16 8bbd 5067 af3e
000001c0: 4c79 85bf ce76 b7bf 1b68 9b3d 63a1 a43f
000001d0: 50e5 5940 42d0 10bf 8d5f 9e3f 8a6e 01bf
000001e0: 38b9 98bf c885 143e 0daa a4bf d284 8dbf
000001f0: 8891 6540 01e8 86bf c2f1 42bf 804f 8dbe
00000200: aca9 1bbf 3db2 7b3f ee20 a4bf 0a8e 3dbe
00000210: 7576 4c3f da1c 8540 9899 273f c36c 1dbe
00000220: e8dd 5a3e 4d5c 60bf 6c76 dfbe 09cb 64bf
00000230: 0f0a d73e c242 10c0 81f8 31bf d00e 3dbf
00000240: 5669 60be d3b2 643f 7d65 93bd 5c33 3f3f
00000250: 51c3 57be 11e6 78bf 66b6 bebd 44c1 9bbe
00000260: 9c0f cb3f 84de aa3e 3b36 1e40 6baf 4e3f
00000270: a181 093f bfe5 9bbf 36f6 4dbe 024a 87bf
00000280: 96ed c23d 3ea5 3f3f a9c4 0ac0 c459 e73b
00000290: 0691 653f ddb7 e7bf 4a08 9840 5302 00c0
000002a0: 05ac 873e 1d9d a6be 328e b3be 4d78 32bf
000002b0: 3666 24bd 6dbf a1bf ffd7 2bbf 4141 29bf
000002c0: c2a6 48bf 4378 6cbf 7741 d7bf d3ff 05bf
000002d0: 0ec1 21bf 945f 6bbf 4c03 f33c 8f2e 23c0
000002e0: 5c8f 4e3f 13df d3be e4e8 f8bd 0d06 2ebf
000002f0: 7cb4 58bf 6bb0 983e 183d 19bf eb9c 86bf
00000300: 3797 23bf eaaf 42bf af30 1d40 df6e 4abf
00000310: 31fe 983f f623 febf e8d1 40bf 5df7 5f3f
00000320: 3ef9 8bbe 2f25 abbf 540a 043e 98dd 1abe
00000330: b3a2 d0bf e164 3fbf 3ddb e4bd e850 963e
00000340: af58 0dbf ca99 0fbe 2aef f5be 2222 0ec0
00000350: f32d 47bf ef6d 953e 797a 83bf e006 b43f
00000360: aebc abbe 3efe afbf d052 5abf 445b 8e3c
00000370: a41e 96bf d5c8 ddbf 11f3 48bf a387 8fbe
00000380: 09ea 193f 07e6 19bf cdc4 8040 8504 a3bf
00000390: 2f81 f4bf 9b85 303f c1d1 84bf e382 1ebe
000003a0: 2a2a 57be fb85 2940 3658 ac3b f8f8 863d
000003b0: a0d1 5dbe d366 38be 900f 11bf 0a59 a5bf
000003c0: 3aa0 483f f765 aebf fff7 683e 7919 46bf
000003d0: 231a a3bf da94 623f 2637 463e a5d3 dbbf
000003e0: 91b2 cb3e 6ef4 ecbe eac2 6140 e520 59be
000003f0: 7937 bebf 4c98 503f b3cf 8cbf 2bf5 12bd
-0.74826974 -0.7801222 -1.1715894 0.5639712 -2.323264 -1.1680725 -0.31479964 -0.6101868
-0.18119319 0.09647335 -0.3301177 -0.21410221 -1.1762495 2.8161654 -0.5935956 -0.42130938
-0.5389135 1.219984 0.040207263 2.1027656 -0.8671701 -1.4141576 0.5103262 -1.2076957
-0.77133614 -1.0555322 -0.6827311 -0.5682874 0.07207343 -0.69422865 0.35209918 -0.48123908
0.4316758 -0.44027817 -0.56089437 -0.03140209 1.0404651 0.040674407 -1.7635924 0.5601705
-0.75877017 -1.4659048 -0.009367079 1.934268 -0.42142084 0.38187167 -0.6876636 0.10422218
-0.5476063 4.3547544 -0.32835978 -0.8472364 -0.959297 -0.66367376 -2.0789278 3.947164
-1.2237064 -0.99731266 -1.4818892 -1.0809234 -1.3613322 1.2343893 -0.1487938 -1.0580487
-0.2711329 0.9176191 -1.0886992 -1.4077741 0.6806878 -0.6218979 1.0044314 -0.6632897
-1.720194 0.2279471 -0.6857552 0.07298917 0.7273957 0.67961264 0.1962117 0.0717338
0.05526176 -1.0977433 -0.79123396 -0.40484434 -0.8664685 2.0782712 -0.41726825 -0.5389365
-1.4407859 -0.25819874 -1.250889 -0.44880846 -0.5173094 3.3608353 -0.6927425 0.3446015
-1.817467 -0.50903064 -0.7781844 -0.47767374 0.28488553 0.94960403 -0.6240072 0.18021369
-0.074376695 -0.1881468 -1.1984657 -1.6343162 -0.8123154 0.5510512 -0.067914836 0.3425851
-1.0427642 -1.4333131 0.07588216 1.2861751 3.4046211 -0.56567776 1.237291 -0.50559294
-1.1931524 0.14504158 -1.2864395 -1.1056159 3.5870075 -1.0539552 -0.76150143 -0.27599716
-0.60805774 0.98318845 -1.2822549 -0.18511215 0.7986825 4.159772 0.6546874 -0.1537352
0.21373713 -0.8764084 -0.43645036 -0.8937231 0.41999862 -2.2540746 -0.6951981 -0.7385073
-0.21915182 0.89335364 -0.07197092 0.74687743 -0.21070601 -0.97226053 -0.093121335 -0.30420887
1.5864139 0.3337289 2.47206 0.80736417 0.53713423 -1.2179488 -0.20113453 -1.056946
0.09517972 0.74861515 -2.1682532 0.0070602614 0.89674413 -1.8102986 4.751012 -2.0001419
0.26498428 -0.32541743 -0.35069424 -0.69714814 -0.04013654 -1.2636544 -0.6712646 -0.66115195
-0.7837945 -0.92371005 -1.6816853 -0.5234348 -0.63185203 -0.91942716 0.029664658 -2.5497167
0.806875 -0.4138113 -0.12153795 -0.6797798 -0.846504 0.29822096 -0.59858847 -1.0516638
-0.6390261 -0.76049674 2.4560964 -0.79075426 1.1952573 -1.9854724 -0.7532029 0.8748682
-0.27338594 -1.3370723 0.12894565 -0.15123594 -1.6299652 -0.74763304 -0.11174629 0.29358602
-0.55213445 -0.1402351 -0.4803403 -2.2208333 -0.7780449 0.29185435 -1.0271751 1.4064598
-0.3354239 -1.3749464 -0.8528261 0.017377503 -1.1728101 -1.7326914 -0.7849589 -0.2803317
0.60122734 -0.6011662 4.0240235 -1.2735754 -1.9101924 0.68953866 -1.0376512 -0.15479617
-0.21012178 2.6488025 0.005259539 0.06590456 -0.21661997 -0.18007974 -0.5666437 -1.2917798
0.78369486 -1.3624867 0.22750853 -0.7738262 -1.2742351 0.8850838 0.19356975 -1.7173964
0.39784673 -0.46280235 3.5275216 -0.21203955 -1.4860679 0.81482387 -1.1000885 -0.03587834

linear.bias f4 [5]
00000000: daf4 8c3f e773 18be fa95 053f 2108 8d3f
00000010: 345c 2dc0
1.1012223 -0.14887963 0.5218197 1.1018106 -2.7087526
