MAMLExperiments/src/trained_models/resnet_5way_5shot_2.pth (torch, 343668 bytes, 52 tensors)

conv_sequence.0.0.weight f4 [16, 1, 5, 5]
000000 5e 9b 06 3f 48 fc 90 3e 64 2e 26 3d fa 9c 96 3d
       0.5258082 0.28317475 0.040571585 0.0735416
000010 8f b1 8f 3d 5e 8b 19 3f cd f1 e8 3c e3 40 5f bd
       0.070162885 0.5997828 0.028435612 -0.05450524
000020 99 8b ca 3b 65 81 87 3d c2 72 1f 3f 9c 30 c9 bc
       0.006181192 0.06616477 0.6228448 -0.024559312
000030 be 20 91 bd 54 56 d7 3d 06 c1 24 3e cf 91 d9 3e
       -0.07086323 0.10514513 0.16089258 0.42494056
000040 8c 01 e9 3c a8 41 a1 bc 12 14 61 3e 4d ec 42 3e
       0.02844312 -0.019684628 0.21980312 0.19035454
000050 d3 74 d8 3e 63 7f 37 3e 41 fd d7 bd 27 9d a5 3e
       0.4227663 0.17919688 -0.10546351 0.3234646
000060 28 01 0d 3f ab 86 b4 be a4 48 30 be 2f b7 df be
       0.5507989 -0.35258994 -0.1721521 -0.43694445
000070 e3 d9 b9 bd b6 02 c0 3c 58 91 c3 bd e5 8f 3e be
       -0.09074762 0.023438793 -0.095492065 -0.18609579
000080 22 91 8a be 47 ce 74 be 59 6f 62 be 25 30 05 bd
       -0.27063853 -0.23906814 -0.22112788 -0.032516617
000090 c9 98 36 bd ce bb 8e be 04 04 91 be 04 b7 b6 be
       -0.0445793 -0.2787766 -0.28323376 -0.35686505
0000a0 20 e4 3e 3c 1c 86 17 bd 86 38 3e be bd be f3 be
       0.011651069 -0.03699313 -0.1857625 -0.4760646
0000b0 cc f4 8b be 7a d4 b9 bd dd 3e 9f 3d e5 25 9c 3d
       -0.27335203 -0.0907373 0.07775662 0.07624415
0000c0 ad 05 c8 be 32 eb bb be 66 6c 14 be e8 ee c6 3f
       -0.3906683 -0.36702877 -0.14494476 1.5541658
0000d0 37 5d 3f 3f 21 ec 38 bf 6e 78 a4 bf 91 cc ce be
       0.7475161 -0.72235304 -1.2849252 -0.40390447
0000e0 cb f4 09 3f 08 a4 18 3e b4 3c 54 bf e1 73 bb bf
       0.5388915 0.14906323 -0.82905126 -1.4644738
0000f0 e5 86 23 bf cc ef 28 be 40 35 31 be df e3 02 bf
       -0.6387771 -0.16497725 -0.1730547 -0.51128954
000100 32 db 6a bf 59 e4 92 be 8e 67 1d bf a9 f9 bf be
       -0.91740716 -0.2868984 -0.61486137 -0.37495163
000110 d6 b1 02 bf ba 2b 47 bf 24 6a 47 bf ff f3 77 bf
       -0.51052606 -0.77801096 -0.7789633 -0.96856683
000120 67 44 fa be 80 21 46 bf 9a 13 17 bf 51 73 5a 3f
       -0.48880312 -0.77394867 -0.59014285 0.8533221
000130 fe 26 4a 3f ac 93 53 3f c8 69 8e 3f 89 fc 31 3f
       0.7896575 0.82647204 1.1126032 0.69525963
000140 56 a1 71 3e ed 80 02 be 69 bd ed be 50 a9 b5 be
       0.23596701 -0.12744494 -0.4643357 -0.35480738
000150 7c 9c 1e be f4 5b e8 be 0a 97 2d bf 87 38 fc be
       -0.15489382 -0.45382655 -0.6780859 -0.49261877
000160 24 77 01 bf 72 17 14 bf 1f 5b 08 be eb 70 09 3d
       -0.5057242 -0.57848275 -0.1331601 0.033554953
000170 05 4d b5 bd ae 4a 55 be b0 55 d3 be 72 85 2c 3d
       -0.08852581 -0.2082927 -0.41276312 0.04211945
000180 94 f3 68 3e d1 d3 c4 3e f0 05 05 3f ce 80 00 3f
       0.22749168 0.38442853 0.51962185 0.5019654
000190 e5 e6 07 3f 6e 84 dd 3e ad ae 5b 3e 90 33 18 3e
       0.5308669 0.43265098 0.21453352 0.1486342
0001a0 c7 f3 d5 3d 02 0e d1 be 46 99 75 bf 91 51 75 bf
       0.104468875 -0.40831 -0.95937 -0.95827585
0001b0 dc e0 88 bf e7 ae f4 be 00 55 a1 3e bc 48 f1 3e
       -1.0693622 -0.4778969 0.31510162 0.47125804
0001c0 e0 49 d9 3f 88 37 7e 3f fe 87 7d 3f bd f7 d9 be
       1.697567 0.99303484 0.9903563 -0.42571822
0001d0 3d 80 27 be 11 f7 ef be 56 3c 12 bf d6 9b 2a bf
       -0.16357513 -0.46868184 -0.57123315 -0.66644037
0001e0 b4 d0 11 3f 94 d1 09 bd 99 70 ab be 1d c9 e6 be
       0.5695908 -0.033647135 -0.33484343 -0.45075312
0001f0 f1 5b 78 3f f8 2b 99 3e b6 74 9f 3d ad 46 85 be
       0.9701529 0.29916358 0.07785933 -0.26030484
000200 09 b1 89 3e 65 9e 07 3f 9c da 5d 3f d0 1b 20 3f
       0.2689288 0.52976066 0.86661696 0.6254244
000210 8e d6 68 3e 41 c7 49 3f 08 d1 2d 3f 63 57 29 3e
       0.22738096 0.7881966 0.6789708 0.16537242
000220 75 03 1e 3e 89 82 32 3d 20 57 da 3e ad 5e 2c 3e
       0.15431006 0.04358152 0.42644596 0.16832991
000230 0c f2 46 bf 4c 0a 78 bf 9b 2c be bf d5 c9 cf bf
       -0.77713084 -0.9689071 -1.4857363 -1.6233469
000240 3b 47 a0 bf 10 f4 b3 3f 25 b3 7e 3f 68 a0 17 3f
       -1.2521738 1.4058857 0.994921 0.59229136
000250 8a 73 6c 3f ce a8 c2 3f 58 d7 9f 3e 64 c3 da 3a
       0.923638 1.5207765 0.31218982 0.0016690311
000260 b1 d8 a1 be fd 79 64 be 56 4a 41 be 93 bc 93 3e
       -0.31610635 -0.2231216 -0.18876013 0.28854808
000270 40 5b 61 be 16 0f a0 be 39 3d 42 be 79 d0 b3 be
       -0.22007465 -0.3126151 -0.18968667 -0.3511999
000280 35 64 20 bd de a0 15 be 9f d9 aa be cc eb bd be
       -0.039158065 -0.14612147 -0.33369157 -0.3709396
000290 e8 45 88 be f0 7c c7 bc e1 18 c0 bd 75 64 ca be
       -0.26615834 -0.024351567 -0.09379745 -0.39529768
0002a0 af 83 ae be f1 38 d8 be 10 0a df be 6a 67 77 be
       -0.34084842 -0.42230943 -0.43562365 -0.24160543
0002b0 c1 f7 12 bf 25 14 91 be 96 6f 6a be c5 ac e3 3f
       -0.5740929 -0.28335682 -0.22894129 1.77871
0002c0 f0 89 19 bf 49 a9 6e be c3 7e 7c be 0c c6 0d 3e
       -0.599761 -0.23306765 -0.24657731 0.1384508
0002d0 82 83 c9 3e 74 83 5a bf 68 31 5a bd b4 05 ae bd
       0.39358145 -0.8535683 -0.053269774 -0.084971815
0002e0 ff 18 23 be 02 5a 8d be 63 c8 f1 be 81 6a 96 bd
       -0.15927504 -0.27607733 -0.47223195 -0.07344533
0002f0 b5 0c da be 46 3a 46 be f3 76 c4 3e e3 74 23 be
       -0.4258782 -0.19358167 0.38372 -0.15962557
000300 cb 37 dd be ed d0 65 bd 8e 53 07 be 6a 37 a1 3c
       -0.4320663 -0.05610745 -0.13215467 0.019679744
000310 dd 3f 3c 3d d7 9a 24 bf fb 53 36 bf d9 4f e0 be
       0.045959342 -0.64298767 -0.71221894 -0.4381092
000320 98 42 fe bd 6b e3 c2 3e 6b e1 22 3f 0c 35 44 bf
       -0.124150455 0.3806413 0.6362521 -0.76643443
000330 7c dc 8e be a4 35 bf be 38 eb 61 3e 83 e7 2a 3c
       -0.2790259 -0.37345612 0.22062385 0.010431173
000340 4a 0d e8 be 8f 42 c4 be 3d 82 1f bf 81 6a 34 3e
       -0.4532264 -0.3833203 -0.623081 0.17618753
000350 bb da 1c 3e 75 f9 e1 be b7 83 76 be 15 5c 64 bf
       0.15317814 -0.44135633 -0.24073683 -0.89203006
000360 74 99 2a 3f 71 7d 09 be 7f c2 03 bf 01 59 f6 bd
       0.666404 -0.13426758 -0.5146865 -0.12028695
000370 cc 4b 7a bc be 83 8d 3f 1e 95 95 3e bf 41 82 bf
       -0.01527686 1.105583 0.2921533 -1.0176314
000380 25 e3 61 be 6e 69 b7 3d 30 31 27 3e cf ca 1f be
       -0.22059305 0.08955656 0.16327357 -0.15604709
000390 fe b9 36 3f 73 a0 de bd 81 77 96 3c c7 43 b0 3e
       0.7137755 -0.10870447 0.01836753 0.3442671
0003a0 ea 5e 02 bf 0d 1a ce 3e e9 4d 06 be 34 f1 3b 3f
       -0.5092608 0.4025425 -0.13115658 0.7341492
0003b0 fb 4f 05 3e a6 fc 83 be e9 96 5a 3e 55 92 8f be
       0.13018791 -0.25778693 0.2134663 -0.2804133
0003c0 ee 86 23 3f f6 b5 38 3f 0c 64 14 bf 0c 28 7e 3e
       0.6387776 0.7215265 -0.5796516 0.24819964
0003d0 2d de 6e 3d 2b 23 03 3f 05 78 fa 3c 55 1e 37 bf
       0.058317352 0.5122554 0.030574808 -0.7153066
0003e0 af fa b1 3e 9a 78 88 3e 61 2e fd 3e fd 4c a6 be
       0.3476157 0.26654512 0.49449447 -0.32480612
0003f0 ac bd e6 be ba 0e 18 bf 80 f8 d5 3f 1a 4b c9 3e
       -0.45066583 -0.5939747 1.6716461 0.3931511

conv_sequence.0.0.bias f4 [16]
000000 5a b0 39 3f 84 7a 02 bf 8a b9 92 3f 9c 7f 2b bf
       0.72534716 -0.50968194 1.1462872 -0.6699159
000010 cc 56 84 bf 7f 46 2e 3d 98 07 2d bf c8 5d 8d be
       -1.0338988 0.0425477 -0.6758971 -0.27610612
000020 c7 a4 12 bf 40 4e c7 3e 59 e2 23 bf 31 aa 8a 3f
       -0.5728268 0.38926888 -0.64017254 1.0833188
000030 86 90 12 bf bd f1 91 3e 55 7d 56 bf 18 3e 8d be
       -0.57251775 0.28504744 -0.8378499 -0.27586436

conv_sequence.0.2.weight f4 [16]
000000 ee 9d 2c 3f 01 4d 8d 3f 25 fd 06 40 ee 9d f8 3f
       0.6742848 1.1039125 2.1092007 1.9423196
000010 7d 87 ab 3f 85 bb fc 3f 1f ee 8a 3f 34 7d a0 3f
       1.3400723 1.9744726 1.0853919 1.2538209
000020 bc 9f 9b 3f 4e fa 43 3f 6e 7a 99 3f d4 30 b9 3f
       1.2158122 0.7655381 1.1990488 1.4468026
000030 e0 29 8d 3f 89 98 16 3f 85 3b b1 3f 42 22 9f 3f
       1.1028404 0.588265 1.3846289 1.243233

conv_sequence.0.2.bias f4 [16]
000000 9b 26 55 3f 06 6c 39 3e 60 41 37 bf 26 10 1e 3f
       0.8326203 0.18107614 -0.7158413 0.6174339
000010 b0 4b 73 3f bd 9a d0 3f 65 d1 5d bd 05 75 93 3e
       0.95037365 1.6297222 -0.054154772 0.28800216
000020 0b bc 95 3f ea e5 89 3f be 0e 8a 3e 08 39 ad be
       1.1698011 1.0773289 0.26964372 -0.33832574
000030 1e 8b 8a 3f f2 e4 83 3f ec f4 11 3f db c9 e9 bd
       1.0823705 1.0304244 0.57014346 -0.11415454

conv_sequence.0.2.running_mean f4 [16]
000000 00 00 00 00 00 00 00 00 00 00 00 00 00 00 00 00
       0.0 0.0 0.0 0.0
000010 00 00 00 00 00 00 00 00 00 00 00 00 00 00 00 00
       0.0 0.0 0.0 0.0
000020 00 00 00 00 00 00 00 00 00 00 00 00 00 00 00 00
       0.0 0.0 0.0 0.0
000030 00 00 00 00 00 00 00 00 00 00 00 00 00 00 00 00
       0.0 0.0 0.0 0.0

conv_sequence.0.2.running_var f4 [16]
000000 00 00 80 3f 00 00 80 3f 00 00 80 3f 00 00 80 3f
       1.0 1.0 1.0 1.0
000010 00 00 80 3f 00 00 80 3f 00 00 80 3f 00 00 80 3f
       1.0 1.0 1.0 1.0
000020 00 00 80 3f 00 00 80 3f 00 00 80 3f 00 00 80 3f
       1.0 1.0 1.0 1.0
000030 00 00 80 3f 00 00 80 3f 00 00 80 3f 00 00 80 3f
       1.0 1.0 1.0 1.0

conv_sequence.0.3.weight f4 [32, 16, 3, 3]
000000 da b3 db bd d8 15 40 be 5a e3 01 bd 1e 8d dd bd
       -0.10727663 -0.18758333 -0.03171096 -0.108179316
000010 58 b7 51 be 88 5c cc 3b 17 49 d6 bd 46 0d 83 be
       -0.20480096 0.0062366165 -0.104631595 -0.25596064
000020 b7 36 73 bd 87 8c 10 3c 78 fa b8 3d 88 b2 81 3d
       -0.059378352 0.008822567 0.09032148 0.0633288
000030 18 c1 19 bd 97 b4 8e bd c2 41 7f bd 95 45 bf bd
       -0.037537664 -0.069680385 -0.06231857 -0.093394436
000040 e4 83 f0 bc f0 2e 4d bd e3 37 13 be d6 ca e8 bc
       -0.029359765 -0.05009359 -0.14376788 -0.028417032
000050 e8 86 bd be d7 c0 58 be f8 a1 da bd 0b fa ec be
       -0.37016988 -0.21167313 -0.10675424 -0.46284518
000060 7a ec a9 bd ed 81 d3 3e fa b7 f5 bd c3 e3 00 be
       -0.082970574 0.41310063 -0.11997981 -0.12586884
000070 f5 a5 54 3d 23 32 ac 3d 5f c6 42 be 30 11 29 3d
       0.05191608 0.08408 -0.19020985 0.041276157
000080 c5 27 8d 3e bb 9a 16 be e3 36 36 be b3 e5 33 3d
       0.27569404 -0.14707462 -0.17794375 0.04392023
000090 6a 3c 31 be 72 42 11 be 56 9d 27 be 39 94 68 be
       -0.17308202 -0.14185503 -0.16368613 -0.22712792
0000a0 65 c3 03 be 2a c1 e5 bd b8 32 74 be ef e6 49 be
       -0.12867506 -0.11218484 -0.23847473 -0.19717
0000b0 7c 67 57 3d 58 07 a1 be 65 69 8a be af e0 17 3e
       0.052588925 -0.31450915 -0.27033535 0.14831804
0000c0 80 13 9d be 4a 10 a5 be fe 48 25 3e d5 34 99 be
       -0.3067894 -0.3223899 0.16141126 -0.2992312
0000d0 4c b0 a3 be 14 4b 27 3e 45 dc 33 3c ab 1b 1d be
       -0.3197044 0.16337234 0.010977809 -0.15342586
0000e0 80 ac e3 39 ad 8a 2a be ce 1b ee bd 86 db 0c be
       0.00043425336 -0.16654463 -0.11626397 -0.13755617
0000f0 ac bc 3c be 81 69 e4 bd 4f 78 a8 bd 4b 49 1c bd
       -0.18431348 -0.11152936 -0.08226072 -0.038155835
000100 f6 54 ae bd 07 04 a9 bd c0 1b 33 be 77 26 fa bd
       -0.08512299 -0.08252721 -0.17491055 -0.12214368
000110 b1 30 d8 bc c3 39 49 be 4f 99 3c be 2f 57 48 3d
       -0.026390405 -0.1965094 -0.18417858 0.04891127
000120 b7 2c 99 3d 5f 32 e6 3e 2b ce 19 3e 45 7b de 3c
       0.07479232 0.44960305 0.15020053 0.027158389
000130 2f e6 9a 3e 52 06 55 be 42 88 1c be a1 ea 9f 3c
       0.3025374 -0.20803192 -0.15286353 0.01952106
000140 eb b7 91 be e4 ee 47 be 3c 65 09 be 9b e0 ae bc
       -0.2846063 -0.19524723 -0.13417524 -0.021347335
000150 c0 4d 01 be 31 d0 5e bd fb ba 04 3e 52 03 39 be
       -0.12627316 -0.054397766 0.12961952 -0.18067673
000160 2f 05 f4 bd 16 31 b3 3d 29 94 e0 bd 48 73 0b bd
       -0.11915051 0.08749597 -0.10965759 -0.034045488
000170 1d 95 07 3e d9 52 62 bd f4 08 19 bd 7d 3f 1d 3e
       0.13240476 -0.05525479 -0.037362054 0.1535625
000180 20 8e b2 bd c8 a4 c4 bc 03 c6 3a 3e 6e d2 a1 bd
       -0.087185144 -0.024004355 0.18239598 -0.079014644
000190 b5 a9 de bc 2f 30 62 3d 14 ac 7d bd 53 8b 3f be
       -0.027180532 0.055221733 -0.061931685 -0.18705492
0001a0 04 4d 62 bd 4e c2 aa bd f0 e1 d4 bd 59 8b 01 bd
       -0.05524923 -0.08337842 -0.10394657 -0.031627033
0001b0 ed 40 c8 bd 29 f4 0e 3e f8 49 0e 3e 8b b4 b7 bd
       -0.097780086 0.13960327 0.13895404 -0.08969983
0001c0 f1 9d 60 3c 96 31 c2 bd df b1 00 be f3 92 33 3d
       0.013709531 -0.09482114 -0.12567852 0.043841314
0001d0 04 58 bb bd b0 c5 98 bd 22 6d b6 bd 34 e7 c9 bc
       -0.09147647 -0.07459581 -0.08907534 -0.024646379
0001e0 17 b8 53 be 44 12 10 be 69 99 67 3c 5b ce a0 bd
       -0.20675693 -0.14069468 0.014135697 -0.07851859
0001f0 75 d5 a6 bd 1e 13 7a bd f7 5f 02 bd 92 97 09 be
       -0.081461824 -0.061053388 -0.0318298 -0.13436726
000200 62 20 b5 3d 91 1e 83 bd e4 0e 32 be 50 7e 2c 3e
       0.08844067 -0.064023145 -0.17388493 0.1684506
000210 93 fc 87 be af 38 87 be 6a ce 44 3e f8 63 db bd
       -0.26559886 -0.26410434 0.19219366 -0.10712427
000220 22 7e 03 bd fd 0c ca bd 3c 4f d7 bd ce 9f e7 bd
       -0.03210271 -0.098657586 -0.1051316 -0.11309777
000230 8d b1 34 be 63 b9 95 bc 51 7f a4 3d 7a d9 25 3d
       -0.17645855 -0.018276876 0.08032096 0.040490605
000240 24 fd 27 be 5b 6f 82 be 75 31 06 be 48 87 00 be
       -0.16405159 -0.25475582 -0.13104804 -0.12551606
000250 d9 84 11 bd 05 6a e9 bd 4b be 57 bd 97 28 45 3c
       -0.035527084 -0.11397175 -0.052671712 0.012033603
000260 03 7a 58 3d 68 6d 80 3d 2b d7 f5 3d e7 b3 10 3e
       0.052850734 0.062708676 0.12003931 0.14131127
000270 7b 21 0f 3b b5 25 04 3d ff a2 11 3e b9 a1 bd 3a
       0.0021840024 0.032262523 0.14222334 0.0014467753
000280 cc 44 9c 3d 08 87 bd 3d 87 54 03 3e 1f d8 12 bc
       0.076303095 0.09254271 0.12825213 -0.00896266
000290 14 c0 c8 3d 21 78 94 bd a8 eb 38 be 23 c1 81 be
       0.09802261 -0.07249475 -0.18058646 -0.25342664
0002a0 4b 52 52 bd 4a a0 c6 bd ff 39 b7 bd a8 69 c5 bd
       -0.051348012 -0.096985415 -0.08946609 -0.09639293
0002b0 58 72 b3 3d e1 e7 1e 3d 4d 62 05 3d 04 53 b2 3c
       0.08762044 0.038795356 0.03256445 0.0217681
0002c0 e1 6a 62 3d 90 49 01 be 60 ca 2a be cc 72 bc bd
       0.05527771 -0.12625718 -0.16678762 -0.09201583
0002d0 48 70 4d be df c4 33 be a5 a2 83 bd e9 b8 dd bd
       -0.20062363 -0.17555569 -0.06427506 -0.108262844
0002e0 e3 0f d9 bd 02 90 26 3b 5d d4 51 bc cc 6a 6c bd
       -0.10598733 0.0025415425 -0.012806979 -0.057719037
0002f0 03 e2 b9 bd 5f 48 1b be 6f c8 37 be e5 6b 4f bd
       -0.090763114 -0.15164326 -0.17947553 -0.050640006
000300 11 ec 4d bd 90 4b ee 3c 28 5a 39 3e c5 08 c4 bd
       -0.05027396 0.029088765 0.18100798 -0.09571985
000310 ce 44 ab bd 6f 12 1a bd 84 06 54 3d 3d 8a f5 3c
       -0.08362733 -0.037615236 0.051764026 0.029973144
000320 1e 83 41 3e 7d b1 e9 bd 8d 22 85 bd f4 c1 d7 bb
       0.18897673 -0.11410806 -0.06500731 -0.0065844003
000330 63 40 e4 bd 64 03 aa bd 68 85 55 bd de f9 38 bc
       -0.11145093 -0.08301428 -0.05212918 -0.011290042
000340 d9 7d 05 3d 29 65 cc bc ae 70 4a be d0 78 a4 bd
       0.03259072 -0.02495058 -0.19769546 -0.08030856
000350 c0 e0 c9 ba fc 20 46 be f9 0f c2 bd d5 07 0a be
       -0.0015402064 -0.1934852 -0.09475703 -0.1347955
000360 9f b5 06 be b0 f0 4c bd a2 0b e0 bd 4b 2d c9 bd
       -0.1315522 -0.050034225 -0.10939719 -0.09823092
000370 eb 4e d6 bd 95 21 65 bd 0b e2 64 be 69 81 5e be
       -0.10464271 -0.05594023 -0.22351854 -0.21729054
000380 49 d8 15 be d2 38 57 be 2c c9 3b be 9e a9 4d be
       -0.14633287 -0.21017769 -0.1833846 -0.20084235
000390 27 d9 83 bd 5c 2c b6 bd e7 af 38 be 24 9b 97 3d
       -0.06437903 -0.0889518 -0.18035851 0.074026376
0003a0 91 ca 89 3c 68 e8 5d 3d 6f ee 3f be 2b 3a f7 bd
       0.016820224 0.054176718 -0.18743299 -0.120716415
0003b0 49 0a 39 bc ec e7 08 be e5 7e 1f be 89 18 1d be
       -0.011293956 -0.13369721 -0.1557575 -0.1534139
0003c0 4c b1 00 be 57 97 13 be f9 d6 b4 bd d1 fa 3f 3e
       -0.12567633 -0.144132 -0.08830065 0.18748023
0003d0 29 f1 1b 3e c1 3c 0d 3e d2 b6 86 3e e0 57 aa 3e
       0.15228714 0.13792707 0.26311356 0.33270168
0003e0 5a ea 68 3e b0 32 3d 3e 66 19 b7 3d 01 94 31 bd
       0.22745648 0.18476367 0.08940391 -0.04335404
0003f0 2c 0c 08 be 17 82 ad bd 3b 51 ff bd e6 72 18 3d
       -0.13285893 -0.08472078 -0.12466665 0.03721895

conv_sequence.0.3.bias f4 [32]
000000 24 7b 69 3d 38 1a 25 bd ef b2 c3 be 17 1e 6e bd
       0.0570022 -0.040308207 -0.38222453 -0.058134165
000010 2c 85 59 bc 4a fe 8d bd 77 0a 24 3d c3 91 e1 bc
       -0.01327638 -0.069332674 0.040049043 -0.027535325
000020 c2 9f bc 3d 97 68 b0 3d b0 b7 ac bd be ae fd bc
       0.09210159 0.08613699 -0.08433473 -0.030967113
000030 4f 2c 70 be d1 78 8d 3d 37 7f 18 be 0e 86 0a 3d
       -0.23454402 0.069078095 -0.14892279 0.03381925
000040 82 6c 55 be c3 76 ad bd 7a 1b 09 3c 2f 16 16 3d
       -0.20842174 -0.084699176 0.008368367 0.03664225
000050 55 f5 33 3d 36 d8 91 be c1 59 99 3d 75 88 35 3e
       0.04393514 -0.28485268 0.07487822 0.17727835
000060 3f d7 a5 bd 91 9a 60 3a db c9 2a be 87 cb 82 3d
       -0.080976956 0.0008567954 -0.16678564 0.06386476
000070 a2 61 2f 3d 4b 59 b4 ba 27 6c 20 3e 3f 2f 05 be
       0.04281772 -0.0013759522 0.15666257 -0.13006304

conv_sequence.0.5.weight f4 [32]
000000 08 43 79 3f c1 3d 97 3f bc 07 d0 3f 00 8b 89 3f
       0.97367907 1.1815721 1.625236 1.0745544
000010 60 80 9f 3f d2 4d cb 3f f5 27 a3 3f d3 20 a4 3f
       1.2461052 1.5883124 1.2746569 1.2822517
000020 b3 a3 a1 3f f0 2c 71 3f dd a5 cd 3f 6f 28 96 3f
       1.2628082 0.94209194 1.6066242 1.1731089
000030 2c 0d b9 3f 72 0a 7f 3f 76 f5 4b 3f 0e 55 99 3f
       1.4457145 0.99625313 0.7967142 1.1979082
000040 34 74 55 3f 79 bf 85 3f 40 32 8e 3f 29 b2 c2 3f
       0.83380437 1.0449058 1.1109085 1.521062
000050 da 01 67 3f 72 ec b1 3f 6a 0e 94 3f 74 9f 6f 3f
       0.902372 1.3900282 1.1566899 0.9360268
000060 15 49 84 3f 90 1f b3 3f 9f fc 91 3f 68 49 c7 3f
       1.0334803 1.3994007 1.1405219 1.5569277
000070 b7 5c bd 3f 24 e5 6a 3f 50 ed 86 3f d1 98 a0 3f
       1.4793919 0.9175589 1.0541172 1.2546636

conv_sequence.0.5.bias f4 [32]
000000 60 fb a6 3d f1 9d 0b 3e 2d 40 3d bd 81 59 6c 3d
       0.08153415 0.13634469 -0.04620378 0.057702545
000010 ea ce ef bd 36 79 92 be f1 cf 4f 3d 85 c8 b9 bd
       -0.117093876 -0.28608102 0.050735418 -0.09071449
000020 f3 52 a4 bb ee 7b 89 be 25 8b 50 3e b8 cb 2f 3d
       -0.005014771 -0.26852363 0.2036558 0.04291889
000030 0b 5c 4c bd 8f 73 73 3e 8f 1d a1 be 45 77 42 bc
       -0.049892467 0.23774551 -0.31467864 -0.011869256
000040 e8 d2 dd bd 26 fb a5 3d 67 e2 cd 3d f5 89 c6 bd
       -0.10831243 0.081045434 0.100529484 -0.09694282
000050 1f dd 9a 3d 8c ba 0c be e8 60 58 be 81 a2 e9 3d
       0.07561707 -0.13743037 -0.21130717 0.11407948
000060 77 27 7a be fc 3f e2 bc da 14 83 3b 49 21 ef bc
       -0.24429117 -0.0276184 0.0040002884 -0.029190676
000070 35 55 9c be c2 dd 8d 3e a7 ff 38 3e 7b 26 68 be
       -0.30533758 0.2770825 0.18066274 -0.22670929

conv_sequence.0.5.running_mean f4 [32]
000000 00 00 00 00 00 00 00 00 00 00 00 00 00 00 00 00
       0.0 0.0 0.0 0.0
000010 00 00 00 00 00 00 00 00 00 00 00 00 00 00 00 00
       0.0 0.0 0.0 0.0
000020 00 00 00 00 00 00 00 00 00 00 00 00 00 00 00 00
       0.0 0.0 0.0 0.0
000030 00 00 00 00 00 00 00 00 00 00 00 00 00 00 00 00
       0.0 0.0 0.0 0.0
000040 00 00 00 00 00 00 00 00 00 00 00 00 00 00 00 00
       0.0 0.0 0.0 0.0
000050 00 00 00 00 00 00 00 00 00 00 00 00 00 00 00 00
       0.0 0.0 0.0 0.0
000060 00 00 00 00 00 00 00 00 00 00 00 00 00 00 00 00
       0.0 0.0 0.0 0.0
000070 00 00 00 00 00 00 00 00 00 00 00 00 00 00 00 00
       0.0 0.0 0.0 0.0

conv_sequence.0.5.running_var f4 [32]
000000 00 00 80 3f 00 00 80 3f 00 00 80 3f 00 00 80 3f
       1.0 1.0 1.0 1.0
000010 00 00 80 3f 00 00 80 3f 00 00 80 3f 00 00 80 3f
       1.0 1.0 1.0 1.0
000020 00 00 80 3f 00 00 80 3f 00 00 80 3f 00 00 80 3f
       1.0 1.0 1.0 1.0
000030 00 00 80 3f 00 00 80 3f 00 00 80 3f 00 00 80 3f
       1.0 1.0 1.0 1.0
000040 00 00 80 3f 00 00 80 3f 00 00 80 3f 00 00 80 3f
       1.0 1.0 1.0 1.0
000050 00 00 80 3f 00 00 80 3f 00 00 80 3f 00 00 80 3f
       1.0 1.0 1.0 1.0
000060 00 00 80 3f 00 00 80 3f 00 00 80 3f 00 00 80 3f
       1.0 1.0 1.0 1.0
000070 00 00 80 3f 00 00 80 3f 00 00 80 3f 00 00 80 3f
       1.0 1.0 1.0 1.0

conv_sequence.1.model.0.weight f4 [32, 32, 3, 3]
000000 cb 68 c8 3b 84 1f 23 bd 6a 63 a3 bd fe f1 0a 3b
       0.006116008 -0.039824978 -0.07977946 0.0021201367
000010 bb 26 a1 bd b9 b6 14 be 70 96 1a bd b8 b6 8d bd
       -0.078687154 -0.14522828 -0.037741125 -0.069196165
000020 3a 85 1b be 84 99 8c 3d a7 cf 3a ba 2f 12 f2 bd
       -0.1518754 0.06865218 -0.00071262795 -0.118198745
000030 d8 d5 9a bc 35 17 b0 bd 67 4e 26 be 9d 16 fc bc
       -0.018900797 -0.085981764 -0.16240846 -0.030772502
000040 0f b6 80 bd 2d 23 2f be 0b 17 05 be 39 a7 01 be
       -0.06284725 -0.17103262 -0.12997071 -0.12661447
000050 da 9a 4f be f0 08 ed bd ca 8c f4 bd fd d6 f2 bd
       -0.20273915 -0.1157397 -0.11940916 -0.11857412
000060 28 b4 79 bd 38 94 f0 bb 7e 3d 85 bd 12 9d 81 3c
       -0.060962826 -0.007341888 -0.06505869 0.015821967
000070 66 94 a5 3d 68 fb 3c 3d 1f 35 a6 3d 4b b5 38 3c
       0.080849454 0.046138197 0.08115601 0.011273692
000080 fb a1 1a 3c e1 6f d0 3c 3b 78 65 bd ab d2 1d bd
       0.009438033 0.025443973 -0.056022864 -0.038530987
000090 eb af 0e 3e b2 ba 1e 3e 5f 5c 03 3e f5 28 27 3d
       0.13934295 0.15500906 0.12828206 0.040810544
0000a0 ed d3 fe 3c 75 3d 1e 3e 81 f3 3d 3d 6f 8b af 3d
       0.031106913 0.15453131 0.0463748 0.08571517
0000b0 5a 8d c0 3d fc f0 3b be a0 bc 49 bd 48 9c 14 bd
       0.09401961 -0.18353647 -0.049252152 -0.036281854
0000c0 56 37 38 be f5 04 08 bd 8f 35 2b 3c 1c 98 19 be
       -0.17989859 -0.033207852 0.010449781 -0.14999431
0000d0 3b b8 27 bd 88 1a 9a bd c3 ab f7 3d bf cc f7 3d
       -0.04094718 -0.07524592 0.12093308 0.12099599
0000e0 d2 16 fd 3c 37 55 f9 bc 3c 1d 17 3c 0d 7e 83 3c
       0.03089467 -0.030436141 0.009223279 0.016051317
0000f0 f8 20 ab bd 13 cc 98 bd 09 38 81 bd 1e ae 30 bb
       -0.08355898 -0.07460799 -0.06309516 -0.002695925
000100 37 97 e2 3c 1b cf d4 3c c7 64 8d ba 9c 52 57 3c
       0.027659995 0.025977662 -0.001078748 0.013142254
000110 f5 f4 c4 3d d6 36 a8 3d 58 2a c7 3d b5 d5 fb 3c
       0.09617034 0.08213584 0.09724873 0.030741552
000120 c7 66 cb 3d f3 a2 75 3d 27 63 e1 3c 92 72 8c 3d
       0.099317126 0.059969854 0.0275131 0.0685779
000130 91 37 cf 3c fb c9 3f 3b bc 9d 40 3d 50 9a be 3c
       0.02529505 0.0029264677 0.047025427 0.023266941
000140 0c b8 a6 bc 98 49 bd 3d 8d bb c7 3d bb 09 0f 3e
       -0.020351432 0.092425525 0.09752569 0.13968556
000150 df 6c c3 3d 9d 95 dc 3d 9c 75 d1 3d 97 2c fa 3d
       0.0954225 0.10770724 0.1022751 0.12215536
000160 5b b1 14 3e 38 b2 37 3e b2 a0 55 bc f9 de 41 bd
       0.1452078 0.17939079 -0.013038801 -0.047331784
000170 47 86 88 bd 40 c3 b4 bd 1c d5 e4 bd 7c 1d cf bd
       -0.06666236 -0.088263035 -0.1117346 -0.101130456
000180 c5 67 0a be 93 09 b1 bd b6 8b 59 be 89 1d a7 bd
       -0.13516147 -0.08644404 -0.21244702 -0.0815993
000190 46 8f e5 bd 59 32 b8 bd 25 93 aa bd 65 0f 61 bd
       -0.11208968 -0.08993978 -0.08328847 -0.054946322
0001a0 ff f8 ee bd 70 33 00 be 0a 97 be bd 77 7e 22 be
       -0.11668586 -0.12519622 -0.09306152 -0.15868555
0001b0 ad 2d 00 be 12 22 7c bd 3c 74 71 bd 2f b4 bd bd
       -0.12517424 -0.06155593 -0.05894874 -0.09262883
0001c0 77 e4 4c bd 92 69 84 bc 28 ab 21 bd 9c 51 c5 3b
       -0.05002257 -0.016163621 -0.039469868 0.0060216915
0001d0 a2 6f 8c 3d dc bd 90 3d 6c 0d 79 3c 7f 6b 03 be
       0.0685723 0.07067463 0.015200954 -0.12833975
0001e0 74 b2 18 bd c2 eb 9a bd 19 73 17 be 56 dd 14 3d
       -0.03727956 -0.075644985 -0.1479 0.036343895
0001f0 0f 80 88 bd 6c 8d ca bd ad 51 7b 3d e3 50 9b 3d
       -0.0666505 -0.09890255 0.06135719 0.07583787
000200 7f 64 62 3d 01 19 ed bb 8e 9c da 3d 8d b3 fd 3c
       0.05527162 -0.0072356467 0.10674392 0.030969406
000210 c2 ac 06 3e ad 9f 2d 3d cc d4 12 3e 96 8b 74 bd
       0.1315184 0.042388607 0.14338988 -0.059703432
000220 59 41 58 bd 1b 64 1a be 00 27 b3 bd 9b f1 c3 bd
       -0.052796695 -0.1507725 -0.08747673 -0.09567567
000230 c9 be c4 bd 79 37 40 bd 9a 95 d5 bd 89 bf 1e be
       -0.09606702 -0.046927903 -0.10428925 -0.15502752
000240 f2 9f 97 bc 7d 4b 9d bd 9b e9 63 3c 66 1c 24 bd
       -0.018508885 -0.07680414 0.013910676 -0.040066145
000250 59 3b 14 3d 83 e9 94 bc d8 cb 43 3c ef b1 87 3d
       0.03618941 -0.018177753 0.011950456 0.06625735
000260 0a 8d 05 bd be 00 1e 3d 78 e9 25 3d fa c1 ae bd
       -0.03260521 0.038574927 0.040505856 -0.08533092
000270 9b a2 5b bb f7 5a 8f bd 70 f9 84 bd bf 2d 4c 3c
       -0.0033513668 -0.06999772 -0.06492889 0.012462079
000280 be c1 ab bd 70 b8 36 be 10 32 df 3d d8 4b b6 3d
       -0.08386563 -0.17843795 0.108982205 0.08901185
000290 ec a4 66 3d 0b 28 ae 3c ee 58 22 3d 0e ff 2b 3b
       0.056309626 0.021259328 0.03963559 0.0026244554
0002a0 25 23 cf bc 15 8b 11 bc 12 0d 16 bd d6 59 18 3e
       -0.025285313 -0.008883257 -0.03663356 0.1487802
0002b0 88 dd 10 3e c4 52 c0 3d 9c 8d 17 3e eb 2c 1f 3e
       0.14147007 0.09390786 0.14800113 0.15544479
0002c0 fe d8 91 3d 63 2a f7 3d 19 44 0c 3d f8 6a df 3d
       0.07121466 0.120686315 0.03424463 0.109090745
0002d0 e8 6d c6 39 69 60 07 bd a8 21 07 bd fe ce 54 3d
       0.0003784739 -0.03305093 -0.03299108 0.051955216
0002e0 11 a1 7e 3d 95 90 80 bd 69 95 83 3d 76 be d6 3c
       0.062165324 -0.06277577 0.06424982 0.026213866
0002f0 f5 e1 2b 3d c9 93 24 be c3 7a fd bd 6a fc b8 bd
       0.041963536 -0.16072 -0.123769306 -0.09032519
000300 23 df 12 be 9c 73 c7 bd b5 86 85 bd f1 ad 18 be
       -0.14342932 -0.097388476 -0.06519834 -0.14910103
000310 ee e7 20 bd 12 f6 e3 bd 6b 14 92 3b 1d 5f 3b 3d
       -0.039283685 -0.111309186 0.0044580004 0.045745004
000320 13 f8 18 bd a1 fb b5 3c df 0d b8 3d 6c 58 66 3d
       -0.037345957 0.022214713 0.08987021 0.05623667
000330 cb ab aa 3d 3c 65 1c 3e ba a6 d4 3d fb 42 ce 3d
       0.08333548 0.15272993 0.10383363 0.10071369
000340 64 0d 37 bd ac dc 14 3d 0b 83 b7 3c 6a 49 7e bd
       -0.044690505 0.03634326 0.022401353 -0.06208173
000350 6a 7d b6 bc 9c ac 22 bd c5 46 d6 bd 5a 1e d7 bd
       -0.022276599 -0.039715394 -0.10462717 -0.10503836
000360 38 83 0f bc 70 a7 a5 3d 29 31 33 3d c8 93 a4 3c
       -0.008759312 0.08088577 0.043748055 0.020089999
000370 4f 0d cc 3d d7 74 0c 3e 07 8e c0 3d 47 bb d4 3d
       0.09963476 0.13716446 0.094020896 0.10387283
000380 e6 0c 34 3e a6 0b b1 bc 10 e9 3a 3b 71 1c f0 bd
       0.17583045 -0.021612 0.0028520264 -0.11724175
000390 c7 a4 5c 3c 13 b6 49 bd f1 2a 9a bd c6 32 eb bd
       0.01346702 -0.049245905 -0.07527722 -0.11484294
0003a0 03 1d 8d bd 8b 6a 1e be da 11 94 bc 04 cf 05 3c
       -0.06890299 -0.1547033 -0.018074919 0.008167032
0003b0 70 4a bf bd 06 3f 95 bc d4 20 af bb ad 65 16 be
       -0.0934037 -0.018218528 -0.0053444896 -0.14687224
0003c0 dd f8 d0 bd ba b6 11 be 31 02 4d be ec 77 8a 3d
       -0.10203717 -0.14229861 -0.20020367 0.067611545
0003d0 99 d8 18 bd 75 76 08 be f1 f4 9d bc cc 97 81 bd
       -0.03731594 -0.13326438 -0.019281836 -0.06327781
0003e0 80 a9 44 be ad 3d dd bd 95 b5 ca bd 37 5f 55 be
       -0.19205284 -0.10802779 -0.09897915 -0.20837103
0003f0 89 35 83 3d e4 a6 f3 3d e5 00 3a 3e 10 4c ad 3d
       0.064066954 0.11897066 0.18164404 0.084617734

conv_sequence.1.model.0.bias f4 [32]
000000 8b 83 62 3c 1f 24 79 bd 7a c2 16 3d a5 7a 96 bd
       0.013825308 -0.060825463 0.03680656 -0.07347611
000010 90 13 f9 bb 7c 66 fb 39 39 a7 a5 3d 3d d9 b3 3c
       -0.007601209 0.00047950807 0.08088536 0.021954173
000020 3a a4 45 bc 3f dd 7d 3b dd ac c4 3c 93 08 92 bd
       -0.01206308 0.003873661 0.024008209 -0.07130542
000030 09 91 67 bd d7 16 c7 3c 57 81 dd bd a3 c5 82 bd
       -0.0565348 0.024302883 -0.10815685 -0.063853525
000040 e4 bd b3 3a 00 f9 fc 3c 88 8a 3f 3d 61 1e da 3c
       0.0013713208 0.030880451 0.046762973 0.026625814
000050 ff 97 91 bd 0d 72 41 bc 9c 9b d0 bc 7b e9 e7 ba
       -0.07109069 -0.011806977 -0.025464825 -0.0017693484
000060 b2 2b 39 3d 66 30 9f bc a4 53 02 bd aa 0d 9a bc
       0.045207687 -0.019432258 -0.031818047 -0.018805344
000070 46 7a 6c bc 21 2f 6b bd a3 d9 0d bd 0f 8b e0 bc
       -0.014433449 -0.057417993 -0.034631383 -0.027410058

conv_sequence.1.model.1.weight f4 [32, 32, 3, 3]
000000 47 81 5b bd a0 90 bd bd 72 f3 f0 bd 73 99 ff bc
       -0.053590085 -0.09256101 -0.117651835 -0.0312011
000010 2d 36 15 bd 27 9a 99 bd 77 42 84 bd 6c 8e 35 bd
       -0.03642862 -0.07500105 -0.0645799 -0.044325277
000020 a3 eb 0b 3c fe 6c f1 bb 2d a9 6a bd 2d 45 a6 bd
       0.008540067 -0.007367729 -0.057290245 -0.08118663
000030 6a 76 8d bd 26 ac ac bd 78 8a 45 be e2 f9 4d bd
       -0.06907351 -0.08431272 -0.19291103 -0.050287135
000040 b9 19 a5 bd 83 0d 74 be 40 7c dd 3d 50 c4 c3 3d
       -0.08061547 -0.2383328 0.108147144 0.09558928
000050 13 a9 ef 3d f1 1e bf 3d 3c 90 ac 3d c0 5c 18 3c
       0.1170217 0.093320735 0.08425948 0.009299457
000060 74 2c 80 3d 2c f2 08 3d f3 9c c0 3d 52 0f 25 bd
       0.06258479 0.033434078 0.09404936 -0.040297814
000070 46 a5 d7 3c 16 82 cc 3a 49 b1 8c 3c 82 60 8c bd
       0.026323926 0.0015602733 0.01717438 -0.06854345
000080 20 4b 33 bd f5 91 9e bd 0e 91 88 bc db 31 8e bd
       -0.043772817 -0.07742683 -0.01667073 -0.06943103
000090 1e 1c 24 bd 92 47 e3 bd dd 42 dc bd 99 39 5d bd
       -0.040065877 -0.11097635 -0.10754941 -0.054010008
0000a0 cb c3 57 bd 25 2d 26 3b a6 68 3c bd 2a d4 d7 bd
       -0.052676957 0.0025356498 -0.045998238 -0.10538514
0000b0 8f d3 22 bd a4 2d b7 bd 23 bc 0d bd 6a ba 60 bc
       -0.03975254 -0.08944252 -0.03460325 -0.01371632
0000c0 ce 64 b7 bd 2a 9f e6 bd e4 27 a9 bd 48 2e 85 bd
       -0.08954774 -0.11260827 -0.08259562 -0.06502968
0000d0 db a3 d1 bd cb f7 9e 3b 2a 10 64 bd 19 27 6c bc
       -0.10236331 0.0048513166 -0.055679478 -0.0144136185
0000e0 12 a8 cb 3d 4b f9 aa 3d 2a 21 86 3d d5 2c cd 3d
       0.09944166 0.0834833 0.06549294 0.10018317
0000f0 4c c5 db 3d 79 8d 36 3e e0 33 70 3e 02 98 8b bd
       0.10730991 0.17827405 0.23457289 -0.068161026
000100 45 ae 48 bd 10 4a 6c 3d 33 4a 22 3d 16 55 1b bd
       -0.04899432 0.05768782 0.039621543 -0.03792294
000110 da 8e 54 3d f8 f9 26 bd 87 60 d4 3b 4e 78 a8 3d
       0.051894046 -0.040765733 0.0064812335 0.08226071
000120 8a a3 4a be c2 2b 10 be d1 4a b3 bd 3c 3b f5 bd
       -0.19788948 -0.14079192 -0.087545045 -0.11974189
000130 1f 1c bf bd c4 59 05 3d e4 a1 ba bd ce 55 46 bd
       -0.093315355 0.03255631 -0.091129094 -0.048421673
000140 8b 7b fb 3c 78 ca e0 3d 13 df bb 3d 76 7e b6 3d
       0.030698558 0.10976118 0.091734074 0.08910839
000150 66 ed ae 3d 5d 3b d1 3c 57 c5 cd 3b 5b 8e 20 3d
       0.08541374 0.025541002 0.0062796283 0.03919826
000160 cb 5e 84 3d 92 1f 58 bd a1 27 4d bd 35 2b 3a bd
       0.06463393 -0.052764483 -0.05008662 -0.04545136
000170 fe cd 55 bd de de d9 bc 3e 8b bf bc 1d 50 dc bd
       -0.052198403 -0.02659553 -0.023381826 -0.10757468
000180 c1 ca c5 bd 78 5b 28 bd b1 33 ca bc b1 fd fb bd
       -0.09657813 -0.041102856 -0.024682852 -0.12304247
000190 ab ea ee bd 6d 5e 40 bb 63 e6 0b be b4 66 a4 bd
       -0.11665853 -0.0029353157 -0.13662104 -0.080274016
0001a0 e2 75 ad bd 2f 9d b6 bd 0f 72 e1 bc 16 e4 cc 3c
       -0.0846975 -0.08916699 -0.027520208 0.025011104
0001b0 18 45 1c be d7 2d cd bd c2 ba 25 be 5b 80 ca bd
       -0.15260732 -0.10018509 -0.16184524 -0.09887763
0001c0 bd f3 de bd 08 b3 20 be 5c 6a f2 bc d9 8c c9 bd
       -0.10886333 -0.15693295 -0.029591732 -0.09841318
0001d0 6d 7b 8a bd c6 56 08 bb a8 4d 1d bd 85 70 b0 3c
       -0.06761823 -0.0020803674 -0.038404137 0.021538028
0001e0 cf 2c 11 bd 30 5c e2 bc f2 b8 2b bd d5 84 dc bb
       -0.035443123 -0.027631849 -0.041924424 -0.006729702
0001f0 59 89 2d 3c e3 0a 14 bd b1 9e fc bc 85 f6 a9 bd
       0.010591828 -0.036143195 -0.030837389 -0.08298973
000200 b3 ff d4 bc 32 1c 15 3c 63 0f 0f bd e3 06 ec bd
       -0.026000833 0.009100961 -0.034926783 -0.11524751
000210 e3 f9 8d bd f0 14 1a be 2c 6b ec bd c6 6d a8 bc
       -0.06932428 -0.1504705 -0.11543879 -0.020560157
000220 65 52 bb bd 31 8f 84 bd 6f 64 4b bd ca 0d 2a bc
       -0.09146575 -0.06472624 -0.049656328 -0.010379264
000230 a3 a7 81 bd d1 68 1e bd 60 a0 6a bd fc 65 94 bd
       -0.06330802 -0.03867418 -0.05728185 -0.072460145
000240 2f 6e 9d bd 84 be 83 bd 43 9b 4d 3d a6 a5 2b 3c
       -0.076870315 -0.06432822 0.050196897 0.010476505
000250 39 03 a0 bc dc 9b 88 3d f5 b0 49 3d ed 82 51 3d
       -0.019532787 0.06670353 0.049241025 0.05115025
000260 75 f8 c2 3d 71 4b 98 bd b0 60 5f bd fc bf 9d bd
       0.09520046 -0.07436264 -0.054535568 -0.07702634
000270 53 3a 08 be 53 2c 55 bc 7f bc 2e bb 3b 21 99 bd
       -0.13303499 -0.013011056 -0.0026662645 -0.07477041
000280 d8 e1 ee 3c 58 86 d5 bc 01 ab a3 bd 7b f1 03 3c
       0.029160425 -0.026065037 -0.07991601 0.008053179
000290 45 fe bf 3c 7d 42 2e bb 0e 9e 2f bd 14 e0 ff bc
       0.023436675 -0.0026589923 -0.042875342 -0.031234778
0002a0 f1 87 9e bc f1 10 12 3d 02 05 dd 3c 47 34 8d bd
       -0.019351931 0.035660688 0.026979927 -0.06894737
0002b0 d5 24 c9 3b b2 3a f9 3c 20 99 80 bc 4d 6a 04 bd
       0.006138424 0.030423496 -0.015698016 -0.03232794
0002c0 0b dd cc 3d c6 6f 8b 3c c6 90 ed bc 68 41 17 3d
       0.10003098 0.017021071 -0.028999697 0.03692761
0002d0 44 56 a2 3c 3f df 1b bd 69 60 f9 bb 5a a6 05 bc
       0.019816525 -0.0380547 -0.00761037 -0.008157337
0002e0 29 4e a7 bd c7 91 17 bd 44 19 ac bd e5 ab 82 bd
       -0.08169205 -0.03700426 -0.084032565 -0.063804425
0002f0 cb 3d 0b be 12 01 f5 bd 11 64 55 bc e3 ca fb 3c
       -0.13597791 -0.11963095 -0.013024346 0.030736392
000300 97 a9 e1 bc 76 d0 aa bb 01 73 06 3c 54 7b 83 bc
       -0.027546687 -0.0052128388 0.00820613 -0.016050018
000310 58 24 b6 3c 55 cb 18 3d e7 54 27 3d c9 16 15 bc
       0.022234127 0.037303288 0.040852454 -0.009099671
000320 e1 53 f8 bc 0f 8a 24 bd 5c de 29 bd ce 0f c4 bd
       -0.030313434 -0.040170725 -0.041471824 -0.09573327
000330 dd 5b 5b 3b 0e 39 4c bc 19 c0 e4 bd b8 94 b2 3d
       0.0033471503 -0.012464775 -0.11169452 0.08719772
000340 32 8c 8d 3d b0 4d 52 3d f1 79 05 3e f0 42 a3 3d
       0.06911506 0.05134362 0.13034798 0.07971752
000350 18 bf 60 3d ab 32 85 3d da ba 9e 3d 3d cb 74 3d
       0.05486974 0.06503805 0.07750483 0.059764136
000360 a2 29 b0 bd d3 79 3a bd 3e e4 18 bd d2 6f a9 bc
       -0.08601691 -0.045526337 -0.037327044 -0.020683203
000370 e3 52 43 3d 9e 59 de 3d 93 2e 61 bd a2 7b e6 bc
       0.04768647 0.10856937 -0.054976057 -0.028135125
000380 55 56 d9 3c b9 d2 b4 bd 67 5d df bd 3e d8 17 be
       0.026530424 -0.08829255 -0.10906487 -0.14828584
000390 77 94 2b be 8a a0 50 be 32 ce 4f be cb b5 26 be
       -0.16755854 -0.20373741 -0.20293501 -0.16280286
0003a0 26 80 45 be 4f 0d 40 be bf 23 25 bb 09 e3 b4 3a
       -0.19287166 -0.18755077 -0.0025198308 0.0013800572
0003b0 5c db 3f bd 4d af d6 bc 12 d6 5a bd 69 1c bc bc
       -0.046840057 -0.026206637 -0.05342681 -0.022962766
0003c0 c0 69 06 3c d4 17 1b bb a3 8d cd bc 76 58 71 3d
       0.008203924 -0.0023665326 -0.025091952 0.058922254
0003d0 23 56 9b 3c 10 51 f4 3d 33 33 fc 3c 70 7f 29 3d
       0.018961972 0.11929524 0.030786132 0.0413813
0003e0 96 ab 11 3e 76 a7 a0 3d a9 2d 16 3d 37 33 ec 3d
       0.14225611 0.07844441 0.03666464 0.11533206
0003f0 d6 6e d7 3d 53 d4 b2 3d f6 c2 56 3d 15 d5 04 3e
       0.10519187 0.08731904 0.052432023 0.1297191

conv_sequence.1.model.1.bias f4 [32]
000000 fc a1 69 bd d8 d9 92 3c bf e3 28 3d 77 10 0d bd
       -0.057039246 0.017926142 0.04123282 -0.03443953
000010 5b 35 08 bc bc 0d d8 3c 5f 92 98 3c c1 67 a3 3c
       -0.008313502 0.026373737 0.018624483 0.019946935
000020 ff 21 f2 3c a4 ec 33 bb 6d d9 e9 3c 60 1e 9a 3c
       0.029557226 -0.0027454281 0.02854606 0.018813312
000030 e3 68 34 3d 70 ba 07 bd 7b ef 40 bd 9f 81 22 3d
       0.04404534 -0.033136785 -0.047103386 0.039674398
000040 c1 35 73 3c d4 85 4f bd e5 7c 98 3c 0c f2 a9 bc
       0.014844359 -0.050664738 0.018614242 -0.0207453
000050 74 55 93 bd 3e 29 0e bd f4 e5 14 3d 48 99 c6 3c
       -0.07194033 -0.0347073 0.036352113 0.024243012
000060 3f 82 17 3d 37 90 6d 3c f3 c7 b0 bc 72 a6 56 b9
       0.036989447 0.0144997155 -0.021579718 -0.00020470636
000070 b1 c8 fd 3c 87 76 1d 3d f1 36 b8 3b fa 41 7c bb
       0.030979486 0.038443115 0.005621784 -0.0038491474

conv_sequence.3.weight f4 [32]
000000 bb c8 59 3f 66 23 81 3f 36 a5 8c 3f 99 03 50 3f
       0.85071915 1.0088928 1.0987918 0.8125549
000010 c8 0d 8c 3f 39 2f 59 3f 84 76 95 3f 97 e2 90 3f
       1.0941706 0.8483768 1.1676793 1.131915
000020 e1 99 d4 3f de 5f b7 3f 09 61 9b 3f e9 1a 82 3f
       1.660946 1.4326131 1.2138988 1.0164462
000030 72 5b bb 3f e8 94 6a 3f d6 11 b7 3f b7 62 8a 3f
       1.4637282 0.9163346 1.4302318 1.0811375
000040 46 e5 be 3f e4 71 6f 3f 61 1e a5 3f 25 85 a6 3f
       1.4913719 0.9353316 1.2899896 1.3009382
000050 1e 84 2e 3f 96 fa 8a 3f a5 2a 54 3f 23 e6 5f 3f
       0.68170345 1.0857723 0.8287757 0.87460536
000060 20 7b 96 3f 5f 52 8a 3f a1 97 3e 3f b7 c0 a3 3f
       1.1756325 1.0806388 0.7445012 1.2793187
000070 b3 43 3d 3f 2c fc 25 3f 6b 1e 9d 3f 0e fb 63 3f
       0.73931426 0.6483791 1.2274908 0.89054954

conv_sequence.3.bias f4 [32]
000000 89 8f 8a 3c 3d 0c 8d 3d 39 82 34 be 53 49 d1 bd
       0.016914146 0.068871 -0.17627801 -0.102190636
000010 7c 8b 1a be e3 04 16 3e bf c7 08 3e dd 15 f7 3e
       -0.15092272 0.14650302 0.13357447 0.48258868
000020 df 23 8e be c1 74 8d be 09 92 89 be 79 c6 bb 3d
       -0.27761742 -0.2762814 -0.26869228 0.09168715
000030 2f 69 62 bd bb b1 5e 3e ff 73 62 be 98 cc 8b be
       -0.055276092 0.21747486 -0.22114561 -0.2730453
000040 8b a1 d1 3e e2 7f 01 be 46 37 a9 be b3 76 96 3e
       0.4094356 -0.1264644 -0.33049983 0.29387435
000050 9f 2a 2f be eb c4 d4 bc 39 79 6d 3e 39 1e 2a bd
       -0.17106102 -0.025972804 0.23190774 -0.04153273
000060 04 bd b1 3e f7 cb 78 be ef b8 d6 bd e1 74 51 be
       0.3471452 -0.24296556 -0.10484492 -0.20454742
000070 bc 74 cf 3d 09 b9 19 3e 3d e3 56 be 52 da 6e be
       0.10129687 0.15011992 -0.20985122 -0.2332547

conv_sequence.3.running_mean f4 [32]
000000 00 00 00 00 00 00 00 00 00 00 00 00 00 00 00 00
       0.0 0.0 0.0 0.0
000010 00 00 00 00 00 00 00 00 00 00 00 00 00 00 00 00
       0.0 0.0 0.0 0.0
000020 00 00 00 00 00 00 00 00 00 00 00 00 00 00 00 00
       0.0 0.0 0.0 0.0
000030 00 00 00 00 00 00 00 00 00 00 00 00 00 00 00 00
       0.0 0.0 0.0 0.0
000040 00 00 00 00 00 00 00 00 00 00 00 00 00 00 00 00
       0.0 0.0 0.0 0.0
000050 00 00 00 00 00 00 00 00 00 00 00 00 00 00 00 00
       0.0 0.0 0.0 0.0
000060 00 00 00 00 00 00 00 00 00 00 00 00 00 00 00 00
       0.0 0.0 0.0 0.0
000070 00 00 00 00 00 00 00 00 00 00 00 00 00 00 00 00
       0.0 0.0 0.0 0.0

conv_sequence.3.running_var f4 [32]
000000 00 00 80 3f 00 00 80 3f 00 00 80 3f 00 00 80 3f
       1.0 1.0 1.0 1.0
000010 00 00 80 3f 00 00 80 3f 00 00 80 3f 00 00 80 3f
       1.0 1.0 1.0 1.0
000020 00 00 80 3f 00 00 80 3f 00 00 80 3f 00 00 80 3f
       1.0 1.0 1.0 1.0
000030 00 00 80 3f 00 00 80 3f 00 00 80 3f 00 00 80 3f
       1.0 1.0 1.0 1.0
000040 00 00 80 3f 00 00 80 3f 00 00 80 3f 00 00 80 3f
       1.0 1.0 1.0 1.0
000050 00 00 80 3f 00 00 80 3f 00 00 80 3f 00 00 80 3f
       1.0 1.0 1.0 1.0
000060 00 00 80 3f 00 00 80 3f 00 00 80 3f 00 00 80 3f
       1.0 1.0 1.0 1.0
000070 00 00 80 3f 00 00 80 3f 00 00 80 3f 00 00 80 3f
       1.0 1.0 1.0 1.0

conv_sequence.4.model.0.weight f4 [32, 32, 3, 3]
000000 a6 a3 8e 3c 98 31 00 be 82 ef 58 be 4d 49 b4 bc
       0.017412018 -0.12518919 -0.21185115 -0.022007609
000010 51 85 a7 bd 8d c1 50 be 44 71 41 bb cf d1 2d be
       -0.08179725 -0.20386334 -0.0029516974 -0.16974567
000020 3d 04 61 be 3a 93 72 be fc 44 0b bd 04 b5 43 bd
       -0.21974273 -0.23688975 -0.034001336 -0.04778005
000030 de 0f 0e be 60 07 51 bd 3e 10 46 3d 4c e1 35 be
       -0.1387324 -0.051032424 0.048355334 -0.17761725
000040 37 d7 04 be 35 38 7c 3c e0 04 40 bc b9 71 b9 3c
       -0.12972723 0.01539426 -0.011719912 0.022637235
000050 ff 63 26 3e 0b c0 c4 bc f6 9f 61 3d 22 d7 5f 3d
       0.16249083 -0.024017354 0.05508419 0.054648526
000060 53 82 22 bd a4 58 89 3d 9f e7 3e 3e 62 59 73 3d
       -0.039675068 0.0670636 0.18643044 0.059411414
000070 f6 53 aa bd 92 de 20 be d7 35 52 bd 9c 70 5d bd
       -0.083167955 -0.15709904 -0.051320877 -0.05406247
000080 fb f2 f8 bd 3e b1 f1 bd 5e e2 0e be eb 97 57 be
       -0.1215572 -0.118013844 -0.1395354 -0.21054046
000090 2e bc 8b 3d 8d 52 80 3d 6c 23 a0 bc fc bc 8a 3d
       0.06823002 0.06265745 -0.01954814 0.06774327
0000a0 2b 77 0f 3d 27 66 5a 3c c9 fb 99 3d f4 31 13 bd
       0.035025757 0.013330019 0.07518727 -0.03593631
0000b0 eb 56 fe bc c9 c9 29 be 8c 5d b8 bd 96 9f 90 bd
       -0.031047305 -0.16580881 -0.09002218 -0.070616886
0000c0 01 24 2f be d4 c8 d8 bd e1 3d 08 be 69 fc 07 be
       -0.17103578 -0.1058518 -0.13304855 -0.1327988
0000d0 e5 95 23 be 8f 23 62 be 77 c0 2a be d9 f8 0a be
       -0.15975149 -0.22083877 -0.16674982 -0.1357149
0000e0 b0 f5 e9 bd 7c e2 0e be 1f 80 21 be 0b 0f 45 be
       -0.11423814 -0.13953584 -0.1577153 -0.1924402
0000f0 b4 09 8a be d0 a9 9f be d7 db 9d be 7d 76 6d be
       -0.26960528 -0.31184244 -0.30831787 -0.23189731
000100 04 5a 59 be 84 88 63 be 8e 69 87 be 6b 6b 5f be
       -0.21225744 -0.22220045 -0.2644772 -0.2181832
000110 4a 7a 64 be be f8 ad be e1 a9 8c be 19 00 75 be
       -0.22312275 -0.33978838 -0.27473357 -0.23925819
000120 77 e6 e8 3d c6 50 15 3e b0 ed 82 3e 58 65 07 3e
       0.11372083 0.14581594 0.25571966 0.13222253
000130 ce 5d 67 3e 8c 3a 9a 3e d8 ca 49 3e 5b b2 91 3e
       0.22594377 0.30122793 0.19706285 0.28456387
000140 67 d4 db 3e 7d 9d b6 3c b1 fb 24 3e 0f ed 58 3e
       0.42935488 0.022291893 0.16111638 0.2118418
000150 30 ab 89 3d 7c 55 0c 3e 69 81 9f 3e e6 c9 37 3e
       0.067221045 0.13704485 0.3115342 0.17948112
000160 4e f4 93 3e cf 21 c5 3e 35 70 bc 3c 39 a8 d2 3d
       0.28897327 0.38502356 0.023002723 0.10285992
000170 29 53 32 3e cd 88 46 3e 79 08 4d 3e eb 66 9c 3e
       0.17414536 0.19388123 0.20022763 0.3054727
000180 b6 60 5f 3e 8c 36 81 3e bd 8c af 3e 28 0e 14 be
       0.21814236 0.25236928 0.34287062 -0.14458525
000190 ee 2d 07 be fc eb 48 bd 2f 59 42 be 09 75 3f be
       -0.13201115 -0.049053177 -0.18979333 -0.18696989
0001a0 ac a2 ae bd 5d 5f 96 be 35 55 69 be 37 d9 05 be
       -0.08527121 -0.2936963 -0.2278641 -0.13071142
0001b0 c4 94 c2 3c a6 4b 6c 3d 03 70 22 3e e9 11 96 3d
       0.023752578 0.05768933 0.15863042 0.07327635
0001c0 4b 0f 22 3e 3c 20 78 3e c8 1f 26 3e bf b4 23 3e
       0.15826146 0.24231046 0.16223061 0.15986918
0001d0 ff 12 9a 3e 00 4b d4 bd 34 e9 94 bd dc f3 27 bd
       0.30092618 -0.103658676 -0.072710425 -0.041004047
0001e0 b5 22 9b bd 0f 24 25 be 09 07 07 be 01 13 00 be
       -0.07574979 -0.16127037 -0.13186277 -0.1250725
0001f0 7d e4 fd bd 37 07 9f bd 7c bb 84 3d 8c 51 28 3e
       -0.12397096 -0.07765048 0.06481072 0.16437358
000200 64 05 78 3e 9c 39 32 3e 68 ca 47 3e 2b 6c c9 3e
       0.24220806 0.17404789 0.19510806 0.39340338
000210 8f 80 87 3e 3c da 92 3e 35 15 01 3f d9 fd 8e bd
       0.2646527 0.28682125 0.50422984 -0.06982011
000220 71 82 c1 bc c7 56 c5 3d f9 e0 e5 bd 68 da 49 bc
       -0.02362177 0.09635692 -0.11224551 -0.0123201385
000230 73 69 cc 3d 8b 6b bd bd cc f3 bf bb 41 2a cc 3d
       0.0998105 -0.09249028 -0.0058579203 0.09968997
000240 50 98 5d be e4 e4 ad be a8 59 b1 be dd ae 49 be
       -0.21640134 -0.33963692 -0.34638715 -0.19695611
000250 c7 15 89 be c0 42 b0 be 84 85 2b be 93 31 75 be
       -0.26774427 -0.34425926 -0.16750151 -0.23944692
000260 40 14 b4 be 5c f0 3b be 7e 4d b2 3c a0 3e 3e 3d
       -0.351717 -0.18353409 0.021765467 0.046446443
000270 0a 61 3e be 12 e3 b7 bd fa ea 66 3d 37 52 af bd
       -0.18591705 -0.08978857 0.056376435 -0.08560603
000280 1a 38 d1 3c bb a5 a0 3d 94 7b 09 3e ab c5 7d 3e
       0.025539447 0.078441106 0.13426048 0.24782436
000290 08 c3 b3 3e c1 a0 3e 3e 94 81 2e 3e 83 ce bb 3e
       0.35109735 0.1861601 0.17041618 0.36680993
0002a0 7f 6a f5 3d c4 ac 92 3e eb 4c be 3e 6e 52 6c be
       0.11983203 0.28647435 0.3716806 -0.2307832
0002b0 86 05 01 be 9c 87 e0 bd 31 90 54 be 36 2e 3b be
       -0.12599763 -0.109633654 -0.2075813 -0.18279347
0002c0 c4 d9 38 be c4 1b 89 be e4 13 5b be 78 d7 22 be
       -0.18051821 -0.26778996 -0.21394306 -0.15902507
0002d0 9f d1 be 3d c4 13 09 bd f7 95 04 bc 4c be 01 3e
       0.09317326 -0.033466116 -0.008092395 0.12670249
0002e0 28 fd 1b 3d ed 16 8e bd 3b d9 ea bc 69 45 9c bd
       0.038083225 -0.069379665 -0.028668037 -0.076304264
0002f0 a4 d9 5a bd 8c 86 19 be ae 3d cf bd 5a e1 8f bd
       -0.053430215 -0.14992732 -0.10119186 -0.07025404
000300 20 b6 2b be 69 c5 6d bc 51 99 91 bd 66 6a 27 bd
       -0.16768694 -0.014512398 -0.07109321 -0.040872954
000310 7b f0 76 3c aa 07 17 3d 15 86 2f be 67 9e e7 bd
       0.015071983 0.036872543 -0.17140992 -0.1130951
000320 21 36 0c bd 89 c2 3c be f6 86 8a bd 89 ec 10 be
       -0.03423131 -0.18433584 -0.06764023 -0.14152731
000330 c1 22 e6 bd 11 d2 88 bd c9 28 08 be 76 69 36 bd
       -0.112370975 -0.06680692 -0.13296808 -0.04453417
000340 9b 34 02 bd 0a 5e 59 3c 89 2b b9 bd 8c 91 c9 bd
       -0.03178845 0.01326705 -0.09041507 -0.09842214
000350 4a 31 16 bd 91 3f f9 bc 65 a5 31 bd d1 5d c6 bc
       -0.0366681 -0.030425819 -0.043370623 -0.024214657
000360 e4 2b 6b be 00 01 26 be 7d 24 9a bd e4 28 8b be
       -0.22965962 -0.16211319 -0.07526491 -0.27179635
000370 6f 52 14 be d0 ce 1d be ff 3e 6c be d2 7f 5f be
       -0.14484571 -0.15410924 -0.23070906 -0.21826103
000380 c2 34 30 be 70 4f 80 3d d2 23 2d 3d 6e 04 df 3d
       -0.17207626 0.062651515 0.04227049 0.10889517
000390 d5 37 0b 3d 81 91 bf 3d bc 57 54 3e f6 45 03 3e
       0.033988792 0.093539245 0.20736593 0.12819657
0003a0 02 d8 0d 3e 93 21 95 3e 34 15 d1 3d 04 65 25 3c
       0.13851932 0.29127178 0.10209122 0.010094885
0003b0 8e 64 59 3d fd 52 f1 3d 9d 7e 2d 3d bb f7 53 3d
       0.053074412 0.11783407 0.042357076 0.051749926
0003c0 29 b1 62 3d 4c 01 8d 3d 44 69 67 3d fb 19 68 3e
       0.055344734 0.06885013 0.056496873 0.22666161
0003d0 c3 80 15 3d 7e f9 ec bc d7 7b 75 3e 9d 59 be 3d
       0.03649975 -0.02892756 0.23973022 0.09294436
0003e0 08 28 27 bd 4c 48 50 3e 2b ba 98 3c 41 b9 90 3c
       -0.04080966 0.20340079 0.01864346 0.017666461
0003f0 1b 30 35 be 81 c2 8b bd 99 d8 09 be 7f 8c 1a be
       -0.17694132 -0.06824208 -0.13461532 -0.15092658

conv_sequence.4.model.0.bias f4 [32]
000000 96 bd 1c bd 07 99 40 3d e9 c4 c8 bb 91 71 5a bd
       -0.03826674 0.04702094 -0.006126989 -0.05333096
000010 61 79 0c 3d 0e 83 cb 3d e6 74 06 bd 3d a7 17 bc
       0.034295443 0.09937106 -0.032826327 -0.009256181
000020 ad e1 31 bd 88 aa 79 bd 91 11 6c bc 7f 9a 9c bd
       -0.04342811 -0.060953647 -0.014408485 -0.07646655
000030 a7 64 c7 3d c6 3e 24 3d ba 4b ac bb 4a 6e ec bc
       0.09735995 0.040098928 -0.0052580507 -0.028861184
000040 8e 57 09 bd 44 e9 28 bd 17 1e 98 3a e2 6a b6 3c
       -0.033530764 -0.041238084 0.0011605647 0.022267763
000050 5d 52 11 3c b6 3e 65 3d 70 1a 10 3d 7e 92 92 3d
       0.008869735 0.05596801 0.035181463 0.071568474
000060 02 ae 28 bb 29 21 6f 39 09 a4 87 bb 45 b6 66 3c
       -0.0025738482 0.0002280517 -0.0041394276 0.014081542
000070 8e be 63 bd f5 2e ad bb 95 cf 8f 3d 79 3a ac 3d
       -0.05560165 -0.0052851387 0.07022015 0.0840959
