MAMLExperiments/src/trained_models/resnet_5shot_5ways.pth (torch, 345652 bytes, 52 tensors)

conv_sequence.0.0.weight f4 [16, 1, 5, 5]
00000000: 515d 23be 96d2 d5bd cb6f 2dbe 2977 a7bd
00000010: f499 9f3d d38e 413d 7429 89be 2ba6 e83d
00000020: 0f3b 28be e4fc e8bd 2123 5d3d 1ea7 fabe
00000030: 4c12 163d bba3 9fbe 4162 05be 1872 3b3e
00000040: f90e 123e 6da5 4b3e fe3b d23d 1e3b 523d
00000050: fad9 92bd 0f85 96be c420 253e 834d ffbd
00000060: ad68 4b3e 16b6 523e 0d4c 4ebd 99e9 a83d
00000070: 8040 a5bd 37c8 6d3e f53e 0abe c521 97be
00000080: ecee 50be d339 37be fbd1 243e fda3 233e
00000090: b4dd 14bd c0f6 b2bc a147 d5bc 0558 863c
000000a0: 283e 29be c23c 8fbe 7811 62bd 5f0e b4bd
000000b0: d3cb 1abe a6b2 1e3e ead7 0fbe 5a17 993d
000000c0: c628 22be 59cf 0fbe 7ad5 86be eb4f 45be
000000d0: 22c0 0fbc 7a92 b33e e8c8 463b 1bbd 84be
000000e0: 847a d6bd cd89 57bc c0df a83d 5fd8 993e
000000f0: 1b37 583d 6c67 853c 905c b23c efa1 df3c
00000100: 48c7 813e 21c9 b7be a835 babd 5b76 0a3e
00000110: f121 753e 890f 3b3e 38fd 58be ed14 7b3e
00000120: 2b06 f83d d8b5 9a3e 86d9 823e bca1 0f3d
00000130: 5bfd e93d 3444 0c3e e75e 0a3e 6df0 6a3e
00000140: e643 5bbd c2d2 873e 2684 7b3e 3c11 d03e
00000150: 83ce 4f3e f685 9dbe 789b 353a 9f0b a33c
00000160: db32 893e 4ca1 d93e 700e 2bbe 08b8 ff3c
00000170: cfe2 6fbe 089e 1dbe cbb7 8c3e d184 0bbe
00000180: 5eeb 9ebd bcb9 69bd 804c 34be 0342 c13d
00000190: 6119 183f d5c6 7d3e c6de 553e 1626 f8bd
000001a0: d508 503d fbc0 7a3e 9b83 b23e 4f00 603d
000001b0: 862e 643d 21ab c33c a2d7 c33e 563e 783e
000001c0: b970 ffbc 8d54 383d 0be2 fc3c b01e 2e3e
000001d0: 9429 c73e ec15 603e 98c4 0e3e 5de8 9e3e
000001e0: d0c1 0f3e d98f 263e f585 693d 971d 3b3e
000001f0: 1479 d43e 93a3 3abe 4968 87bd efcf 1ebd
00000200: 204c 70be eb76 7bbc 362c c73b c306 e8bd
00000210: 0ec2 52be 7dc8 81be bf56 d0bd df4c 30bd
00000220: df9f 37bd f2be c5be bc90 c2be 5a5f cdbd
00000230: eac3 0bbd 69f2 48be e456 fd3c df10 613d
00000240: 82f6 3dbe ce32 14bd 804b 82be 1a9d a2bd
00000250: 7183 5d3d c9a0 ff3c 1378 193e 1346 303c
00000260: 389c b4bd 87a0 60bd 310a 8ebe dbb0 623d
00000270: ba2b 4cbe 88c1 82be 021a cdba 244c 52bd
00000280: 1e16 da3b 3a7b b5be c177 7bbe 39e6 89be
00000290: bbba 08bd 36cc 553d 2b8a 78be 26d7 2fbe
000002a0: bfbd 28be 62c2 ff3c 176e 43bd 744b cc3c
000002b0: 3510 87be 1ede e6bd 7f5a 4fbe a907 2abe
000002c0: 6e41 8bbc 2f11 5f3d 1cc3 0b3d 09db 63bc
000002d0: 9adb 103e c272 283d ebda 98bc 676c 843d
000002e0: d183 3dbe a64c a9bd 9262 66be 7294 903b
000002f0: d12e e8bd 5bc9 e63d c522 313c a9b9 c13d
00000300: 60e8 6c3e 2d31 17be 7c9e cebd cdba 5bbe
00000310: 6dfb 733d 41aa a0bc 89b4 ac3d 603d b0bc
00000320: 6e8c e4bd 1ea3 c2bd cb64 0ebd 8394 4bbb
00000330: 481a 653c 832d d23d 1a33 3bbe 68c4 c23d
00000340: 0235 183e 2244 cd3a b4d8 d2bd bed2 08be
00000350: 14a7 8d3e 5ed2 9f3e b93b 8e3b 0f2f acbd
00000360: bba0 28be 4548 a83e 2627 4ebd 0a6f 98bd
00000370: fde6 a73e 8f07 71bd 34c5 613e 64d5 25be
00000380: 4633 863a d0db 213e 133d c73d 53e3 4b3d
00000390: 5237 383e d287 2c3d 14a8 d9bd 1575 0cbe
000003a0: 4983 793e dfc3 ca3e 006a 513d 73ac 6c3c
000003b0: 3c9b 84bd 94de 113e e0e4 d33e 5811 07bc
000003c0: 0906 f4bd 967a 1dbe 4263 dc3c 1f75 f63e
000003d0: a083 733d bdaa 1bbe fb99 4cbe 8a3f f63b
000003e0: 8493 5c3e 33bc 14bd b8d6 c0be 7226 4abe
000003f0: f87b 333e dfdd 953e eb59 c33e db3f f8bd
-0.15953566 -0.10440557 -0.16937177 -0.08177025 0.07793036 0.04725535 -0.2678944 0.11359819
-0.16428779 -0.1137636 0.05398858 -0.48955625 0.036638543 -0.31179604 -0.13025762 0.18305242
0.14263524 0.19887324 0.10265349 0.05132591 -0.07170482 -0.2939839 0.1612578 -0.12465956
0.1986415 0.20577273 -0.050365496 0.0824768 -0.08068943 0.23220907 -0.13500579 -0.29517952
-0.20403641 -0.17893152 0.16095726 0.15980525 -0.036344245 -0.021846175 -0.026035132 0.016399393
-0.16527617 -0.27976042 -0.05519244 -0.087918036 -0.15116815 0.15497836 -0.14047208 0.07475157
-0.15835866 -0.1404394 -0.26334745 -0.19268768 -0.008773835 0.3507269 0.0030332152 -0.25925526
-0.10472587 -0.013155413 0.08245802 0.3004789 0.052786928 0.016284667 0.021772653 0.027298896
0.25347352 -0.35895637 -0.09092265 0.13521712 0.23938729 0.18267645 -0.21190345 0.24519701
0.121105514 0.3021686 0.25556582 0.03506635 0.11425277 0.13697892 0.13512765 0.22943278
-0.05353155 0.26527983 0.2456213 0.4063815 0.20293622 -0.30766267 0.00069277687 0.019903002
0.26796612 0.42505872 -0.16704726 0.031215683 -0.23426364 -0.15392315 0.27483973 -0.13624884
-0.077597365 -0.057061896 -0.17607307 0.09436419 0.59413725 0.2478288 0.20885763 -0.12116639
0.050789673 0.24487679 0.34866032 0.054687794 0.05570843 0.023885312 0.38250452 0.2424253
-0.03118168 0.04500251 0.030869504 0.17003894 0.3889891 0.21883363 0.13942182 0.31036654
0.14038777 0.16265811 0.057012517 0.18273006 0.41498625 -0.18226461 -0.06611688 -0.03877252
-0.2346654 -0.0153481765 0.0060782684 -0.11329415 -0.20581838 -0.25348273 -0.101727955 -0.04304206
-0.0448302 -0.38622242 -0.3800105 -0.100279525 -0.034122385 -0.19623722 0.030925222 0.05494773
-0.18551067 -0.036181264 -0.25448227 -0.07940121 0.05408043 0.031204598 0.14987211 0.0107588945
-0.08818859 -0.05484059 -0.2774215 0.055344444 -0.19938555 -0.25538278 -0.001564801 -0.051342145
0.0066554686 -0.35445577 -0.24557401 -0.26933458 -0.033381205 0.052196704 -0.24271457 -0.17171916
-0.16478632 0.031220619 -0.04771241 0.024938323 -0.26379552 -0.11272834 -0.20249365 -0.16604485
-0.016998973 0.054459747 0.034121618 -0.0139072025 0.14146271 0.041125067 -0.018659076 0.064659886
-0.18507315 -0.08266573 -0.22498539 0.0044122273 -0.113370545 0.11268874 0.010811512 0.0945924
0.23135519 -0.14764853 -0.10088822 -0.21457978 0.05956595 -0.019612433 0.08432872 -0.02151364
-0.11159597 -0.095037684 -0.034764092 -0.0031063862 0.013983317 0.10262587 -0.18281212 0.09510118
0.14863971 0.0015660564 -0.10295239 -0.13361642 0.27666533 0.31215185 0.0043406156 -0.08407413
-0.16467564 0.32867637 -0.050330304 -0.07443054 0.32793418 -0.0588451 0.22047883 -0.16194683
0.0010238669 0.15806508 0.09728446 0.04977734 0.17989853 0.042121716 -0.106277615 -0.13716538
0.24366488 0.39602563 0.05112648 0.014445412 -0.06474921 0.14245063 0.41385555 -0.008243881
-0.119152136 -0.15378794 0.026902799 0.4813623 0.0594517 -0.1520185 -0.19980614 0.0075148987
0.21540648 -0.036312293 -0.37663817 -0.19741228 0.17527759 0.29270837 0.3815454 -0.121215545

conv_sequence.0.0.bias f4 [16]
00000000: c9df 6cbe 5c11 80bf 1723 c8be db5c 193f
00000010: 5b4d f43c 8cc9 5fbe f511 a9be 6699 adbe
00000020: 3393 a6be 26af 8a3d c6f3 de3e a653 b1be
00000030: f69b b5be 7ea9 ee3d c86b 673e 2e2c 8dbd
-0.23132242 -1.0005298 -0.3908927 0.5990731 0.029822042 -0.21854228 -0.33021513 -0.33906096
-0.3253418 0.06771688 0.4354536 -0.3463413 -0.3547055 0.11653422 0.22599709 -0.06893192

conv_sequence.0.2.weight f4 [16]
00000000: 8e24 823f 4c8a af3f 631a 5d3f 886d 3f3f
00000010: d004 8d3f 1686 8d3f a671 253f bd29 893f
00000020: 7297 0c3f 9a38 513f 051e 8a3e 4829 973f
00000030: 53ba 553f c2e9 ae3f 1079 8a3f 5594 873f
1.0167406 1.371408 0.8636839 0.74776506 1.1017094 1.1056545 0.6462654 1.0715863
0.5491859 0.8172699 0.26976028 1.1809473 0.83487433 1.3665087 1.0818195 1.0592142

conv_sequence.0.2.bias f4 [16]
00000000: 6e19 10bf d84f 1dbf 285c fcbd 7e76 91be
00000010: 69a2 78be 59e5 453c 6cd2 fc3f 1942 01bd
00000020: 3a5c c63e ffe9 08bf 673f 9fbf 46c7 813e
00000030: f5ae 413d 7c80 64be 603c 933e 2a11 c2be
-0.562888 -0.61449957 -0.12322265 -0.28410715 -0.24280705 0.0120786065 1.9751716 -0.031557176
0.38742238 -0.5348205 -1.2441224 0.25347346 0.047285993 -0.22314638 0.28757 -0.3790372

conv_sequence.0.2.running_mean f4 [16]
00000000: 0000 0000 0000 0000 0000 0000 0000 0000
00000010: 0000 0000 0000 0000 0000 0000 0000 0000
00000020: 0000 0000 0000 0000 0000 0000 0000 0000
00000030: 0000 0000 0000 0000 0000 0000 0000 0000
0.0 0.0 0.0 0.0 0.0 0.0 0.0 0.0
0.0 0.0 0.0 0.0 0.0 0.0 0.0 0.0

conv_sequence.0.2.running_var f4 [16]
00000000: 0000 803f 0000 803f 0000 803f 0000 803f
00000010: 0000 803f 0000 803f 0000 803f 0000 803f
00000020: 0000 803f 0000 803f 0000 803f 0000 803f
00000030: 0000 803f 0000 803f 0000 803f 0000 803f
1.0 1.0 1.0 1.0 1.0 1.0 1.0 1.0
1.0 1.0 1.0 1.0 1.0 1.0 1.0 1.0

conv_sequence.0.3.weight f4 [32, 16, 3, 3]
00000000: 30a2 05bd 2c37 793c 4e54 0ebd bddb 993e
00000010: 7d1b b13e 5f0b e43e 6f12 df3e db6b de3e
00000020: f5e2 ca3e 8cb1 293d a3d2 063e 4970 d13d
00000030: 6adb 2d3e 5310 5d3e 6a6b 5f3e 1685 b93d
00000040: 830e 5c3e 3f89 793e 1a57 783d a709 5ebd
00000050: b67f 79bd 357f e43f 8487 d73f 220c 0240
00000060: c934 e93f adad da3f 2a4e f73f 65b3 36bc
00000070: f709 3fbc d1e0 903b 321c 87bf b810 8ebf
00000080: f606 a2bf 168b 8ebf aabd 90bf abc6 9dbf
00000090: 41bc d13c ca52 b43c 80cd ebbb 7b05 543f
000000a0: ebf1 553f 38ad 7d3f 6c20 733f 9db7 4c3f
000000b0: 0377 7f3f 9ca0 87bd e04a d2bc f7fa 633d
000000c0: 9a6e 763e b29f 483e abb1 5d3e 1ca7 383e
000000d0: 62d8 763e 0b92 a33e 9688 d3bd 8538 73bd
000000e0: 4c4d 9dbc 0734 52bf 2db7 4bbf a477 6ebf
000000f0: 3a10 42bf 020a 4dbf daf1 66bf 7bf2 96bd
00000100: c9ad 813d fc55 eabc b074 94be 1c36 21be
00000110: d9f4 82be 5221 54be 4510 28be de6d 8abe
00000120: d97f b23c 79cd 96bc 12a5 c7bd 4c1f bd3e
00000130: 7875 8d3e 457d fe3e 724c b93e 5dd2 963e
00000140: 2b5f c53e 618b 6ab9 6362 263b 6a6a d6bb
00000150: 8bc6 983f acfc 9d3f f89f ba3f 35c0 963f
00000160: 988c a53f b91f b33f a934 b63d dfd4 473d
00000170: f584 39bd 4898 ae3f 256d ba3f 6eef da3f
00000180: 979f b73f 6993 b33f f4f4 d93f dad4 a6bd
00000190: a715 ffbd 11d2 8a3c f88e bd3e b05a d83e
000001a0: a1e6 eb3e 8936 003f 34fb c93e f2ed d93e
000001b0: 778f 123d 8e34 a33d e15b 94bd d9cb b53e
000001c0: 498b 713e 1227 cc3e 2272 ed3e 7f7d d63e
000001d0: 37cf c03e 3195 ce3b 82f3 803d 146d 573d
000001e0: a222 e43f b503 df3f c122 0940 84c0 f23f
000001f0: 7bb0 e53f 6529 0d40 f8f1 69bd ca71 8ebd
00000200: 5c20 42be ee90 973e c149 813e 9f5b c23e
00000210: e282 c23e 3581 ce3e ebf5 d03e f135 bc3d
00000220: 22e9 23b9 6d63 b23d eb2f d23f 9157 da3f
00000230: bc19 fc3f 08f2 c73f a9c8 c53f ba3d f93f
00000240: 41f5 93bd 0c3c 133c 7c41 babd df1a 46bc
00000250: 25be 313d bdc3 8d3b f4c7 c03d 3b3d f73d
00000260: 51a9 14bc 00d4 2ebc 2f28 64bd 51cb 9bba
00000270: 8ed1 663d 8050 13bd 480b f4bd a910 3cbd
00000280: ea59 a6bd 465c dcbc e554 bcbd 5a32 dfbd
00000290: 9a8e d7bd f87a 1e3d daeb 09bc d704 c9bd
000002a0: e22d 113a 5350 b2bc 4932 9dbc 2238 473d
000002b0: 8223 2abd 9de9 edbd 0f4b b53c 1731 a0bd
000002c0: 718a ccbd 542e 40bd a01e cfbd 0329 28bd
000002d0: ba75 d0bd bd64 82bd 600a f13c 691d 48bd
000002e0: cfdb fcbd 692c 90bd b515 43bd 44c3 dd3c
000002f0: 2345 debd 4eb1 04be a2e5 85bd 295a 48bd
00000300: 05c8 833c 4dca 21bd 39ff acbd 12de 3a3d
00000310: 9a30 c6bd 7eac f73a 0b3f e4bc 36c2 0e3e
00000320: 2590 1a3e 93a1 d9b8 b5b8 8cbd 29d3 13bc
00000330: c1af d6bc cc80 d93d f234 693d c7cd aebd
00000340: 3295 c6bd c510 79bd 7576 a5bc a773 e13c
00000350: 8861 003d 0355 94ba 4ba9 37bd 986a cf3c
00000360: bb49 11bd b67b d5bd 23c3 24bd 3adb 6f3b
00000370: 2274 2e3d 4714 8ebc c2c1 80bd 10e6 10bd
00000380: 9993 8cbc b0c4 cf3c d4fc 223d 2891 f9bc
00000390: b638 5e3b ae0e fabc 73fc 9a3d 87ea 533d
000003a0: 94fd 7abd 939f 6d3d 5560 c43d ae88 0a3d
000003b0: 83ae fe3b 7e21 a23d 8d26 ae3d fc62 be3d
000003c0: c67c d43d 20f9 f7bc 3f91 31bd 516a b4bc
000003d0: b0a1 04be 39d7 91bd e6b4 d0bd bfed 3bbd
000003e0: d5f6 e6bd eb81 91bd 5bf8 2f3d 93e8 90bd
000003f0: 1c9b 7fbd 222d fcbd d300 adbd 7cd8 25be
-0.032625377 0.015210908 -0.034748368 0.3005046 0.34591284 0.44539925 0.4356875 0.43441662
0.3962628 0.041429088 0.13166289 0.10226495 0.16978231 0.21588258 0.21818319 0.09058587
0.21489911 0.24368761 0.06062994 -0.054208424 -0.06091281 1.785132 1.6838231 2.0319905
1.8219234 1.7084252 1.9320729 -0.011151169 -0.011660091 0.0044213315 -1.055548 -1.1098852
-1.2658374 -1.1136196 -1.1307881 -1.2326254 0.025602462 0.022012133 -0.0071961284 0.8282086
0.8357226 0.99092436 0.94971347 0.7996767 0.9979097 -0.06622431 -0.025670469 0.05565926
0.24065629 0.19592169 0.21649806 0.18032497 0.24105981 0.3194736 -0.10328786 -0.059380073
-0.019201897 -0.8211064 -0.7957638 -0.9315131 -0.7580601 -0.80093396 -0.90212786 -0.07370468
0.06331975 -0.028605454 -0.28995275 -0.15743297 -0.2557743 -0.20715836 -0.16412456 -0.27036947
0.021789478 -0.018408524 -0.097482815 0.3693794 0.27628684 0.49704948 0.36191136 0.2945737
0.3854917 -0.00022367902 0.0025388233 -0.0065434473 1.193559 1.2342734 1.4580069 1.1777407
1.2933531 1.3994056 0.08896763 0.048786994 -0.045292813 1.3640223 1.4564558 1.7104318
1.4345578 1.4029361 1.7027879 -0.08146067 -0.12455302 0.01694587 0.3702314 0.4225669
0.46074393 0.50083214 0.39449465 0.4256435 0.03578135 0.079690084 -0.07244087 0.35507086
0.2358829 0.39873558 0.4637614 0.4189262 0.37658092 0.006304406 0.062964454 0.05259426
1.7823069 1.7423006 2.1427462 1.8965001 1.7944483 2.2056515 -0.057115525 -0.06955297
-0.18957657 0.2960276 0.25251582 0.37960526 0.3799048 0.40332952 0.4081262 0.09189976
-0.0001563174 0.0871037 1.6420873 1.7057973 1.9695354 1.5620737 1.5451862 1.9471962
-0.07224513 0.008986484 -0.090945214 -0.0120913675 0.043394227 0.0043263123 0.09413138 0.12072226
-0.009073571 -0.010670662 -0.055702385 -0.0011886155 0.05635219 -0.035965443 -0.11916214 -0.045914326
-0.081226185 -0.026899468 -0.0919588 -0.10898276 -0.10525246 0.03869149 -0.008418048 -0.09815376
0.0005538148 -0.021766817 -0.019189017 0.048637517 -0.04153777 -0.11616824 0.022130517 -0.07821863
-0.09987343 -0.046919182 -0.10113263 -0.041054737 -0.101787046 -0.063668706 0.029423892 -0.048856173
-0.12346613 -0.070397206 -0.047628123 0.027070649 -0.108530305 -0.12958261 -0.065379396 -0.04891411
0.016086588 -0.03949957 -0.08447117 0.04562194 -0.09677239 0.0018896011 -0.027862092 0.13941273
0.1509405 -0.00010377462 -0.068711676 -0.0090225125 -0.026206853 0.10620269 0.05693526 -0.08535343
-0.096964255 -0.06080701 -0.020198086 0.027520968 0.031343013 -0.0011316839 -0.044839185 0.025319383
-0.035470705 -0.104239866 -0.04022516 0.0036599175 0.04259122 -0.017343653 -0.06286956 -0.035375655
-0.017160224 0.025362343 0.039791897 -0.030464724 0.0033908314 -0.030524578 0.07567682 0.051737335
-0.061276987 0.05801351 0.095886864 0.033821754 0.0077722683 0.079165444 0.08503447 0.092962235
0.10375361 -0.03027016 -0.043351408 -0.022023352 -0.12952304 -0.071211286 -0.10190754 -0.04588103
-0.11277548 -0.07104858 0.04296146 -0.0707561 -0.062403783 -0.12313296 -0.08447423 -0.16195863

conv_sequence.0.3.bias f4 [32]
00000000: b0fc 9cbf 16f1 2bbc ddfd 8b3d 2031 fb3e
00000010: 1646 353a 3d34 fe3b 02eb 113e 73b1 eabd
00000020: d47f 81bd 2735 1cbe dd43 4f3d 6642 ed3c
00000030: 3d14 a23d e33d 523d d15f 57bc 4509 5c3d
00000040: dea2 cbbc 6ab4 b33d 5f5a 213e 2a9f cd3d
00000050: 6fad 28bd 246c 1ebc 75b8 27bd 7e37 75bd
00000060: 44f9 d8bc 20f4 d93d dbbc ab3c 9f5b 933c
00000070: 69d9 c4bd a586 0a3d 3193 0c3c 8d58 0dbe
-1.2264614 -0.010494491 0.0683553 0.49060917 0.00069150457 0.007757692 0.14249805 -0.11459627
-0.063232094 -0.15254651 0.05060183 0.028962325 0.079140164 0.05132855 -0.013145403 0.053719778
-0.024857935 0.087746456 0.1575713 0.10040124 -0.041181024 -0.009669337 -0.040947396 -0.059867375
-0.026486047 0.10642266 0.020964077 0.017988024 -0.0961178 0.033819813 0.008580015 -0.1380331

conv_sequence.0.5.weight f4 [32]
00000000: 6ae9 753f 3033 4c3f b055 543f a336 7e3f
00000010: 9e3d 663f a520 373f 0827 4f3f f3b0 913f
00000020: ae02 383f f53b 8d3f 62ec 7f3f 24d5 5d3f
00000030: 4d6d 223f 3f3c 573f b2ec 333f 0c7b 853f
00000040: 9241 813f 834f 263f a892 dd3f c74f a13f
00000050: 5ec5 603f 61ec 5f3f 568e 783f 8e59 6c3f
00000060: d44f 6b3f e1fc 903f 6b33 6e3f fcb7 593f
00000070: 6367 643f ed1f 7c3f 4b1d e83f d584 733f
0.96059287 0.79765606 0.8294325 0.9930212 0.8993777 0.71534187 0.8091893 1.1382126
0.7187909 1.1033922 0.99970067 0.8665335 0.6344803 0.84076303 0.70283043 1.0428176
1.0098135 0.64965075 1.7310381 1.2602471 0.8780116 0.8747006 0.9709219 0.9232415
0.91918683 1.1327173 0.9304721 0.8504636 0.89220256 0.98486215 1.813394 0.9512456

conv_sequence.0.5.bias f4 [32]
00000000: 840e 553e 0120 b43e ce2a 0b3e 92a7 ac3e
00000010: 2343 993c 2b7e 2dbe 44e5 b03d e3e8 febd
00000020: a139 0cbd 65ef 913e efed 37be 0014 3a3e
00000030: 590c 443d b8c4 cdbe db46 c1be df97 2d3e
00000040: 3e65 5b3e 7ca2 ca3d 422e cc3e 8f2c b13e
00000050: 306f 30bc 43c6 21be 0336 afbe acd8 d53d
00000060: 2451 1ebe da80 e5be cbe5 553e 5484 87bc
00000070: 520f 2d3d 7ad2 90be 5ad6 23be 5bb5 e6bd
0.20806319 0.35180667 0.13590547 0.33721596 0.018708771 -0.1694266 0.08637479 -0.12446763
-0.034234647 0.28502956 -0.17961858 0.18171692 0.04786334 -0.40189147 -0.3774937 0.16952465
0.2142534 0.09894273 0.39879042 0.34604308 -0.010768697 -0.15798287 -0.34220895 0.104417175
-0.1546064 -0.44824868 0.2088844 -0.016542591 0.04225094 -0.2828558 -0.15999737 -0.112650596

conv_sequence.0.5.running_mean f4 [32]
00000000: 0000 0000 0000 0000 0000 0000 0000 0000
00000010: 0000 0000 0000 0000 0000 0000 0000 0000
00000020: 0000 0000 0000 0000 0000 0000 0000 0000
00000030: 0000 0000 0000 0000 0000 0000 0000 0000
00000040: 0000 0000 0000 0000 0000 0000 0000 0000
00000050: 0000 0000 0000 0000 0000 0000 0000 0000
00000060: 0000 0000 0000 0000 0000 0000 0000 0000
00000070: 0000 0000 0000 0000 0000 0000 0000 0000
0.0 0.0 0.0 0.0 0.0 0.0 0.0 0.0
0.0 0.0 0.0 0.0 0.0 0.0 0.0 0.0
0.0 0.0 0.0 0.0 0.0 0.0 0.0 0.0
0.0 0.0 0.0 0.0 0.0 0.0 0.0 0.0

conv_sequence.0.5.running_var f4 [32]
00000000: 0000 803f 0000 803f 0000 803f 0000 803f
00000010: 0000 803f 0000 803f 0000 803f 0000 803f
00000020: 0000 803f 0000 803f 0000 803f 0000 803f
00000030: 0000 803f 0000 803f 0000 803f 0000 803f
00000040: 0000 803f 0000 803f 0000 803f 0000 803f
00000050: 0000 803f 0000 803f 0000 803f 0000 803f
00000060: 0000 803f 0000 803f 0000 803f 0000 803f
00000070: 0000 803f 0000 803f 0000 803f 0000 803f
1.0 1.0 1.0 1.0 1.0 1.0 1.0 1.0
1.0 1.0 1.0 1.0 1.0 1.0 1.0 1.0
1.0 1.0 1.0 1.0 1.0 1.0 1.0 1.0
1.0 1.0 1.0 1.0 1.0 1.0 1.0 1.0

conv_sequence.1.model.0.weight f4 [32, 32, 3, 3]
00000000: ae5c ccbd 7f75 c9bd 34ed 7ebd a4d7 a4bd
00000010: df88 0dbe fdd1 fdbd 820e c2bd 35e6 d8bd
00000020: b506 8bbd 8bf7 0fbe 13d9 40bd df49 82bd
00000030: d8e4 a1bd 72a8 39bd 631a 5abd 470e c5bd
00000040: ee9d a3bd 666c 73bd b243 d1bd eca7 15bd
00000050: 4e2e 22bd 05d9 cdbd 73a7 aebd 7234 bebd
00000060: 01c2 d9bd 3d5b 22bd b240 f8bd 41bf 8ebd
00000070: f032 86bd 6f61 e5bd 6600 e0bd 8fb1 03be
00000080: 75ff afbd 6ba6 5cbd 0df3 19bd 947c bbbd
00000090: d392 e0bc 5f4b 02bd 6354 4fbb 604f 633d
000000a0: 6cc3 debc e2d0 30bd 6a03 f9bb 3576 d13c
000000b0: ab7e 10bd 03c5 d93c b23d c3bc e7b5 0b3d
000000c0: 8dd2 2cbd bc94 513c aa4a 0f3c 3876 713d
000000d0: 34e4 8abc 5565 913c 382e b6bb 5e00 a53c
000000e0: 1c93 cf3c 4c2e 61bd 34cf 1ebc 7417 423d
000000f0: eb6a 12bd 1160 88bd e0fe 4ebd 5aff e33d
00000100: 3c50 9a3a 0d46 c43d 6df7 5a3d 6638 6d3d
00000110: a1d8 993d 6a6a 813d 3c91 4c3d 96bd 3f3d
00000120: 0dba 7ebc 020b dcba d038 373d 05d3 46bd
00000130: 647b ea3c 2a81 cb3c 879b 843c 2de8 e4bc
00000140: c243 be3c 8a62 debd c22f 64bd 0ca9 d0bc
00000150: 1f3d dbbd 407c 6bbd 5603 0abe 84bb edbd
00000160: a8bd cbbd 98e9 c9bc c081 0e3d 59a1 133c
00000170: 294b cc3d df08 0b3e 0b7f ea3d 7cf7 0c3d
00000180: 5aa6 c53d 92f7 213e 843b 713d ee71 83bd
00000190: 25c1 10bd 0a5b 433d 4510 c63c 4979 b4bc
000001a0: ec64 b5bc 6097 2b3d 529e b1bd cc0d a6bd
000001b0: bcdc 6e3c 3b28 efbc 38e3 853a ce0a 0ebd
000001c0: b4f4 443d d35d c6bc bb4b 613b 4ae8 6abd
000001d0: 09c3 febb 3817 943d 8631 f53d be6b 2c3d
000001e0: 1ad6 1d3e 9658 a53d 4ae0 aa3d 61a1 1f3e
000001f0: b9b9 b63d 2b61 0d3e c167 fb3d a4fe af3d
00000200: e12d 643a e97a db3c 7e15 c43c 4cda 593d
00000210: 5c10 b33c 115f b63d 670e 5d3c 8cb3 003d
00000220: 19b2 093c 6768 fb3c 6c7e 4dbb 25cb 36bb
00000230: 441a 8cbd abbe a5bd e649 52bd d6ce 44bd
00000240: 4c69 a83c a483 d7bc edc3 3bbd 3721 3dbc
00000250: 9d48 32bd 6629 bebd f25e 2fbc 5250 74bc
00000260: afba 80bd b635 d43c 46be b1bc 5ddb b5ba
00000270: 2439 233c 7e3d c43c c909 91bd 037a 663c
00000280: b7cc 28bc 9f2f 52bd a307 7abe f086 7cbe
00000290: 4e3a 1dbe 91b4 85be f305 2cbe 4a8f 08be
000002a0: 90a3 59be c454 39be 202c 16be 44dd 0abe
000002b0: dead 7dbd 2797 d3bc e44b 06be d715 22be
000002c0: bc9b e3bd d451 3cbe 5513 16be c792 7cbd
000002d0: a79c 16bd cde8 053d 2678 693c 4618 033d
000002e0: 9403 193d b131 673c ccf2 0dbd a28a 3f3d
000002f0: 4f07 7dbd 5882 6f3c 5260 193b ae03 bcba
00000300: ac77 5e3d 9763 263c 0266 f5bb 302d 263c
00000310: 4cc1 e43d 476e 0c3c ff3c c63d 6f5b 893d
00000320: a240 1a3d 68ac 713d e51a 113e ad0e e33d
00000330: 013d 063e a771 193e b9e1 5d3d 1d2d edbc
00000340: d550 283b 5cc0 cb3b 0947 8ebd 7156 90bc
00000350: d278 76bc 3f28 bbbb 8c56 a2bc 7f83 7c3b
00000360: fccb b83c 8fbc d2bc d9ce bf3c 53b8 1bbd
00000370: 5164 8e3d 8f66 01bc 2e15 1bbc 8b44 a93d
00000380: 9538 b33d ac3f 353e 80a2 203e a53b e83d
00000390: 3e63 b63d 68ed 2d3e 0e24 a53d f62e 053e
000003a0: 22d7 283e 3d14 013e f59e aabd 0cb7 32bd
000003b0: e5b8 a6bd 1e31 38bd 54b1 0cbd 8d7c cdbd
000003c0: d691 16bd ac3a 1bbd c462 88bc 32c9 32bc
000003d0: 5f4e a9bc bf26 4ebd 63bb 243d ae29 0c3d
000003e0: cbbf fdbc c5c1 ed3b d534 aa3b 5ba7 03bd
000003f0: 4b4d 073c 70e2 0cbd 092a 833d 42fb a53d
-0.09978615 -0.09836864 -0.062237933 -0.08048943 -0.13821743 -0.12393568 -0.094754234 -0.105907835
-0.06788389 -0.14059274 -0.047082018 -0.06361746 -0.079049766 -0.045326658 -0.05324782 -0.09621864
-0.07989107 -0.05942955 -0.1021799 -0.036537096 -0.03959494 -0.10051159 -0.08528032 -0.09287347
-0.106327064 -0.039637793 -0.12121715 -0.069700725 -0.06552684 -0.112002246 -0.10937576 -0.12860702
-0.085936464 -0.053869646 -0.037585307 -0.09154621 -0.027413761 -0.03181016 -0.0031635992 0.05549562
-0.027192794 -0.043167956 -0.007599284 0.02556906 -0.03527705 0.0265832 -0.02383313 0.034109022
-0.042192984 0.012791809 0.008745829 0.058950633 -0.016954519 0.017748514 -0.005559709 0.020141777
0.025338702 -0.054975793 -0.009692956 0.047385648 -0.035746496 -0.06658948 -0.050536036 0.11132689
0.0011773179 0.095836736 0.05345862 0.057915114 0.07512022 0.06319125 0.049943194 0.046811663
-0.015547288 -0.0016787949 0.044731915 -0.048541088 0.02862329 0.024841864 0.016187442 -0.027942741
0.023225669 -0.108586386 -0.055709608 -0.025471233 -0.10705017 -0.05749154 -0.13477835 -0.116080314
-0.099482834 -0.024647519 0.034791708 0.009010636 0.09975273 0.13577603 0.11450013 0.034415707
0.0965087 0.15817097 0.05889465 -0.06418215 -0.035340447 0.047694243 0.02417768 -0.02203049
-0.02214285 0.04189241 -0.08672775 -0.081081 0.014578994 -0.029193988 0.0010214811 -0.034678273
0.04808493 -0.02421466 0.0034377414 -0.057350434 -0.007774715 0.07230991 0.119723365 0.04209494
0.15413705 0.08073537 0.08343561 0.15588905 0.089221425 0.13806598 0.12275649 0.08593491
0.0008704346 0.026792007 0.02393603 0.0531867 0.021858387 0.08904851 0.013492203 0.03142123
0.008404278 0.030689431 -0.003135587 -0.002789208 -0.06840947 -0.08093008 -0.051340006 -0.048048817
0.020558022 -0.026307888 -0.045841146 -0.011543564 -0.04352628 -0.0928524 -0.010703789 -0.014911728
-0.06285607 0.025904518 -0.021697175 -0.001387458 0.009962354 0.023955103 -0.070819445 0.014067176
-0.010302714 -0.051314946 -0.24416976 -0.2466085 -0.15354273 -0.26114324 -0.16799144 -0.1333591
-0.212538 -0.18098742 -0.1466527 -0.13560969 -0.06193339 -0.025828911 -0.13114887 -0.15828644
-0.11113688 -0.1839059 -0.14655812 -0.061663415 -0.03677049 0.03269272 0.014249837 0.03200557
0.037356928 0.014110968 -0.034655377 0.04676307 -0.06177455 0.014618479 0.0023403359 -0.0014344358
0.054313347 0.01015558 -0.007488967 0.0101426095 0.11169681 0.008571214 0.09679603 0.06706893
0.037659295 0.05900231 0.14170416 0.110867836 0.13109209 0.14984761 0.054170344 -0.028952176
0.0025682945 0.0062179994 -0.06947143 -0.017619343 -0.015043454 -0.005711585 -0.01981666 0.0038530526
0.022558205 -0.025724677 0.023414062 -0.038017582 0.069527276 -0.007897987 -0.009465499 0.08265027
0.087510265 0.1770007 0.15686989 0.11339501 0.08905648 0.16985095 0.080635175 0.13006195
0.16488317 0.12605377 -0.083311 -0.0436316 -0.081407346 -0.044968717 -0.0343488 -0.10033522
-0.036760174 -0.03789775 -0.016648658 -0.0109122265 -0.020667253 -0.05032992 0.04021777 0.034219436
-0.030975243 0.007255765 0.0051942864 -0.032142024 0.008258174 -0.034395635 0.06404502 0.08104564

conv_sequence.1.model.0.bias f4 [32]
00000000: 00ca 88bd 85e1 963c 38ad b2bc f109 aabc
00000010: 30d9 ab3c 49ab b1ba db63 1b3d 1d52 8dbd
00000020: c856 cc3a 1184 6d3d 5c9d 80bd 9e93 08bd
00000030: c238 b43d 85f6 50bc a282 033c 5e07 d73c
00000040: 19b4 6dbc 0d45 fb3b f493 f8ba e425 393d
00000050: b177 30bd ab34 eb3b a753 de3c 39a8 733d
00000060: ac7c 9ebc eb9e 303d 9d92 29bd 9b8a 9dbd
00000070: cfeb 40bd 009a a6bc 412b 53bd 65fd 843d
-0.066791534 0.018418083 -0.021811113 -0.020756694 0.020977587 -0.0013555075 0.037937026 -0.069004275
0.0015589828 0.057987276 -0.06280014 -0.033343904 0.08799888 -0.012754087 0.008026751 0.02624863
-0.014508271 0.0076681436 -0.0018964992 0.04520215 -0.043082897 0.0071779094 0.027139498 0.0594866
-0.019346558 0.043120306 -0.041399587 -0.076924525 -0.047099885 -0.020337105 -0.051554922 0.06493644

conv_sequence.1.model.1.weight f4 [32, 32, 3, 3]
00000000: 3d9b ac3d 8dad 3bbc f14f 7a3b a020 22bc
00000010: b800 7c3d 3309 063d ce43 c23d b5d9 4cba
00000020: 1988 533d 55fb cc3c a1c0 893d d841 703d
00000030: 73cb 873c 63e6 b63d d3d4 923c 6e2f 193d
00000040: 6c9d 3fbc 2b07 d13d 297b dd3d 7c86 863d
00000050: 5e34 fb3d 7414 4c3d 6703 253d a0c2 983d
00000060: cfb9 833d c01c 153c 7556 a23d bc05 3dbd
00000070: 9f6c 08bd a6b0 5fbc e4dd 973c a965 053d
00000080: f009 3dbd b0c0 ea3c 1e4f a03b 2e4d fe3b
00000090: 6d6e 843d e1d1 283d ccfb 1ebc 1d8b 7e3d
000000a0: c7e4 893d 0962 a93d b1dc 893c 92a1 a13d
000000b0: 5249 ce3d 2a4a 123d c44d 08bd f5f4 533d
000000c0: f3ed 32bc 776f 133d 2d89 453d 3274 6a3d
000000d0: 7e26 3abd c01c 84bc 76e1 5c3b b801 7c3b
000000e0: 3ab9 743d ab7d 133c 7164 16bd a60c 753d
000000f0: 5d68 5cbd 804e 883d de05 523b e90f 0dbd
00000100: 14f7 9abd 7f91 b93c 7d98 39bd 29bf 233d
00000110: 570a 6abd 4b11 0d3d b368 e9bc 31a1 52bd
00000120: ee39 963d 15a7 603d 049a b03d eb43 873d
00000130: 3b23 763d 2532 833d 7ba3 8d3c c362 3a3d
00000140: 9d89 cc3c 6fe9 933d dc49 e2bb 70a4 14bd
00000150: c5d1 913c f203 4abd 6e4b 4f3d 3647 c7bc
00000160: c1ea e9bb 0acf 45bb 7f2b 2cbd eeb0 2cbd
00000170: 96e5 663b 5415 87bd 25da 80bd b864 e5bc
00000180: a843 873b 2835 a43c 5593 9bbd ce47 923d
00000190: 0be3 62bc 8b4f de3b 069c 7b3d 8204 4b3d
000001a0: fef0 773d 9d03 553c 4ef2 a43b 40f1 4fbc
000001b0: 4086 64bd 5def a4bd cd75 113c 1865 63bd
000001c0: 2189 36bd 5582 9bbc b155 58bd 2443 81bd
000001d0: 9369 92bd 1182 9e3d a202 ba3d 0390 d23c
000001e0: 240c 883d 93f2 0e3d 0fed 323d 99af 393d
000001f0: c3d1 393d 5806 ee3c 87b3 d13c cebe 65bd
00000200: 2e06 23bd a6c1 bb3c e9ca c3bc b7b7 13bd
00000210: 5e05 5cbc 3c64 48bd 220f 52bc 9186 e9bd
00000220: bb79 85bd c077 53bd e0c1 a6bd d37c 18bd
00000230: 2fd9 9ebd e454 b2bb 89b0 a5bd 5331 3bbd
00000240: 388c c2bc 5df6 a23d c7fe 903c 7fdf c63c
00000250: 5a7b 013d 25b9 9a3b 5dcb 9e3c 4085 943d
00000260: a841 c43c cbae debc e866 0b3b f129 62ba
00000270: 113b 253d 75ed 37bd 2879 223c 7994 a13b
00000280: f3a8 f1bc 6515 efbc 904d 87bd 8bb3 29bd
00000290: 7c48 c03b 674f a1bd 3125 533a bc27 06bc
000002a0: 3374 63bd 07fc a5bd 27a2 a4bd 7cd3 973c
000002b0: 182e 4b3c 73e6 2cbd 6c2d b8bd 68a6 a9bd
000002c0: 0672 ecbc 7835 7dbd 97df eb3b ebb7 64bd
000002d0: 9e10 593c bb86 b1bc 3145 cfbb cf6c 673c
000002e0: cc04 98bd 1b78 82bd 691d 05bd fc4b 3abd
000002f0: 0ad4 203d 99e0 ec3b f2aa 523d 6e80 ec3b
00000300: 46f4 513d bdbe 2b3d 9ec8 0cbd 65c4 a63c
00000310: 06eb 20bd 9d03 4dbd a27d 90bd a529 b3bd
00000320: 5837 d03c c434 d5ba 2c8d b0bd 1b22 c1bc
00000330: 27a3 a1bd 7087 20bb 38c8 0a3c 06b1 a6bc
00000340: 0b02 6e3d 1dd4 dd3d b7b5 a83d a4d3 cb3d
00000350: 8207 7d3d 598d 3c3c 3717 aa3d 577f 793c
00000360: 2bf6 203c 56cc 173d bb90 d13c 58ab 87bd
00000370: 2188 4d3d e463 16bb eda0 69bd 1129 873c
00000380: 8720 d9bc 5075 4dbd f472 47bd e633 f13a
00000390: d519 afbc b651 7cbd 95ba 43bd 3a4e abbc
000003a0: bb75 80bd 3612 9e3b 709b ef3c 5ac0 913d
000003b0: 8b4b 833d 59fd a13d d0fa 45ba cadd dc3c
000003c0: 4997 ce3b a8d0 4e3c 6992 013d 9937 2f3c
000003d0: 5e60 213c 773d 4dbd 5c01 523d 4824 e0bc
000003e0: cb05 373c f736 233c 51af 263b ed20 6b3c
000003f0: 40a4 aa3b 7c13 67bd 143c 0ebd cfab 5a3c
0.08428047 -0.011454952 0.0038194621 -0.009895474 0.061524123 0.032723617 0.09485589 -0.00078144233
0.051643465 0.025022188 0.06726194 0.058656543 0.016576504 0.089306615 0.017923748 0.037398748
-0.011695247 0.10206445 0.108145066 0.065686196 0.122658476 0.049824193 0.040286448 0.07458997
0.064319246 0.009101093 0.079266466 -0.046148047 -0.033306714 -0.013652956 0.018538423 0.032567654
-0.046152055 0.028656334 0.004892244 0.0077606654 0.064663745 0.04121578 -0.009703588 0.062144388
0.06733089 0.08270652 0.016828867 0.07892145 0.100725785 0.03571526 -0.033277288 0.05174728
-0.010920989 0.035994973 0.048226524 0.05723972 -0.045446865 -0.01612699 0.003370372 0.0038453173
0.05974696 0.00900213 -0.036716882 0.059826516 -0.053810466 0.06655598 0.0032046954 -0.034439
-0.07566658 0.022652386 -0.04531144 0.039977226 -0.057138767 0.03444032 -0.028492307 -0.051423255
0.07335268 0.05484684 0.08623126 0.06604751 0.060092192 0.06406049 0.017289868 0.045504343
0.024967963 0.07222258 -0.0069057774 -0.036289632 0.017800221 -0.04932017 0.050609045 -0.024325948
-0.0071385805 -0.003018322 -0.04203367 -0.04216092 0.0035232059 -0.06595865 -0.06291608 -0.028002128
0.0041279383 0.020044878 -0.07596461 0.07142602 -0.013848077 0.0067843846 0.061428092 0.049564846
0.060532562 0.01300135 0.005033768 -0.012691796 -0.055792093 -0.080534674 0.008878184 -0.055516332
-0.04456437 -0.018983046 -0.052816097 -0.06311634 -0.07149043 0.07739652 0.090825334 0.025703436
0.06642941 0.034899306 0.043683108 0.04533348 0.04536606 0.02905576 0.0255983 -0.05609017
-0.039800815 0.022919487 -0.023900466 -0.036063876 -0.013429014 -0.048923716 -0.012820991 -0.1140262
-0.06517359 -0.051627874 -0.081424475 -0.037228417 -0.07756268 -0.0054422487 -0.08090312 -0.045701336
-0.023748502 0.07957146 0.017699612 0.024276493 0.031611778 0.004721778 0.01938408 0.07251978
0.023957089 -0.027182957 0.0021271054 -0.00086274656 0.040339533 -0.04490419 0.009916581 0.0049310294
-0.029499507 -0.029185006 -0.06606591 -0.04143099 0.005868016 -0.07876473 0.0008054553 -0.008188184
-0.055530738 -0.08104711 -0.080387406 0.01853346 0.012401126 -0.04221196 -0.089930385 -0.082836926
-0.028862964 -0.06181857 0.007198285 -0.05583946 0.013248591 -0.02167069 -0.006325387 0.014125063
-0.0742279 -0.063705646 -0.03249875 -0.04548262 0.039264716 0.0072289226 0.051432557 0.0072174584
0.051258348 0.04192995 -0.03437101 0.02035732 -0.039286636 -0.050052274 -0.070552126 -0.087481774
0.025417015 -0.0016266336 -0.086206764 -0.023575833 -0.07892447 -0.002449479 0.008470587 -0.020348083
0.058107417 0.10831473 0.08237784 0.099524766 0.061774738 0.011508309 0.08305209 0.015228114
0.009824316 0.037060104 0.025581708 -0.06624478 0.05017865 -0.0022947723 -0.057038236 0.016499074
-0.026504768 -0.050160706 -0.048693612 0.0018402308 -0.021374622 -0.061601363 -0.04778536 -0.020911325
-0.06272455 0.0048239483 0.029248923 0.07116766 0.06410893 0.0790965 -0.00075523276 0.026961226
0.0063046557 0.01262299 0.03163377 0.010694408 0.009849636 -0.050107446 0.051270828 -0.02736105
0.011170815 0.009961835 0.0025434087 0.014351112 0.0052075684 -0.056415066 -0.034725264 0.013346626

conv_sequence.1.model.1.bias f4 [32]
00000000: 2834 6ebd 4500 8ebc c8f0 1dbc 0a7e 86bd
00000010: 714b c7bc e50f 503c 24b9 5fbc 2e41 7bbc
00000020: c774 b33c 7b85 c43c 8bcd e0bc 45d2 993c
00000030: 38a5 60bd 4b89 293d d45c 8bbc 5685 a83c
00000040: 084a e1bc 4582 31bc 58cd 77bd f764 ddbb
00000050: b0dd 6a3d 9c06 27bb 7082 853d 42b2 efbc
00000060: 7dfa 0bbc bf0c 3abc 3ee9 d43c a9e8 ce3c
00000070: eefa bdbc 1ce3 cbbc acf8 2abd dcdf 483c
-0.05815521 -0.017334113 -0.009639926 -0.06567009 -0.024327965 0.012699102 -0.013654981 -0.015335364
0.02190627 0.02398943 -0.02744176 0.018777022 -0.054845065 0.0413907 -0.017012037 0.020571392
-0.027501121 -0.010834281 -0.060498565 -0.0067564207 0.057340324 -0.0025486117 0.065190196 -0.029259805
-0.008543608 -0.011355578 0.025990125 0.025257425 -0.023190942 -0.024888568 -0.04174106 0.0122604035

conv_sequence.3.weight f4 [32]
00000000: 0e8c 2b3f 733b c33f d4b3 2f3f 9f03 333e
00000010: b5bc 953f c6d2 653f f601 6c3f c89d 763f
00000020: 578a b03f 3173 8b3f afcf cd3f 4c62 533f
00000030: 9f4e 6c3f 2d7f d53f cb32 c03f 95d1 7d3f
00000040: d649 2a3f 5718 4e3f e296 cd3f bf2b 553f
00000050: 1632 7f3f 0930 163f ad89 a43f 05e7 573f
00000060: cf3a 273f 03a9 513f 9813 123f 0d99 b13f
00000070: a05b 693f b054 983f 0845 8b3f 1b2d 853f
0.6701058 1.5252517 0.6863377 0.1748185 1.1698214 0.8977474 0.9219049 0.96334505
1.3792218 1.0894529 1.6079005 0.82571864 0.92307466 1.6679436 1.5015501 0.9914792
0.66518915 0.8050589 1.6061671 0.83269876 0.996858 0.58667046 1.2854515 0.8433688
0.6532411 0.81898516 0.5706115 1.3874832 0.91155434 1.1900845 1.0880442 1.040439

conv_sequence.3.bias f4 [32]
00000000: 80b2 edbb 6184 763e 2b83 52bc 8179 d23d
00000010: aca5 643e bd20 3bbe 6567 bf3d b3e6 943d
00000020: 8aa8 673e 7c76 0a3e 6346 313e d72a 4e3d
00000030: e057 8b3d a51f 3c3e a3a3 7d3e a588 813e
00000040: 6528 043d b646 f43c 7bfd d23d a59b b6bd
00000050: f5e1 0dbd 9e86 b1bd 725d 4f3e 5f57 6b3c
00000060: eb6d c93d 2981 b6bd 401b 083d 8ddd 9a3e
00000070: 79fa 253e 9c7c 573d c7d8 c43d d75a 273e
-0.007253945 0.24073936 -0.012848656 0.10277081 0.22328824 -0.18274207 0.09345893 0.07270565
0.22622886 0.1352176 0.17312007 0.050333824 0.0680387 0.18371446 0.24769454 0.25299564
0.032265086 0.029818874 0.10302254 -0.089164056 -0.034639318 -0.08668254 0.2025049 0.014364093
0.09835418 -0.08911354 0.033229113 0.30247155 0.16208829 0.05260907 0.096116595 0.16343246

conv_sequence.3.running_mean f4 [32]
00000000: 0000 0000 0000 0000 0000 0000 0000 0000
00000010: 0000 0000 0000 0000 0000 0000 0000 0000
00000020: 0000 0000 0000 0000 0000 0000 0000 0000
00000030: 0000 0000 0000 0000 0000 0000 0000 0000
00000040: 0000 0000 0000 0000 0000 0000 0000 0000
00000050: 0000 0000 0000 0000 0000 0000 0000 0000
00000060: 0000 0000 0000 0000 0000 0000 0000 0000
00000070: 0000 0000 0000 0000 0000 0000 0000 0000
0.0 0.0 0.0 0.0 0.0 0.0 0.0 0.0
0.0 0.0 0.0 0.0 0.0 0.0 0.0 0.0
0.0 0.0 0.0 0.0 0.0 0.0 0.0 0.0
0.0 0.0 0.0 0.0 0.0 0.0 0.0 0.0

conv_sequence.3.running_var f4 [32]
00000000: 0000 803f 0000 803f 0000 803f 0000 803f
00000010: 0000 803f 0000 803f 0000 803f 0000 803f
00000020: 0000 803f 0000 803f 0000 803f 0000 803f
00000030: 0000 803f 0000 803f 0000 803f 0000 803f
00000040: 0000 803f 0000 803f 0000 803f 0000 803f
00000050: 0000 803f 0000 803f 0000 803f 0000 803f
00000060: 0000 803f 0000 803f 0000 803f 0000 803f
00000070: 0000 803f 0000 803f 0000 803f 0000 803f
1.0 1.0 1.0 1.0 1.0 1.0 1.0 1.0
1.0 1.0 1.0 1.0 1.0 1.0 1.0 1.0
1.0 1.0 1.0 1.0 1.0 1.0 1.0 1.0
1.0 1.0 1.0 1.0 1.0 1.0 1.0 1.0

conv_sequence.4.model.0.weight f4 [32, 32, 3, 3]
00000000: 982a 6cbc 8fa0 b7bb 092f 1cbd 834b 263d
00000010: 991f ad3a 2063 503d b660 74bc 711f d4bb
00000020: 48e3 46bd 80e3 d93c 12f1 a03d 3309 613d
00000030: a1c6 8e3d 16df a53d 5e98 06bd 82fb ce3c
00000040: a7ba 18bb f2ad 593d 2171 babb 75f1 a2bc
00000050: fee3 f4bc 7af0 7a3d a714 213d c1fd 0cbd
00000060: 2fd7 813d 45ad 0cbd 8c30 0cbc 34e7 813d
00000070: 6a08 e93b 9108 813d ca58 803d cea7 5b3d
00000080: 3a3c ee3c 11a8 533d 61ff 8bbc 63eb 433d
00000090: 759d 6b3d 1183 a83d 2bbf fdbc 901f d23d
000000a0: e11b 4e3d 235e ba3c faa1 cb3d e1dd 01bd
000000b0: 0612 343d 728b 6ebc 2947 4b3d a1e3 33bc
000000c0: cddf da3c 8722 283d 0165 ea3c 231d 113b
000000d0: c208 b0bc b963 e73c a6b0 183c c929 013c
000000e0: d3d2 733c 4575 a53d 9d13 0cbd 4410 5b3d
000000f0: 1960 0e3d 99e9 e2bb f847 873b 2429 943d
00000100: 352a 99bb 7b45 393d 4d71 583a 9f47 ae3d
00000110: 5f95 2e3d 2dd6 ec3c c588 06bc 3978 6dbc
00000120: b854 2b3d fa10 813d 2138 6e3d f780 673d
00000130: 6a59 803d bb4a b03d 0ab0 973d aa22 f23c
00000140: ca69 603d 001d b23d bcd2 343d 17b5 1d3d
00000150: 4f53 713d e21d 04bb e48f 7c3d c360 493d
00000160: 2d0f 573d 0428 a23d 8a4a a03c c9f0 1a3d
00000170: e1c0 f7bc 364c 703d 9bb5 8e3b bac6 1dbd
00000180: 9640 873c 070e 06bc 3458 073d 0332 ec3c
00000190: 8e81 11bd d97b 863d d5b6 1cbd d96d 893d
000001a0: ba15 09bd 6879 373d 633a e33c 63ae 933c
000001b0: 307f c43d 9776 f73b 639f 32bd 501e 2e3d
000001c0: 5f05 063c 7151 4fbc 3e3d 4a3d 301b 813c
000001d0: 877a 163d 8410 943c ce1a ba3d 9bbc d33c
000001e0: dd70 6b3d 53f1 e53c 2864 633d 8680 cf3d
000001f0: ae7e 4d3c d42a 163c 9bba 883d 611e 443c
00000200: 59f4 a83d 21e0 c83d 4239 393d e8ed 453d
00000210: e005 023e a5b4 953c b4c3 0e3d 3928 133d
00000220: 5414 8b3d 814e b23c a6b0 17bc a820 ca3c
00000230: 6030 6f3d e25b cf3b 8fbd 3bb9 6169 883d
00000240: dcf0 a83d 6103 5c3d 2a6b c3bc 1e0b 8fbc
00000250: d494 043d df0e eebc f56b b43b de5f 583d
00000260: 82a2 2e3d d49a 2bbd 98e2 583d 0278 a33d
00000270: a2c7 623d 9fe0 163d b18e 57bb 3208 ea3b
00000280: 8e53 2abd fd6b 393c 2eaa 453d 2f29 443d
00000290: 459d 033d eb1b 293d 31fa 033c 359f 5b3c
000002a0: edda fd3c d641 c63c f407 c33c df84 dc3c
000002b0: 3650 453c a231 8ebc ac57 0a3d fe7f 9d3d
000002c0: 6353 153d 335b c13d f3f7 213c f9de 853b
000002d0: fbe8 373b f3ef 81bd b1e6 66bd aa6f 78bd
000002e0: 8cb4 883c ab34 07bd 21b9 37bd 7dd9 06bd
000002f0: 7dd4 0abd 7092 123d 61b6 b53c 0db9 b93c
00000300: b54f 853d eb73 253d b32d 01bd fa3b 9a3d
00000310: a1c5 233c f1d7 ccbc d6d4 bcba 042f 363b
00000320: 0d21 1abb 6566 933b d913 963a 76e8 d8bc
00000330: 2c18 e53d a760 36bc c465 8c3c 63bd 943d
00000340: 2431 403a 2d14 97bc 28f8 3dbc 01d9 f83c
00000350: 40c8 58bc 5df2 293d 25b7 343c 0b1b 19bd
00000360: d625 f53c 95cb 03bc ae61 2a3d 00b2 a63c
00000370: ca9d 46bc d765 22bb 931b 513d 0eb8 b33d
00000380: 4360 763d 2316 c7bc 6af1 1f3d 85f7 cbbc
00000390: 2320 50bd c6c9 2abd 9485 5abd dc4d 69bc
000003a0: d200 9fbd af75 c5bc 9040 ebbc ef9f 60bd
000003b0: 81ff 303d ef66 4e3d 26b5 28bd 7a42 4d3d
000003c0: ba55 8fbb fe67 b03b 21f3 18bc b329 503d
000003d0: 23cd 703d a837 4ebc be7a 4a3d 6315 6d3d
000003e0: d715 373b a2fb 8c3c 2a03 ad3d e010 723b
000003f0: 5d55 433d 5e8a d9bc 98c7 973c fd09 c13c
-0.014414452 -0.005603857 -0.038130794 0.040599357 0.0013208269 0.050875783 -0.014915636 -0.0064734747
-0.048556596 0.026597738 0.078584805 0.054940414 0.06971479 0.08099191 -0.032860152 0.025266413
-0.0023304613 0.053144403 -0.0056897555 -0.019890526 -0.029893871 0.061264493 0.039326336 -0.034421686
0.06339871 -0.03434493 -0.008556496 0.063429266 0.0071115987 0.06300462 0.06266935 0.053626828
0.029081453 0.051673952 -0.017089548 0.047831904 0.05752321 0.08228124 -0.030974945 0.10259926
0.050319556 0.022749966 0.09943004 -0.03170574 0.0439625 -0.014559614 0.04962841 -0.010979564
0.026718045 0.041048553 0.028612616 0.002214261 -0.021488551 0.028245794 0.00931946 0.0078834975
0.014881807 0.08079008 -0.034198392 0.05348231 0.034759615 -0.0069248197 0.0041284524 0.072344095
-0.004674221 0.045232277 0.0008256629 0.085097544 0.04262292 0.02891072 -0.008211319 -0.014493995
0.04182884 0.06302066 0.058158997 0.056519475 0.062670544 0.08608004 0.07406624 0.029557545
0.05478839 0.086969376 0.044146284 0.03850278 0.05891734 -0.0020159413 0.061660662 0.049164545
0.052504707 0.079177886 0.019566793 0.037827287 -0.030243339 0.05866643 0.004355145 -0.0385196
0.01651029 -0.008182055 0.0330431 0.028832441 -0.035523944 0.06566591 -0.0382603 0.06710405
-0.033467986 0.044793516 0.027737802 0.01802749 0.095945716 0.007551979 -0.043609034 0.042509377
0.0081799915 -0.0126536945 0.04937481 0.015760034 0.036737945 0.018074282 0.09087144 0.02584677
0.05748068 0.028069174 0.05551544 0.10131936 0.01254241 0.009165484 0.06676217 0.0119701335
0.082497306 0.09808374 0.04522062 0.04832259 0.12697554 0.018274615 0.034854606 0.03592703
0.06790987 0.02176595 -0.009258425 0.024673775 0.058395743 0.006328092 -0.00017904326 0.066607244
0.08249065 0.05371416 -0.02385481 -0.017461356 0.032368496 -0.029059825 0.0055060335 0.0528258
0.04263545 -0.041895702 0.05295047 0.07981874 0.055366166 0.03683531 -0.0032891447 0.0071420902
-0.04158359 0.01131725 0.048258 0.04789084 0.032132406 0.04128639 0.008055256 0.013404657
0.030988181 0.024201315 0.023807503 0.026918827 0.01204305 -0.017357651 0.033775017 0.07690428
0.036456477 0.09441223 0.009885776 0.0040854183 0.0028062451 -0.06344595 -0.05637235 -0.060653366
0.016687654 -0.033009212 -0.044854287 -0.032922257 -0.03389405 0.035784185 0.022181692 0.022671247
0.065093435 0.04039375 -0.031537723 0.07530971 0.009995849 -0.025005313 -0.0014406692 0.002779902
-0.0023518235 0.0044982904 0.0011450007 -0.026478034 0.11186251 -0.011131442 0.01713837 0.07262685
0.0007331541 -0.018442238 -0.01159481 0.030376913 -0.013231337 0.0414909 0.011029993 -0.037379306
0.029925268 -0.008044143 0.04159706 0.020348549 -0.012122581 -0.002477994 0.051051687 0.0877534
0.060150396 -0.024302548 0.03904859 -0.0248983 -0.050811898 -0.041696332 -0.053350046 -0.0142397545
-0.07763828 -0.024103967 -0.02871731 -0.054840025 0.043212418 0.050391134 -0.04118838 0.050112225
-0.004374233 0.0053834906 -0.00933531 0.050821017 0.058789384 -0.012586512 0.049433462 0.057881724
0.0027936602 0.017209832 0.08447869 0.0036936328 0.04768883 -0.026555236 0.01852779 0.023564333

conv_sequence.4.model.0.bias f4 [32]
00000000: 395b 34bd 42b2 39bb 2d71 4c3d e388 933d
00000010: 8d8a 37ba 84ce 6bbb 1ad8 823c 7d84 013d
00000020: 6e57 423c 5a19 21bd 753c 713c 1726 0b3d
00000030: 80e7 113c a965 d7bc 453e cc3c 9cda d6bc
00000040: fdcd 57bd 66f8 993c 06ce 273d 9d98 013c
00000050: a1ae 963c dc09 83bd 9f7a 9c3c 524b 423d
00000060: ff36 213c 0903 083c daf6 23bd 85cc 77bd
00000070: 050c 093d 7035 90bd a4fa ccbc e15a 84bd
-0.04403231 -0.002833501 0.04991262 0.072038434 -0.00070015417 -0.0035981247 0.015972186 0.03162049
0.011861665 -0.039330818 0.014723887 0.033971872 0.008905292 -0.026293593 0.024932036 -0.026227288
-0.05268668 0.018795203 0.040967964 0.007909921 0.018393816 -0.06398365 0.019101439 0.047435112
0.009839772 0.008301505 -0.040030338 -0.06049778 0.03345873 -0.070414424 -0.025021859 -0.06462646

conv_sequence.4.model.1.weight f4 [32, 32, 3, 3]
00000000: 6aba 0f3d 284a 6f3d 074f 0d3d ffff b43d
00000010: fa5c 8dbc 8af5 643c e548 51bc 96d7 5c3d
00000020: b86c 373c 83a8 0d3d a196 663d 3407 573d
00000030: 45da 183c 42b3 983c d3e6 40bd e667 eebb
00000040: d19d 54bc 4e05 20bd 9e4a 24bc e3be aabb
00000050: 3be1 53bb 6bc8 c439 08c0 cb3c 3872 81bc
00000060: 739c a9bc 7309 27bd 9a17 8dbc 1798 8d3d
00000070: 413f 733d 26d4 dd3c a838 6c3d e4cb 5e3c
00000080: 2f1f 9a3d 9eea b73d 2999 58ba 1e5c babc
00000090: 6a86 d6bd a67b 0bbc 3ebb 4dbd fdc7 31bd
000000a0: 7e37 b4bd 7dee 4dbc 7265 a4bd 8ed6 06bd
000000b0: 9fac 42bd 63b6 7bbc c28a 8e3d db34 683d
000000c0: c2dd 83bb 9dba ac3d 216a ba3c 4b72 a83c
000000d0: 345b 8e3c f6ac 613d e4fd 933d d684 873c
000000e0: 56b2 0f3d 1e32 b6bc 2413 743d 73ed 0bbd
000000f0: 45cd 8f3d 9c04 83bb 6706 023b 5162 233d
00000100: 3d34 a0bc 621c a53d 7a8e 0cbc a550 a53d
00000110: f9a1 663d f35d ba3d a3ff d43d 787d 973d
00000120: 9930 073e 4cb9 be3d 48ea a83d 5ea8 a63c
00000130: 2e1f d53c c2b4 9f3d 6221 2bbb fa94 c63d
00000140: c046 803d 874c 43bc 1b8e 9fbc 184d 0fbd
00000150: ed26 75bd 0215 9c3b 1270 08bd 2857 21bd
00000160: 722a 3a3a c6dc 383c 4435 c9bd 4dec 9dbd
00000170: 2daf 9cbd 8f27 0bbc 4012 bebd 7e3c 23bd
00000180: 40b2 3b39 0a68 19bb f77c 653c b6b4 ec3c
00000190: 4e3f 20bd 4561 ac3c 10fb dcbc 2a54 6abd
000001a0: 74f7 5fbd b8de 8dbc 645a c1bd d0f9 acbd
000001b0: 85fd aa3d f089 b23d 8029 833d 2ebf d93d
000001c0: 93c5 1d3d 7b86 c03d ef14 dcba 09a2 a63c
000001d0: 69fe a93d ced0 ecbd 3d54 e4bd 640d cebd
000001e0: 2104 00be 50bb 47bd de0a 90bd 3896 12be
000001f0: 944d 03be f6c6 2fbd c1fc 723d 56a7 b53d
00000200: 51bb 873c 85da 633d cca3 0e3d 102b 573c
00000210: 74cb 813d f50b d53d c372 253d 03be 27bd
00000220: 888a 68bd c69d 803b 7eb1 183d 3e0c 38bd
00000230: 8791 3bbb e0b5 9abc 2b99 95bc 8bb5 2dbd
00000240: d810 8b3c 3dba a13d 736b 3b3c 4c58 d23d
00000250: a1e4 a13d acf4 773d fdd9 e13c 21ce 26bb
00000260: a086 af3c 226c 17be 6736 01be 811b bdbd
00000270: f52a 7fbd 1264 19be 180b c5bd 4028 17be
00000280: 4fbf 08be c6ce 71bd fd25 9b3d 1caf c3ba
00000290: 1833 8d3c c2cf 4d3d d12e abbc 9afe 4ebc
000002a0: 0d08 db3b 6593 debc 4aec 28bd cb3a 813d
000002b0: b989 c03c 7505 193c 9e68 a63d 0e7d 8c3c
000002c0: f8e4 9abc 3d55 a03c e85b 44bc 4c8e e63c
000002d0: 69f3 d5bc 9a3c 823c 48ce 013d e96d 98bd
000002e0: b733 123a 19b8 653c a37e 8cbc 4af8 2c3d
000002f0: ffb7 403d 854b 563d 8bcd 0a3e ff8e b93d
00000300: cc86 163e 6641 463d 3bf5 623d f74b 9e3d
00000310: 08fc 893d 999a 113d f881 43bd 4b2c 80b9
00000320: 4e01 c5bb 06a3 81bc 8fdf 48bc 35b7 af3c
00000330: 422a ca3c 3356 91bc ddc1 17bc 72f8 7d3d
00000340: b049 fd3c 8dfc 913b f1c8 4f3d 38b2 9c3d
00000350: eaf6 f5ba 1af1 f53c 3c85 6b3d 6b2f 913d
00000360: 02e1 1e3e a5ec 8d3d 2a65 3c3d 19b3 d23c
00000370: 8843 3e3d 2418 9a3d 2665 d43d 246e 063b
00000380: 7af7 45bd e453 023d 3663 fe3c 893a 343c
00000390: d7bd fabb 55bb 47bd b134 f0bc 8059 40bc
000003a0: 71bd 313b 4ed2 b23c a42d 223d b5ed 0cbc
000003b0: bfdb 833d f117 a53c 24ee 683d 5325 643d
000003c0: 4b9d 893c f776 003d 66f9 36bd a856 8ebd
000003d0: af98 8bbd 2391 a5bd 3514 b4bd 4cf8 a3bd
000003e0: 8a6b eabd f225 87bd 562b 06be 4c03 13bc
000003f0: 808f a53c 9f50 2a3d 4439 15bc c091 8d3d
0.035089888 0.05842033 0.034499194 0.0883789 -0.017256249 0.013974557 -0.012773727 0.053916536
0.011195354 0.034584533 0.056295995 0.052497104 0.009329383 0.018640164 -0.04709513 -0.0072755693
-0.0129770795 -0.03906756 -0.010027556 -0.0052107438 -0.0032330293 0.00037533356 0.024871841 -0.015801534
-0.020704484 -0.040780496 -0.017223168 0.069137745 0.059386496 0.0270787 0.05767122 0.013598416
0.07525479 0.089802966 -0.0008262569 -0.022749003 -0.10474856 -0.008513367 -0.050227396 -0.043403614
-0.08799647 -0.012569067 -0.08027162 -0.03291946 -0.047527906 -0.015363309 0.0696006 0.056691032
-0.0040242383 0.08434031 0.022755684 0.020562312 0.017377473 0.05509659 0.0722616 0.016542833
0.035082184 -0.022240695 0.059588566 -0.034161996 0.07021574 -0.003998352 0.0019840242 0.039888684
-0.01955616 0.08062054 -0.008578891 0.08072022 0.056306813 0.09099951 0.10400321 0.07396978
0.13202132 0.09312686 0.082478106 0.020343956 0.026015844 0.07798149 -0.0026112427 0.09696384
0.062634945 -0.011920101 -0.01947694 -0.03498563 -0.059851576 0.0047632465 -0.033310004 -0.03938976
0.0007101662 0.011283105 -0.09824613 -0.077110864 -0.076506 -0.008493318 -0.09280825 -0.03985261
0.00017900113 -0.002340796 0.014006845 0.028894763 -0.039122872 0.021042475 -0.026975185 -0.05720917
-0.05467935 -0.017318115 -0.09441069 -0.084460855 0.08349136 0.08717716 0.064044 0.10632168
0.0385185 0.0940065 -0.0016790907 0.020340936 0.08300478 -0.11563264 -0.1114888 -0.10061148
-0.12501575 -0.04876262 -0.07033323 -0.14315116 -0.12822562 -0.042914353 0.059323076 0.088698074
0.016568812 0.05562832 0.034824178 0.0131328255 0.06337634 0.10402671 0.04039265 -0.040952694
-0.05677274 0.003925058 0.037278645 -0.04493355 -0.0028620677 -0.018885553 -0.018261513 -0.04240946
0.016975805 0.0789685 0.011439192 0.102707475 0.07904936 0.06053607 0.027569765 -0.0025452452
0.021426499 -0.14787343 -0.12618409 -0.092337616 -0.062296826 -0.1497958 -0.096212566 -0.14761448
-0.13354228 -0.059035085 0.07575605 -0.0014929506 0.017236277 0.05024696 -0.020896347 -0.012633944
0.0066843093 -0.027169893 -0.041240968 0.06310042 0.023503171 0.00933968 0.08125423 0.017149474
-0.018908009 0.019571895 -0.011984803 0.028144024 -0.026117044 0.015898038 0.031690866 -0.07442839
0.0005577164 0.014020943 -0.017150229 0.042228974 0.047050472 0.052318115 0.13554971 0.090604775
0.14699858 0.048402213 0.05540965 0.07729333 0.06737524 0.035547826 -0.04773137 -0.00024447063
-0.0060121184 -0.015824806 -0.012260332 0.021449665 0.024678353 -0.017741298 -0.009262529 0.062004514
0.030918926 0.004455155 0.050728742 0.0765118 -0.0018765603 0.030022193 0.05750011 0.070891224
0.15515521 0.06929902 0.045994915 0.025720166 0.04645112 0.07524136 0.10370855 0.0020512426
-0.048331715 0.031818286 0.031053167 0.011000284 -0.007652025 -0.048762638 -0.029322 -0.011740088
0.0027120973 0.021828797 0.039594308 -0.008601596 0.064383976 0.020153018 0.056867734 0.055699658
0.016798636 0.031363454 -0.04467144 -0.06950122 -0.068162315 -0.08084323 -0.08792917 -0.08006343
-0.11446293 -0.06599034 -0.13102469 -0.008972954 0.020210028 0.041580793 -0.0091078915 0.06912565

conv_sequence.4.model.1.bias f4 [32]
00000000: a7c7 133d f21e de3c e37a 583d eeec d4bc
00000010: c742 00bd 304d 203d 975c 2638 6c50 4dbd
00000020: a0b1 6fbd 6a2b fabc 8833 d1bd 7388 693d
00000030: c428 1a3d 8b45 ff3c a0bd d83c 5422 5d3d
00000040: c53f 933b 0f11 2ebd 9e8f 25bd 6628 263d
00000050: bec8 343d 267b 323d 2667 69bd 8a9d bf3c
00000060: d9d6 01bc d240 233d 3f21 e7bc 84fa e83b
00000070: cffb ec3c 078e 2c3d 1797 44bd 2ed8 30bd
0.036079075 0.027114365 0.05285157 -0.025991883 -0.031313684 0.03913611 3.9663715e-05 -0.050125524
-0.058519006 -0.03053828 -0.10214907 0.057014894 0.037636533 0.03116109 0.026457608 0.053987816
0.004493686 -0.042496737 -0.040420167 0.04056587 0.044136755 0.043574475 -0.056983136 0.02339055
-0.007924759 0.03985674 -0.028214095 0.007109942 0.028928665 0.042127635 -0.047995653 -0.043174915

conv_sequence.6.weight f4 [32]
00000000: c88e 703f e5a4 9a3f 77c3 8f3f 9532 ab3f
00000010: 953b 983f 6fe6 563f 8427 453f 340e 623f
00000020: 982e 853f 1246 9c3f d264 993f 82af 283f
00000030: 0267 6d3f 05de 743f abcd 9b3f 4106 553f
00000040: 0891 4e3f fc01 173f 37b4 623f 9701 443f
00000050: d898 803f 23fd a63f f7a4 3c3f 8635 dc3f
00000060: 108b ce3f 7503 473f 2130 c03f 1504 713f
00000070: 009c 6b3f b113 b93f 569e 353f 5bf1 8d3f
0.93967867 1.2081572 1.1231526 1.3374811 1.1893183 0.83945364 0.7701342 0.8830292
1.0404844 1.2208884 1.1983893 0.65892804 0.927353 0.95651275 1.217214 0.8321267
0.8069005 0.589874 0.88556236 0.76564926 1.0046644 1.3046001 0.73689216 1.7203834
1.6136189 0.7773965 1.5014688 0.94146854 0.9203491 1.4459134 0.70944726 1.1089281

conv_sequence.6.bias f4 [32]
00000000: 4f26 db3d f9cc acbd 1114 12be 34a5 43be
00000010: f639 edbd 7769 bfbe ae1f 28be cf15 2f3e
00000020: 0f80 95be 5d79 c0bd ed6c 3ebd f695 62bd
00000030: 04be e23d 84f9 833d 91f4 cbbd e76d 413e
00000040: c480 5d3d faf4 413d 770b 2ebe 6676 b6be
00000050: 8520 a9bd 0672 05be 7220 f3bd 7aa3 60bd
00000060: 8862 43be 54ec 15bc 40ca 5a3c 6839 e4bc
00000070: b260 01b7 115d bdbc 0f68 193e bec8 523c
0.10700666 -0.08437533 -0.14265467 -0.19105989 -0.11583321 -0.3738515 -0.16418335 0.17098163
-0.29199263 -0.09398148 -0.0464906 -0.055318795 0.11071399 0.06444076 -0.09958757 0.1888958
0.05407788 0.04735277 -0.16996561 -0.35637206 -0.08258156 -0.13031778 -0.11871423 -0.054843403
-0.19080555 -0.009150583 0.013353884 -0.027859405 -7.711513e-06 -0.023115667 0.14981101 0.0128652435
