MAMLExperiments/src/trained_models/resnet_5way_5shot_ca_lr_sched.pth (torch, 343668 bytes, 52 tensors)

conv_sequence.0.0.weight f4 [16, 1, 5, 5]
-0.34671584 0.21530274 0.22886966 -0.9271435 -0.6172845 -0.42316478 0.5128924 0.3470816
-1.0120826 -0.83294183 0.08687694 0.59028506 0.10665055 -0.93694013 -0.88379204 0.6067671
0.29278126 0.32616794 -0.6013996 -1.1543534 -0.25463498 0.037060913 0.17973495 -0.020995567
-0.8881995 0.40970805 0.6437761 0.26630223 0.19268574 0.07143907 0.48430404 0.121729694
-0.12794217 0.32576066 0.37279093 0.16925377 0.088916205 -0.36594635 0.046257593 0.54190934
-0.10527718 0.07141412 -0.20679063 -0.24465255 0.16447453 0.18845694 0.2700721 -0.09788507
0.04268179 -0.11790736 0.44028798 0.007028892 0.036874954 -0.033064473 0.54669064 0.20705025
-0.32858455 -0.32234174 -0.7028466 0.2396117 0.55629605 -0.17386122 0.38015002 -0.10206124
0.67222595 -0.050286565 -0.52085984 -0.19634436 -0.8751092 0.27753463 0.28167266 0.0598281
0.0708822 -0.41771853 0.6285501 -0.782515 -0.77627236 -0.55955 -0.1260623 0.46409634
-0.8856129 -0.6189414 -0.662463 -0.60873085 -0.11996808 -0.511045 -0.67812395 -0.62236303
-0.6452766 -0.43499702 0.3510023 -0.40926722 -0.86844695 -0.53302836 -0.05004781 0.5193724
0.34806114 -0.4249852 -0.52942663 0.028702293 0.024476226 -0.10493979 0.45612323 0.70313
0.066605166 -0.33807424 0.016115328 0.85108984 0.36398932 0.04218812 -0.5735996 0.03767727
0.5611205 0.16562751 -0.16346206 -0.43415633 0.042925786 0.42044714 -0.09452474 -0.31257907
-0.25397518 -0.18688299 -0.059143424 -0.48109737 -0.21766491 0.35109678 0.1606441 0.020852659
0.0030446425 0.24067888 0.26828393 -0.04996792 -0.039480165 -0.13739774 0.33187306 -0.5965175
-0.7805318 -0.9784095 -1.1040812 -0.6536983 -0.81728715 -0.9833202 -0.7888851 -0.41513708
-0.42186287 0.07503786 0.07412148 0.09980723 0.28022334 0.42286143 0.14720005 0.12709333
0.24349731 0.19159262 0.26987177 0.6020624 0.81081516 0.5808559 0.008173095 0.9592273
-0.21675165 -1.0130005 -1.3622788 -1.017986 -0.16754764 0.19674192 -0.119731225 0.622264
0.6800465 0.502366 -0.24185912 0.14880645 -0.07076512 -0.69645655 0.07169521 -0.15966405
-0.29903105 -0.38300705 -0.1912512 0.101229005 -0.21215548 -0.5192112 -0.221727 -0.0123298485
0.0318599 -0.29946765 -0.19056678 -0.3605869 0.12445297 -0.090668745 -0.25383934 -0.08244989
-0.20752622 0.047366586 -0.3124353 -0.38437384 -0.20387697 0.2763514 -0.33343092 -0.2959522
-0.3636213 -0.20026483 -0.21530668 -0.27156565 -0.20248267 -0.30470896 -0.095005535 -0.11083872
-0.17488223 -0.30053025 -0.23862149 -0.011404879 -0.038910747 -0.25948238 -0.29781747 -0.21876252
-0.11832485 -0.067912824 -0.37473613 -0.22439176 -0.30368993 -0.12289581 -0.113379076 -0.1366093
-0.15868068 -0.87019587 -0.89827794 0.13808915 0.6114047 0.34477094 -1.2676744 -0.084747806
0.7442289 0.24357118 -0.40106007 0.45212823 1.2198775 0.02667127 -0.6839254 -0.7492432
0.78695375 0.42881358 -0.63131034 -0.6862835 -0.54818285 0.20149153 -0.27198693 -0.36764047
-0.42657015 -0.28524667 0.3653333 -0.007289869 0.30447137 -0.16173773 -0.37003267 -0.033781525
00000000: bd84 b1be 5278 5c3e cf5c 6a3e 4759 6dbf
00000010: 5b06 1ebf 0ea9 d8be eb4c 033f aeb4 b13e
00000020: ec8b 81bf ad3b 55bf 8aec b13d ec1c 173f
00000030: 9b6b da3d 4fdb 6fbf 3240 62bf 1755 1b3f
00000040: 6de7 953e 7cff a63e 53f5 19bf dac1 93bf
00000050: 845f 82be 2fcd 173d 700c 383e e5fe abbc
00000060: 0b61 63bf 41c5 d13e 83ce 243f c458 883e
00000070: 694f 453e a64e 923d b3f6 f73e 6b4d f93d
00000080: 4603 03be 1aca a63e 74de be3e dc50 2d3e
00000090: b319 b63d 525d bbbe 9a78 3d3d 92ba 0a3f
000000a0: 909b d7bd 9141 923d ecc0 53be 3386 7abe
000000b0: 036c 283e dbfa 403e e446 8a3e f877 c8bd
000000c0: 1ad3 2e3d 6a79 f1bd 6d6d e13e 9f52 e63b
000000d0: 310a 173d 9d6e 07bd ebf3 0b3f fb04 543e
000000e0: 3c3c a8be fa09 a5be c1ed 33bf c55c 753e
000000f0: 6b69 0e3f ad08 32be 06a3 c23e 7c05 d1bd
00000100: 0017 2c3f 49f9 4dbd 1257 05bf 7f0e 49be
00000110: 2807 60bf 0519 8e3e 6637 903e 4f0e 753d
00000120: b02a 913d 34df d5be a9e8 203f e752 48bf
00000130: c9b9 46bf ab3e 0fbf 7a16 01be 099e ed3e
00000140: 87b7 62bf f272 1ebf 2d97 29bf c9d5 1bbf
00000150: d3b1 f5bd d8d3 02bf 8899 2dbf 2f53 1fbf
00000160: d930 25bf eeb7 debe 93b6 b33e 798b d1be
00000170: 8a52 5ebf 8c74 08bf effe 4cbd 97f5 043f
00000180: 1235 b23e a997 d9be 8188 07bf 1221 eb3c
00000190: 5e82 c83c acea d6bd fc88 e93e 5400 343f
000001a0: 4a68 883d 1118 adbe 4b04 843c 06e1 593f
000001b0: cf5c ba3e 73cd 2c3d 6cd7 12bf 7b53 1a3d
000001c0: 98a5 0f3f 429a 293e 9962 27be bd49 debe
000001d0: f3d2 2f3d d944 d73e 3096 c1bd 5d0a a0be
000001e0: 0909 82be 415e 3fbe 6040 72bd 6552 f6be
000001f0: 8de3 5ebe f5c2 b33e e37f 243e 32d3 aa3c
00000200: a088 473b 8674 763e 835c 893e 29ab 4cbd
00000210: f4b5 21bd feb1 0cbe 44eb a93e 5fb5 18bf
00000220: efd0 47bf 0c79 7abf 8852 8dbf c658 27bf
00000230: bb39 51bf dfba 7bbf 60f4 49bf d98c d4be
00000240: 69fe d7be 73ad 993d 01cd 973d bc67 cc3d
00000250: 6f79 8f3e 4b81 d83e 9cbb 163e c124 023e
00000260: 5c57 793e db30 443e a22c 8a3e c320 1a3f
00000270: 9591 4f3f f9b2 143f 72e8 053c ec8f 753f
00000280: 25f4 5dbe 00aa 81bf 275f aebf 5e4d 82bf
00000290: 9c91 2bbe b776 493e a535 f5bd b24c 1f3f
000002a0: 8717 2e3f 0f9b 003f eba9 77be b860 183e
000002b0: 4eed 90bd fa4a 32bf f0d4 923d f97e 23be
000002c0: 991a 99be 8019 c4be 5bd7 43be 2751 cf3d
000002d0: 493f 59be 06eb 04bf 670c 63be 2203 4abc
000002e0: 877f 023d d353 99be f023 43be d99e b8be
000002f0: 33e1 fe3d 89b0 b9bd 3bf7 81be 7ddb a8bd
00000300: c181 54be 7703 423d 85f7 9fbe a6cc c4be
00000310: 20c5 50be ee7d 8d3e 75b7 aabe 0c87 97be
00000320: 922c babe 3912 4dbe 5b79 5cbe a70a 8bbe
00000330: 9e57 4fbe d002 9cbe 4392 c2bd 69ff e2bd
00000340: 5414 33be 1adf 99be 3159 74be 88db 3abc
00000350: e060 1fbd e0da 84be 887b 98be 4803 60be
00000360: 4d54 f2bd e115 8bbd 6add bfbe f4c6 65be
00000370: 3f7d 9bbe ccb0 fbbd 4a33 e8bd 4fe3 0bbe
00000380: 307d 22be 28c5 5ebf 8bf5 65bf 3e67 0d3e
00000390: 0585 1c3f d185 b03e 2843 a2bf 4290 adbd
000003a0: c985 3e3f b96a 793e bf57 cdbe 5a7d e73e
000003b0: f224 9c3f b57d da3c bc15 2fbf 67ce 3fbf
000003c0: cd75 493f 748d db3e 8e9d 21bf 47b0 2fbf
000003d0: b655 0cbf cc53 4e3e df41 8bbe 5f3b bcbe
000003e0: 6767 dabe da0b 92be f70c bb3e dadf eebb
000003f0: ace3 9b3e 939e 25be ec74 bdbe 7f5e 0abd

conv_sequence.0.0.bias f4 [16]
-0.19574407 0.23269811 -0.35022187 1.5181477 0.12497058 0.6095762 -0.6620721 -0.60199463
-0.0072485185 -0.791191 -0.6722151 0.6801288 -0.14104442 -0.8416322 -0.3212173 -0.5107017
00000000: 2271 48be 6a48 6e3e 4850 b3be aa52 c23f
00000010: 93f0 ff3d 300d 1c3f 8f7d 29bf 521c 1abf
00000020: fb84 edbb 7e8b 4abf 4a16 2cbf ec1c 2e3f
00000030: f36d 10be 3575 57bf 9876 a4be 59bd 02bf

conv_sequence.0.2.weight f4 [16]
1.2839514 0.8121917 1.5804838 1.669829 1.1066656 1.5184187 1.4677609 0.82441795
1.2661844 1.6289624 0.7401735 1.0810962 0.927376 1.0755649 1.0104418 1.0162537
00000000: 8558 a43f cceb 4f3f 4b4d ca3f f5bc d53f
00000010: 38a7 8d3f 8b5b c23f 97df bb3f 0e0d 533f
00000020: 5512 a23f d781 d03f 037c 3d3f 5c61 8a3f
00000030: 8368 6d3f 1cac 893f 2856 813f 9a14 823f

conv_sequence.0.2.bias f4 [16]
0.15432973 0.6552539 0.41419408 -0.59274805 -0.26796436 0.04016761 0.7066308 0.14147978
-0.77119905 -0.105093025 -0.120008 -0.8329894 0.7544904 0.28639695 -0.06060564 0.27039295
00000000: 9d08 1e3e b8be 273f 3f11 d43e 56be 17bf
00000010: a032 89be cb86 243d c2e5 343f 13e0 103e
00000020: 4d6d 45bf 033b d7bd c1c6 f5bd cb3e 55bf
00000030: 4826 413f 9fa2 923e 9f3d 78bd f270 8a3e

conv_sequence.0.2.running_mean f4 [16]
0.0 0.0 0.0 0.0 0.0 0.0 0.0 0.0
0.0 0.0 0.0 0.0 0.0 0.0 0.0 0.0
00000000: 0000 0000 0000 0000 0000 0000 0000 0000
00000010: 0000 0000 0000 0000 0000 0000 0000 0000
00000020: 0000 0000 0000 0000 0000 0000 0000 0000
00000030: 0000 0000 0000 0000 0000 0000 0000 0000

conv_sequence.0.2.running_var f4 [16]
1.0 1.0 1.0 1.0 1.0 1.0 1.0 1.0
1.0 1.0 1.0 1.0 1.0 1.0 1.0 1.0
00000000: 0000 803f 0000 803f 0000 803f 0000 803f
00000010: 0000 803f 0000 803f 0000 803f 0000 803f
00000020: 0000 803f 0000 803f 0000 803f 0000 803f
00000030: 0000 803f 0000 803f 0000 803f 0000 803f

conv_sequence.0.3.weight f4 [32, 16, 3, 3]
0.076345325 0.08414856 0.19739887 -0.018919967 0.057597384 0.04634911 -0.0145051265 -0.11934473
-0.1333619 0.18679667 0.11745215 0.111602366 0.17694023 0.0030891863 0.04780278 -0.00082773465
-0.057971977 0.0010705866 0.041612674 -0.08298512 -0.23635817 0.075501636 -0.0027014234 -0.055140994
0.12131159 -0.01932458 -0.051266503 -0.27455446 -0.21912809 -0.18692134 -0.12981722 -0.09304151
-0.18222556 -0.18990439 -0.20006517 -0.12938553 0.16063893 0.09959797 0.072334334 0.08579466
0.058889113 0.15673943 -0.03049347 0.0047721234 -0.02422644 -0.1303288 -0.17148605 -0.14836705
-0.033017162 0.046607513 0.038188126 0.07072965 0.061878625 0.09456728 -0.11725729 -0.15697989
-0.21029836 -0.11398227 -0.13161096 -0.13615803 -0.12934823 0.0035767397 -0.06998046 -0.0035026579
-0.008255613 -0.055753298 0.060558002 -0.081116386 -0.06863861 0.0745105 -0.0772439 -0.038221955
0.037503634 -0.07692662 -0.058394793 0.09041813 0.068367705 0.11989598 0.062274065 0.08373492
0.062194295 -0.047301468 0.15586333 0.18311727 -0.009778306 0.074958146 0.098698415 0.047703594
-0.0025763533 0.1388754 -0.05608929 0.043181404 -0.055642355 -0.07101658 -0.07701778 -0.057097696
-0.08256281 -0.116746634 -0.04104748 -0.25854996 -0.17169881 -0.18921617 -0.07679544 -0.07211037
0.056438215 -0.07838095 -0.02598172 0.074777484 0.11808033 0.10391286 0.0040493147 -0.038617495
-0.012140715 -0.014197559 0.09049203 -0.04535218 -0.019804697 0.09076879 0.027260931 -0.019788118
0.035597775 0.006216955 -0.09636099 0.124217615 0.058663256 0.09586668 -0.050678436 -0.06975606
-0.059075188 0.06537091 0.09616538 -0.017702106 -0.022272417 -0.09280755 0.0074588284 0.03245825
-0.026357593 0.041585937 -0.05453007 0.02402395 0.13988812 -0.038121518 0.10033262 -0.0049235523
-0.15524594 -0.15908268 -0.12239214 -0.09577735 -0.12953685 -0.15161273 0.0086419685 -0.03023957
-0.15712558 -0.07789766 -0.041476212 0.15545811 -0.093463816 -0.07857916 0.1247167 0.016430587
-0.020616606 0.01510843 0.20853126 0.11793552 0.1765001 0.15024187 0.11593192 0.22989434
0.057584878 0.11018431 0.17558229 -0.3833328 -0.3170101 -0.2650167 -0.4698335 -0.34352937
-0.5181959 -0.40122613 -0.3233645 -0.4244476 -0.10135163 -0.11389015 -0.20340225 -0.05095401
-0.12476269 -0.14869492 -0.04049635 -0.07939213 -0.2680768 -0.29785588 -0.24604863 0.050519887
-0.31237686 -0.26569661 -0.1214624 -0.3459014 -0.11905978 -0.16019464 -0.109498605 -0.038736023
0.17558326 -0.015905783 -0.06751703 0.13387243 0.064310595 -0.0030328282 0.16721047 -0.05611788
0.021778326 0.05417622 -0.23923635 -0.1893061 -0.041002154 -0.23897141 -0.15278088 -0.012841017
-0.27172133 -0.08790831 -0.16501977 -0.20898251 -0.21103801 -0.23056142 -0.13141304 -0.19126078
-0.18533067 0.08756643 0.27103528 -5.8777417e-08 0.059756093 0.1525761 0.046591353 -0.08203543
-0.00827025 -0.23501524 0.004099521 -0.060403217 -0.20130004 -0.06550484 -0.18891576 -0.2049985
0.0355772 -0.0050051333 -0.12049869 -0.16228054 -0.094828226 -0.1258083 -0.21126266 -0.22172827
-0.30676588 -0.2367312 -0.18842916 -0.33645445 -0.076635234 -0.12794162 -0.084225856 -0.071695715
00000000: f05a 9c3d 1556 ac3d ee22 4a3e 0cfe 9abc
00000010: 3ceb 6b3d 90d8 3d3d e9a6 6dbc 036b f4bd
00000020: 0690 08be a047 3f3e c18a f03d c88f e43d
00000030: d22f 353e f273 4a3b d9cc 433d 55fc 58ba
00000040: 0674 6dbd ed52 8c3a 0d72 2a3d 1af4 a9bd
00000050: e007 72be 9aa0 9a3d 5d0a 31bb 86db 61bd
00000060: 3672 f83d 954e 9ebc d3fc 51bd 6792 8cbe
00000070: 1d63 60be 4f68 3fbe ceee 04be 8c8c bebd
00000080: 5699 3abe 4c76 42be e2dd 4cbe a47d 04be
00000090: 887e 243e 05fa cb3d 0624 943d 1cb5 af3d
000000a0: b635 713d 4d80 203e 71cd f9bc 795f 9c3b
000000b0: 8776 c6bc ea74 05be 0a9a 2fbe 88ed 17be
000000c0: 013d 07bd 85e7 3e3d 276b 1c3d b5da 903d
000000d0: 7174 7d3d 7dac c13d 9724 f0bd 56bf 20be
000000e0: 7458 57be 896f e9bd 06c5 06be 036d 0bbe
000000f0: dd73 04be bc67 6a3b ea51 8fbd d98c 65bb
00000100: 8d42 07bc 925d 64bd ab0b 783d 5920 a6bd
00000110: 6692 8cbd f698 983d 0d32 9ebd a08e 1cbd
00000120: 699d 193d b48b 9dbd 612f 6fbd 242d b93d
00000130: 5e04 8c3d 068c f53d 1713 7f3d 377d ab3d
00000140: 72bf 7e3d 2fbf 41bd a39a 1f3e 1883 3b3e
00000150: 3035 20bc a883 993d 6522 ca3d d864 433d
00000160: 09d8 28bb 5a35 0e3e e2bd 65bd fcde 303d
00000170: 3de9 63bd 2471 91bd 7fbb 9dbd 46df 69bd
00000180: b116 a9bd dc18 efbd 6721 28bd a960 84be
00000190: d0d1 2fbe e2c1 41be ed46 9dbd 9aae 93bd
000001a0: c22b 673d 3186 a0bd 9ed7 d4bc f024 993d
000001b0: 1ad4 f13d 44d0 d43d 1db0 843b 612d 1ebd
000001c0: d9e9 46bc e19c 68bc e353 b93d 35c3 39bd
000001d0: 763d a2bc fde4 b93d 5152 df3c b11a a2bc
000001e0: f9ce 113d 99b7 cb3b e958 c5bd ce65 fe3d
000001f0: e248 703d c055 c43d 3194 4fbd 44dc 8ebd
00000200: d3f8 71bd 2fe1 853d 5bf2 c43d 0204 91bc
00000210: a574 b6bc e311 bebd 3069 f43b f1f2 043d
00000220: e1eb d7bc 0456 2a3d ec5a 5fbd e0cd c43c
00000230: d53e 0f3e 4f25 1cbd 307b cd3d c055 a1bb
00000240: cbf8 1ebe 92e6 22be bba8 fabd ea26 c4bd
00000250: 4fa5 04be 5e40 1bbe 0b97 0d3c fab8 f7bc
00000260: 87e5 20be cf88 9fbd f6e2 29bd 6930 1f3e
00000270: f569 bfbd 1cee a0bd 786b ff3d 7099 863c
00000280: 28e4 a8bc 5989 773c 3889 553e 2e88 f13d
00000290: 71bc 343e 01d9 193e b76d ed3d 6c69 6b3e
000002a0: 1fde 6b3d 50a8 e13d d8cb 333e 3244 c4be
000002b0: 264f a2be 45b0 87be 048e f0be 15e3 afbe
000002c0: 7da8 04bf 836d cdbe 0890 a5be 3251 d9be
000002d0: 7291 cfbd 3d3f e9bd ae48 50be 27b5 50bd
000002e0: 9583 ffbd 7b43 18be 80df 25bd 5798 a2bd
000002f0: 5d41 89be 9180 98be 2cf4 7bbe f1ed 4e3d
00000300: dcef 9fbe 6309 88be 47c1 f8bd fd19 b1be
00000310: 9dd5 f3bd 100a 24be ce40 e0bd aaa9 1ebd
00000320: 19cc 333e d84c 82bc 5e46 8abd db15 093e
00000330: 46b5 833d 6ac2 46bb 3939 2b3e dddb 65bd
00000340: 7668 b23c e2e7 5d3d 60fa 74be 75d9 41be
00000350: e0f1 27bd ecb4 74be 9772 1cbe 2163 52bc
00000360: 0f1f 8bbe 4609 b4bd f1fa 28be 83ff 55be
00000370: 591a 58be 4b18 6cbe 2491 06be ded9 43be
00000380: 53c7 3dbe 0756 b33d 23c5 8a3e 7472 7cb3
00000390: cec2 743d e93c 1c3e 93d6 3e3d 3102 a8bd
000003a0: f17f 07bc d6a7 70be 4655 863b 5d69 77bd
000003b0: 9921 4ebe 6727 86bd 2273 41be 20eb 51be
000003c0: 66b9 113d 1a02 a4bb 04c8 f6bd df2c 26be
000003d0: 4d35 c2bd e4d3 00be 3d55 58be bc0c 63be
000003e0: 6b10 9dbe aa69 72be 93f3 40be c243 acbe
000003f0: eff2 9cbd 2103 03be 9b7e acbd 34d5 92bd

conv_sequence.0.3.bias f4 [32]
0.03810425 -0.22666287 0.0044822483 -0.09378255 0.004661888 0.047687504 0.071228 -0.12792787
-0.032224152 -0.14777544 -0.11630754 -0.036721926 -0.11197991 -0.11735601 -0.06070559 0.026834644
0.18966536 0.006604296 0.04274869 0.017005756 -0.03605508 -0.101001404 -0.16651577 0.08343516
0.021279171 -0.121409535 -0.064724945 0.071141735 0.08824648 -0.026732018 -0.15905422 -0.017673556
00000000: 3413 1c3d 501a 68be d3df 923b 1111 c0bd
00000010: c0c2 983b f953 433d fcdf 913d 86ff 02be
00000020: 79fd 03bd 7252 17be a632 eebd bb69 16bd
00000030: b955 e5bd 5958 f0bd 6da6 78bd 54d4 db3c
00000040: a337 423e da68 d83b 4019 2f3d a84f 8b3c
00000050: 7eae 13bd d3d9 cebd 1c83 2abe 0ee0 aa3d
00000060: a851 ae3c 90a5 f8bd 838e 84bd c2b2 913d
00000070: 92ba b43d 1bfd dabc 1cdf 22be 22c8 90bc

conv_sequence.0.5.weight f4 [32]
1.114902 1.342994 0.968819 1.3176088 1.1812625 1.2843034 0.8257656 1.564051
0.94813156 1.0831553 0.9326129 0.93437827 1.7480359 1.3319387 1.1706963 1.0917525
1.1203014 0.91211957 1.0152318 1.296842 0.9875427 1.1686219 0.80983585 0.90286416
0.5534179 1.2783996 0.77903515 1.0503907 1.1563923 0.8998777 0.9628763 1.4317923
00000000: 1cb5 8e3f 3ae7 ab3f 8604 783f 68a7 a83f
00000010: 9c33 973f 0e64 a43f 6065 533f d332 c83f
00000020: c0b8 723f d5a4 8a3f b8bf 6e3f 6a33 6f3f
00000030: a4bf df3f f87c aa3f 60d9 953f 8cbe 8b3f
00000040: 0966 8f3f ab80 693f 1ef3 813f ebfe a53f
00000050: 99cf 7c3f 6795 953f 6751 4f3f 1b22 673f
00000060: ccac 0d3f 99a2 a33f d96e 473f 3473 863f
00000070: aa04 943f 635e 663f 107f 763f f844 b73f

conv_sequence.0.5.bias f4 [32]
-0.108830534 0.25407907 -0.10647768 -0.11143315 0.17656359 0.23117311 -0.043119945 -0.122261375
0.090195276 -0.15111814 -0.04454106 -0.25101337 -0.24450444 -0.20303965 -0.14787644 -0.323937
-0.022819525 -0.04203436 -0.022075102 0.337538 -0.20264421 -0.10545855 -0.024425114 -0.23602493
-0.10081547 0.16492698 -0.012855718 -0.26241782 0.095507756 -0.24877045 -0.2358336 -0.11945508
00000000: 8be2 debd a716 823e f810 dabd 1037 e4bd
00000010: 16cd 343e a5b8 6c3e 8a9e 30bd 2c64 fabd
00000020: 4db8 b83d b7be 1abe b070 36bd d384 80be
00000030: 5f5f 7abe a0e9 4fbe ec6c 17be 12db a5be
00000040: 03f0 babc 392c 2cbd d8d6 b4bc c8d1 ac3e
00000050: f781 4fbe a7fa d7bd 2d17 c8bc 85b0 71be
00000060: 5778 cebd 9ee2 283e caa0 52bc a15b 86be
00000070: 9299 c33d aebd 7ebe 5d7e 71be dda4 f4bd

conv_sequence.0.5.running_mean f4 [32]
0.0 0.0 0.0 0.0 0.0 0.0 0.0 0.0
0.0 0.0 0.0 0.0 0.0 0.0 0.0 0.0
0.0 0.0 0.0 0.0 0.0 0.0 0.0 0.0
0.0 0.0 0.0 0.0 0.0 0.0 0.0 0.0
00000000: 0000 0000 0000 0000 0000 0000 0000 0000
00000010: 0000 0000 0000 0000 0000 0000 0000 0000
00000020: 0000 0000 0000 0000 0000 0000 0000 0000
00000030: 0000 0000 0000 0000 0000 0000 0000 0000
00000040: 0000 0000 0000 0000 0000 0000 0000 0000
00000050: 0000 0000 0000 0000 0000 0000 0000 0000
00000060: 0000 0000 0000 0000 0000 0000 0000 0000
00000070: 0000 0000 0000 0000 0000 0000 0000 0000

conv_sequence.0.5.running_var f4 [32]
1.0 1.0 1.0 1.0 1.0 1.0 1.0 1.0
1.0 1.0 1.0 1.0 1.0 1.0 1.0 1.0
1.0 1.0 1.0 1.0 1.0 1.0 1.0 1.0
1.0 1.0 1.0 1.0 1.0 1.0 1.0 1.0
00000000: 0000 803f 0000 803f 0000 803f 0000 803f
00000010: 0000 803f 0000 803f 0000 803f 0000 803f
00000020: 0000 803f 0000 803f 0000 803f 0000 803f
00000030: 0000 803f 0000 803f 0000 803f 0000 803f
00000040: 0000 803f 0000 803f 0000 803f 0000 803f
00000050: 0000 803f 0000 803f 0000 803f 0000 803f
00000060: 0000 803f 0000 803f 0000 803f 0000 803f
00000070: 0000 803f 0000 803f 0000 803f 0000 803f

conv_sequence.1.model.0.weight f4 [32, 32, 3, 3]
-0.026265737 0.121926636 0.15068537 -0.015494986 0.006815694 0.092531465 -0.07471915 -0.017319981
0.03355079 -0.120133236 -0.05940804 -0.02666234 -0.18035345 -0.114934504 -0.073428296 -0.14869843
-0.07636919 -0.13798909 -0.029795468 -0.06279882 0.061781563 -0.022698523 -0.051750258 0.058334187
-0.021881668 0.03168557 0.015850168 0.01016112 0.02804493 0.03593613 0.022433082 0.0015317849
0.04192514 -0.03436298 0.022333305 -0.026693609 -0.040138565 -0.028092377 -0.11910537 -0.10764004
-0.09716613 -0.101404056 -0.021238208 -0.03255588 -0.1304957 -0.0049105147 0.0072762473 -0.12610304
-0.14729093 -0.11046351 -0.13073204 -0.09353903 -0.122608125 -0.12520784 -0.025755065 -0.026541235
0.06608787 0.034183443 0.014605688 0.056690637 0.015424557 -0.009269256 0.11372422 0.1815825
0.21878076 0.1670165 0.15978895 0.117083885 0.17455447 0.14148362 0.16260162 0.21420039
-0.054261915 -0.041410223 0.065889895 -0.05886745 -0.011812846 0.09828292 -0.09567406 0.04984477
0.16637604 -0.01626466 0.107036136 0.1644786 -0.017657127 0.055907782 0.14733845 -0.061507806
-0.0022175326 0.13446641 -0.07851245 -0.063324936 -0.007843744 -0.09559674 -0.023921825 -0.07238458
-0.0887362 -0.08895959 -0.14438619 0.08056575 0.060448047 0.06231912 0.097507626 0.05896645
-0.038290378 -0.04847259 0.039249618 -0.06459015 0.13997145 0.11354588 0.15365894 0.047743157
0.088636905 0.092376724 0.148114 0.088666275 0.09214593 0.026352338 0.026766513 0.035600632
0.05582403 0.065714814 0.036200657 0.14414746 0.085723855 -0.022013184 0.047585074 0.14938998
0.14517324 0.13024732 0.085728824 0.12163778 0.0027654523 0.031725653 0.031371173 0.04218663
0.02196241 0.09167237 -0.046752047 0.08136762 0.14604765 -0.11877816 -0.07165258 0.14336143
0.06389493 0.092921376 0.16347508 0.059000608 0.10838731 0.14267427 0.040643875 0.15297982
0.24903584 -0.01840257 0.02090985 0.14831924 -0.025577798 0.026913209 0.109211914 0.05072825
0.06337185 0.122871846 0.004969078 -0.033832252 -0.13057762 -0.07941416 -0.036781766 -0.09791499
-0.06027054 -0.030814473 -0.11620995 -0.07881419 0.0005215085 0.031330734 -0.14205873 -0.012339421
-0.0815987 -0.13311137 -0.081225306 -0.048369892 -0.02383227 0.04013461 0.0036184785 0.030269831
-0.044681877 0.0049443804 -0.06583173 0.025166655 0.003523248 -0.018549912 -0.025096972 0.047653582
-0.13889153 -0.061390687 -0.026778717 -0.13367808 -0.07633681 -0.050321113 -0.012839321 0.00966637
0.14218247 0.00041047035 0.090826534 0.123479545 -0.01752623 0.06844961 0.100968234 0.03242923
0.011910075 0.0032612223 0.018224373 0.00038746474 0.022361184 -0.050966717 -0.026099099 0.015454802
0.040059153 0.0056809084 -0.0039185006 -0.05331885 0.021887934 -0.027795896 0.004122519 -0.05409833
0.03077622 -0.15967716 -0.07520987 -0.09814003 -0.10943133 -0.024464076 -0.16499294 -0.1068419
-0.03002382 -0.086918004 -0.020626316 -0.019867798 -0.009082903 0.011095044 -0.05906237 -0.010000275
-0.05887477 0.041793007 -0.015677935 0.066745505 0.11916593 0.18687396 0.10779564 0.08263793
0.117597245 -0.023606818 0.09834969 0.084158614 0.10334541 0.1515802 0.1614815 0.06035729
00000000: 3e2b d7bc acb4 f93d 444d 1a3e afde 7dbc
00000010: 2f56 df3b 2381 bd3d 5b06 99bd a2e2 8dbc
00000020: 8e6c 093d 6a08 f6bd d855 73bd fb6a dabc
00000030: 93ae 38be c862 ebbd 9361 96bd 6744 18be
00000040: 7367 9cbd 034d 0dbe a015 f4bc ab9c 80bd
00000050: aa0e 7d3d 41f2 b9bc 14f8 53bd d4ef 6e3d
00000060: 2f41 b3bc bac8 013d 36d8 813c d47a 263c
00000070: 7bbe e53c c331 133d 95c5 b73c 2cc6 c83a
00000080: b2b9 2b3d 32c0 0cbd 56f4 b63c 8eac dabc
00000090: 5668 24bd fc21 e6bc 84ed f3bd 6272 dcbd
000000a0: 09ff c6bd eeac cfbd c0fb adbc 5059 05bd
000000b0: aaa0 05be 62e8 a0bb 966d ee3b 2821 01be
000000c0: 6fd3 16be b13a e2bd 9fde 05be 6491 bfbd
000000d0: f819 fbbd 7c36 00be 49fc d2bc 016d d9bc
000000e0: 1459 873d f003 0c3d b24c 6f3c 7134 683d
000000f0: 48b7 7c3c 14de 17bc 3ee8 e83d c3f0 393e
00000100: 1008 603e 6006 2b3e b79f 233e adc9 ef3d
00000110: 68be 323e 15e1 103e 0a81 263e 5957 5b3e
00000120: be41 5ebd c49d 29bd 48f1 863d ff1e 71bd
00000130: ab8a 41bc 8e48 c93d c3f0 c3bd 082a 4c3d
00000140: 7b5e 2a3e 773d 85bc c335 db3d 146d 283e
00000150: aea5 90bc 8fff 643d e4df 163e 9cef 7bbd
00000160: 0654 11bb 90b1 093e 23cb a0bd 81b0 81bd
00000170: 0c83 00bc 39c8 c3bd b4f7 c3bc 5e3e 94bd
00000180: 53bb b5bd 7230 b6bd f9d9 13be a8ff a43d
00000190: 5f98 773d 5542 7f3d 14b2 c73d ce86 713d
000001a0: 5fd6 1cbd 328b 46bd 35c4 203d d747 84bd
000001b0: ad54 0f3e be8a e83d c558 1d3e 548e 433d
000001c0: 4487 b53d 0230 bd3d 32ab 173e aa96 b53d
000001d0: 01b7 bc3d dce0 d73c 7245 db3c f8d1 113d
000001e0: bda7 643d 7d95 863d 2447 143d 649b 133e
000001f0: fd8f af3d fe54 b4bc 91e8 423d b0f9 183e
00000200: 4ba8 143e 8e5f 053e 9892 af3d 3a1d f93d
00000210: 973c 353b c2f2 013d 0f7f 003d e3cb 2c3d
00000220: 83ea b33c b9be bb3d 137f 3fbd 11a4 a63d
00000230: 848d 153e f741 f3bd 96be 92bd 57cd 123e
00000240: 58db 823d 904d be3d 0366 273e 9faa 713d
00000250: 2afa dd3d 3419 123e 317a 263d bea6 1c3e
00000260: 4003 7f3e fdc0 96bc 224b ab3c 00e1 173e
00000270: 8888 d1bc 1779 dc3c 7faa df3d 6dc8 4f3d
00000280: 1ac9 813d 3ca4 fb3d a6d3 a23b b093 0abd
00000290: 24b6 05be e4a3 a2bd 7aa8 16bd a787 c8bd
000002a0: 3ede 76bd a26e fcbc 7bff edbd 5669 a1bd
000002b0: d8b5 083a a854 003d d877 11be 482b 4abc
000002c0: 381d a7bd 594e 08be 7459 a6bd 821f 46bd
000002d0: e53b c3bc 3064 243d ff23 6d3b 70f8 f73c
000002e0: 5804 37bd 7804 a23b c9d2 86bd 4d2a ce3c
000002f0: 4be6 663b fcf5 97bc 2a98 cdbc 6730 433d
00000300: 9539 0ebe cd74 7bbd 0a5f dbbc e8e2 08be
00000310: 7956 9cbd 831d 4ebd 045c 52bc b25f 1e3c
00000320: 4898 113e 6634 d739 4303 ba3d d8e2 fc3d
00000330: 2b93 8fbc 4f2f 8c3d 6fc8 ce3d 83d4 043d
00000340: 7a22 433c 3bba 553b 484b 953c a324 cb39
00000350: cd2e b73c 7ac2 50bd c7cd d5bc 2336 7d3c
00000360: 1115 243d ea26 ba3b c466 80bb de64 5abd
00000370: 534e b33c 38b4 e3bc 3216 873b 3696 5dbd
00000380: 691e fc3c 6982 23be a207 9abd a4fd c8bd
00000390: 881d e0bd e368 c8bc e9f3 28be edcf dabd
000003a0: 84f4 f5bc 1102 b2bd 85f8 a8bc cbc1 a2bc
000003b0: 75d0 14bc fdc7 353c 62eb 71bd 32d8 23bc
000003c0: ac26 71bd 252f 2b3d 036f 80bc deb1 883d
000003d0: 440d f43d e35b 3f3e f6c3 dc3d 133e a93d
000003e0: d3d6 f03d 1663 c1bc 906b c93d 5a5b ac3d
000003f0: c2a6 d33d d737 1b3e 685b 253e 3539 773d

conv_sequence.1.model.0.bias f4 [32]
-0.04899939 -0.04864328 -0.031576645 0.032642104 -0.07506385 0.050810218 -0.00049745553 -0.0006520015
0.027088506 -0.0059442827 -0.031121034 0.053956483 0.04154567 0.013692695 0.068256505 -0.059215494
-0.03468289 0.07028827 -0.025281971 -0.004252447 0.02019449 -0.044899818 -0.029350763 0.029990705
-0.0017730154 -0.00073296455 -0.041220464 -0.038677685 -0.05871543 -0.074671894 0.08010158 -0.040992066
00000000: 96b3 48bd 2d3e 47bd 8356 01bd bab3 053d
00000010: 13bb 99bd 601e 503d ad67 02ba 14eb 2aba
00000020: b7e8 dd3c 42c8 c2bb 8af1 febc 7901 5d3d
00000030: cb2b 2a3d 5357 603c 11ca 8b3d f28b 72bd
00000040: a50f 0ebd 4cf3 8f3d 231c cfbc 1c58 8bbb
00000050: ea6e a53c dfe8 37bd 0371 f0bc 11af f53c
00000060: 8664 e8ba 6b24 40ba cad6 28bd 7e6c 1ebd
00000070: 977f 70bd 94ed 98bd 4c0c a43d 4ce7 27bd

conv_sequence.1.model.1.weight f4 [32, 32, 3, 3]
0.06767877 0.06912175 0.15364072 0.08873945 0.05116408 0.17202207 0.13294365 0.15984823
0.22005896 -0.10239824 -0.034756225 -0.022210427 -0.07762163 -0.030123247 -0.0035016197 -0.0471806
-0.09327074 -0.023277687 -0.042113114 -0.033414535 0.026864823 -0.061190333 -0.06698021 -0.025044024
-0.091146596 -0.077755585 0.006440295 0.034932874 0.034334928 0.040393274 0.05704151 0.014530028
-0.052719913 0.04602691 -0.014327515 -0.062292304 0.0967921 0.006773012 0.08359001 0.05173104
0.07760819 0.13759348 0.036909096 0.07444669 0.047502067 0.1159059 0.035120122 0.038426805
0.113164395 0.10166078 0.15557408 0.123795085 0.09333076 0.15447669 -0.055305704 -0.04367119
-0.03620408 0.025333473 0.030144148 0.102677025 -0.009418068 0.054638054 0.052426565 0.0670863
0.09849327 0.013513705 0.1337647 -0.009898418 -0.037274268 0.1427542 0.12042683 0.04891527
0.013747907 0.030798228 -0.12185007 0.086066075 0.026818471 -0.096812986 0.07405843 0.06331604
-0.0025097295 0.08196009 -0.011321715 0.064427 0.16217045 0.12368307 0.05561181 0.140508
0.094209924 0.17549282 -0.019066527 0.05869742 0.048063494 -0.06905525 0.010320512 0.06030948
0.033521727 0.058561515 0.016780153 0.10351416 0.04092776 0.041050293 -0.012077879 0.055920992
0.08832331 -0.028149566 0.032921083 0.10579764 0.10077156 0.05484183 -0.0026704206 0.07625711
0.012553772 -0.008282067 0.05622587 0.028855434 0.015330932 0.08215668 0.055137783 0.106216036
0.029930456 0.08361425 0.08787821 -0.0014472657 0.14186987 0.2065492 0.065890715 0.1335467
0.016525706 0.02622163 -0.016293 0.020937724 0.040617753 0.04575517 -0.03261477 0.027445816
0.053651825 -0.07399497 -0.113668755 -0.0027038318 -0.035827607 -0.030230474 0.021196142 -0.08912631
0.082273625 0.045521677 0.17223173 0.06594225 0.022906313 0.15772952 0.037829634 0.068476826
0.10781658 0.030170122 0.04032253 0.041171815 -0.07808249 -0.062071756 -0.05498934 -0.028494557
-0.076576956 -0.10169397 -0.17207132 -0.07025032 -0.24352196 -0.22163863 -0.16042514 -0.2658828
-0.22496508 -0.12333271 -0.26544568 0.01836041 0.041536607 0.020586358 0.08657762 0.01401292
0.079285346 0.101444505 0.08626118 0.1360173 -0.0005873706 0.11864561 0.113526545 0.13019484
0.07553177 0.081973374 0.15101865 0.07887455 0.10145964 0.17769545 0.00790583 -0.033455685
0.07213903 0.0899436 0.00802834 0.14402972 0.071418695 0.10479951 0.009360102 0.014301535
-0.05125694 0.02384077 -0.026336145 -0.045074545 0.015482681 -0.093716666 -0.020725466 -0.10275263
-0.15551116 -0.18126494 -0.24587028 -0.17819528 -0.27947646 -0.23457272 -0.2054363 -0.2186166
-0.011141345 0.0062042978 -0.08693098 -0.028295277 -0.0139730405 -0.023791712 -0.03627228 -0.0064964793
-0.14679585 0.03158889 0.016855963 -0.03404026 0.06312536 0.02450215 -0.03927094 0.015854072
0.024445282 0.06930183 -0.18906222 -0.09724566 -0.12301238 -0.11892068 -0.16364437 -0.17106865
-0.08294927 -0.0755012 -0.16801229 -0.1231078 0.0061402824 -0.011442939 -0.22530064 -0.13490663
-0.069015026 -0.17691985 -0.018351702 -0.06599061 -0.069238484 0.014897793 0.03051277 -0.15391508
00000000: 2b9b 8a3d b48f 8d3d fe53 1d3e 07bd b53d
00000010: 6d91 513d 8e26 303e 6122 083e 41af 233e
00000020: 2357 613e 2bb6 d1bd 8b5c 0ebd a4f2 b5bc
00000030: 17f8 9ebd 07c5 f6bc 6e7b 65bb 7240 41bd
00000040: bb04 bfbd d9b0 bebc cd7e 2cbd aedd 08bd
00000050: 9e13 dc3c b7a2 7abd ec2c 89bd 2029 cdbc
00000060: 11ab babd 523e 9fbd 1c09 d33b c615 0f3d
00000070: c8a2 0c3d 6b73 253d 5ca4 693d 5b0f 6e3c
00000080: d6f0 57bd b786 3c3d f4bd 6abc 3726 7fbd
00000090: f03a c63d 25f0 dd3b 3d31 ab3d ede3 533d
000000a0: 0bf1 9e3d 4ee5 0c3e fe2d 173d 8277 983d
000000b0: 8791 423d 1360 ed3d 1eda 0f3d 6d65 1d3d
000000c0: bcc2 e73d 8733 d03d d04e 1f3e 4788 fd3d
000000d0: 3324 bf3d 232f 1e3e 3c88 62bd 90e0 32bd
000000e0: bb4a 14bd 2588 cf3c dcf0 f63c 5548 d23d
000000f0: 3e4e 1abc 27cc 5f3d 3dbd 563d 8b64 893d
00000100: d7b6 c93d 9668 5d3c 9df9 083e f92c 22bc
00000110: e7ac 18bd 282e 123e 58a2 f63d 615b 483d
00000120: e73e 613c 914c fc3c 888c f9bd 6943 b03d
00000130: 69b2 db3c e345 c6bd f2ab 973d d7ab 813d
00000140: 467a 24bb b1da a73d b77e 39bc 4ef2 833d
00000150: 0310 263e 8d4d fd3d 36c9 633d 54e1 0f3e
00000160: 22f1 c03d 64b4 333e 6831 9cbc b56c 703d
00000170: 3ade 443d d76c 8dbd 5d17 293c 1307 773d
00000180: 144e 093d 33de 6f3d 8876 893c 3bff d33d
00000190: dea3 273d 5a24 283d 4ce2 45bc 690d 653d
000001a0: dae2 b43d eb99 e6bc 42d8 063d 6fac d83d
000001b0: 5261 ce3d d4a1 603d 3902 2fbb b02c 9c3d
000001c0: 56ae 4d3c 82b1 07bc 194d 663d 3b62 ec3c
000001d0: 972e 7b3c c341 a83d 28d8 613d cb87 d93d
000001e0: b730 f53c f33d ab3d 7ef9 b33d 2eb2 bdba
000001f0: 5646 113e a281 533e b6f1 863d 77c0 083e
00000200: eb60 873c bece d63c e678 85bc 9785 ab3c
00000210: cd5e 263d c669 3b3d 1197 05bd 0cd6 e03c
00000220: 04c2 5b3d ad8a 97bd 2acb e8bd c532 31bb
00000230: f8bf 12bd e6a5 f7bc 88a3 ad3c db87 b6bd
00000240: 137f a83d f074 3a3d 845d 303e bb0c 873d
00000250: 05a6 bb3c d983 213e 3ff3 1a3d 943d 8c3d
00000260: f0ce dc3d 5527 f73c 3d29 253d c7a3 283d
00000270: b6e9 9fbd f43e 7ebd 813c 61bd 6b6d e9bc
00000280: 61d4 9cbd ee44 d0bd 7733 30be 66df 8fbd
00000290: d25d 79be 3df5 62be 7d46 24be ca21 88be
000002a0: 3f5d 66be dc95 fcbd 7fe8 87be 9268 963c
000002b0: 4a22 2a3d b9a4 a83c 9b4f b13d 7296 653c
000002c0: 5b60 a23d 23c2 cf3d b4a9 b03d 1e48 0b3e
000002d0: c6f9 19ba 78fc f23d 9b80 e83d cc51 053e
000002e0: 67b0 9a3d a8e1 a73d a2a4 1a3e fb88 a13d
000002f0: 12ca cf3d ccf5 353e 7487 013c d408 09bd
00000300: a1bd 933d 5a34 b83d 4c89 033c 877c 133e
00000310: f743 923d 20a1 d63d 1d5b 193c fc50 6a3c
00000320: ccf2 51bd b84d c33c e6be d7bc 16a0 38bd
00000330: 12ab 7d3c 86ee bfbd 74c8 a9bc f96f d2bd
00000340: 513e 1fbe 849d 39be 6bc5 7bbe d378 36be
00000350: 8a17 8fbe d533 70be e55d 52be 08dd 5fbe
00000360: 308a 36bc 6c4d cb3b df08 b2bd 7fcb e7bc
00000370: 2eef 64bc d6e6 c2bc 3e92 14bd 6be0 d4bb
00000380: a751 16be 5a63 013d 8415 8a3c cd6d 0bbd
00000390: de47 813d bcb8 c83c 91da 20bd 66e0 813c
000003a0: 7941 c83c 1eee 8d3d 8799 41be bc28 c7bd
000003b0: eaed fbbd af8c f3bd 6492 27be 9f2c 2fbe
000003c0: 4fe1 a9bd 60a0 9abd 6a0b 2cbe f11f fcbd
000003d0: 6c34 c93b 2a7b 3bbc 36b5 66be f724 0abe
000003e0: c057 8dbd 7a2a 35be 4f56 96bc 1626 87bd
000003f0: e8cc 8dbd df15 743c ebf5 f93c ea9b 1dbe

conv_sequence.1.model.1.bias f4 [32]
-0.0059138373 0.016926497 -0.05375847 0.029408237 0.0394833 -0.0055180965 0.021314116 0.0030290207
-0.07301887 0.011793568 0.003980208 0.0056299856 -0.025409171 0.038613226 -0.023604741 0.027065909
0.007962771 -0.011998704 0.026436951 0.0007967987 0.02856432 0.018811248 0.035782214 -0.029999632
-0.043354567 -0.0459478 -0.038760733 0.02833071 -0.06186323 0.05101759 0.07431194 0.041338064
00000000: ddc8 c1bb 70a9 8a3c d731 5cbd 8be9 f03c
00000010: 3eb9 213d 26d1 b4bb f19a ae3c 8982 463b
00000020: eb8a 95bd cf39 413c 686c 823b be7b b83b
00000030: e526 d0bc e728 1e3d bb5e c1bc 53b9 dd3c
00000040: 4876 023c 3696 44bc 4e92 d83c 41e0 503a
00000050: b9ff e93c 0c1a 9a3c 5f90 123d cac1 f5bc
00000060: 8f94 31bd c333 3cbd 93c3 1ebd ce15 e83c
00000070: 4c64 7dbd d2f7 503d dc30 983d 1a52 293d

conv_sequence.3.weight f4 [32]
1.2902615 1.0684702 0.7547046 1.0782903 1.5096024 0.84306717 1.0161334 1.3830917
1.1332297 1.0727416 0.8002849 1.0438243 0.9684904 0.65965986 0.7856208 0.8027991
1.1107447 1.3349804 1.0620778 1.194227 0.712996 1.8711536 1.0010862 0.78095967
1.2986517 0.85011935 0.75567937 0.98804724 0.9312104 0.8678693 1.3811741 1.06623
00000000: 4a27 a53f a2c3 883f 5234 413f 6b05 8a3f
00000010: a73a c13f 40d3 573f a910 823f 2609 b13f
00000020: ac0d 913f 994f 893f 79df 4c3f 099c 853f
00000030: fdee 773f 78df 283f 721e 493f 3e84 4d3f
00000040: e22c 8e3f a3e0 aa3f 2af2 873f 6edc 983f
00000050: e886 363f f681 ef3f 9823 803f f9ec 473f
00000060: 383a a63f 6ca1 593f 3474 413f aaf0 7c3f
00000070: ce63 6e3f af2c 5e3f 50ca b03f 3a7a 883f

conv_sequence.3.bias f4 [32]
0.3529016 -0.058427602 -0.03582625 -0.010738026 -0.018239327 -0.22964503 0.044497363 -0.03296917
0.121493906 0.03052911 0.23079626 0.030251956 0.23333187 0.10128104 0.02484019 -0.0014895976
0.13854204 0.1430345 0.3841719 -0.07027699 -0.10431858 -0.29997662 0.23861597 0.079423025
-0.18595678 0.059106857 0.023804901 -0.04559139 -0.071561106 0.029050853 0.089824356 0.10171363
00000000: 85af b43e c851 6fbd 8cbe 12bd 8cee 2fbc
00000010: a46a 95bc 1128 6bbe de42 363d ae0a 07bd
00000020: ccd1 f83d 2f18 fa3c db55 6c3e f3d2 f73c
00000030: 8dee 6e3e 6f6c cf3d a77d cb3c 9a3e c3ba
00000040: f7dd 0d3e a377 123e 2eb2 c43e 62ed 8fbd
00000050: fba4 d5bd 8996 99be bf57 743e 8aa8 a23d
00000060: 746b 3ebe 081a 723d 7f02 c33c 0abe 3abd
00000070: a18e 92bd 0efc ed3c d5f5 b73d 3c4f d03d

conv_sequence.3.running_mean f4 [32]
0.0 0.0 0.0 0.0 0.0 0.0 0.0 0.0
0.0 0.0 0.0 0.0 0.0 0.0 0.0 0.0
0.0 0.0 0.0 0.0 0.0 0.0 0.0 0.0
0.0 0.0 0.0 0.0 0.0 0.0 0.0 0.0
00000000: 0000 0000 0000 0000 0000 0000 0000 0000
00000010: 0000 0000 0000 0000 0000 0000 0000 0000
00000020: 0000 0000 0000 0000 0000 0000 0000 0000
00000030: 0000 0000 0000 0000 0000 0000 0000 0000
00000040: 0000 0000 0000 0000 0000 0000 0000 0000
00000050: 0000 0000 0000 0000 0000 0000 0000 0000
00000060: 0000 0000 0000 0000 0000 0000 0000 0000
00000070: 0000 0000 0000 0000 0000 0000 0000 0000

conv_sequence.3.running_var f4 [32]
1.0 1.0 1.0 1.0 1.0 1.0 1.0 1.0
1.0 1.0 1.0 1.0 1.0 1.0 1.0 1.0
1.0 1.0 1.0 1.0 1.0 1.0 1.0 1.0
1.0 1.0 1.0 1.0 1.0 1.0 1.0 1.0
00000000: 0000 803f 0000 803f 0000 803f 0000 803f
00000010: 0000 803f 0000 803f 0000 803f 0000 803f
00000020: 0000 803f 0000 803f 0000 803f 0000 803f
00000030: 0000 803f 0000 803f 0000 803f 0000 803f
00000040: 0000 803f 0000 803f 0000 803f 0000 803f
00000050: 0000 803f 0000 803f 0000 803f 0000 803f
00000060: 0000 803f 0000 803f 0000 803f 0000 803f
00000070: 0000 803f 0000 803f 0000 803f 0000 803f

conv_sequence.4.model.0.weight f4 [32, 32, 3, 3]
0.057622734 0.027802816 0.104544505 0.0014721941 0.032073066 0.05913029 0.031897612 0.05037479
-0.028326817 0.022124745 -0.0023718595 -0.044875484 -0.06697181 -0.030032597 0.03455414 -0.05841879
0.02664139 0.051227402 -0.06756798 -0.06524719 -0.043949988 0.0010126053 -0.0033908451 -0.065159254
0.03522821 0.045033947 0.00085210765 -0.07716579 -0.02683373 -0.06026862 -0.08853542 -0.069499224
-0.00033768828 -0.14663677 -0.057330325 0.009634002 -0.09696958 -0.002258744 -0.004891302 -0.004971419
-0.10340494 -0.020439196 0.008925364 0.003166725 -0.009643801 -0.007890932 0.07574473 0.11653691
0.03970978 0.08422186 0.10934596 0.061315883 0.06650886 0.07546578 0.009469521 -0.05812218
-0.012928309 -0.056402374 0.009337714 0.04678165 0.08005269 0.03067543 -0.053136267 -0.018878624
-0.011463097 -0.14228512 -0.03010129 -0.029868035 -0.097619526 -0.011562088 -0.090568736 -0.05051157
-0.07164351 -0.0538922 -0.06302282 -0.049843915 -0.026975777 -0.037863772 -0.009239697 0.0009504433
0.046341512 -0.00018052918 0.02276336 -0.028160142 -0.0024004376 -0.068866536 0.004425944 0.0048809377
-0.017274557 -0.028026994 -0.058412384 0.041316282 0.046885327 -0.028703116 -0.0011197039 0.060308658
0.011861356 -0.023574874 0.027728751 -0.10980758 -0.11334901 -0.078735344 -0.019863814 -0.07323614
-0.047614064 0.016337363 -0.048661407 0.03336217 0.042265072 0.11380578 0.029112833 0.041457426
0.06394332 -0.026033605 0.016033657 -0.029444508 -0.036284205 0.03370906 0.03217648 -0.04684537
0.02037573 -0.08505247 -0.07674767 -0.020873899 0.0054601915 -0.056840856 0.055539023 0.04993612
0.047015697 -0.06073937 -0.022041569 0.0029403246 -0.059278823 0.013597108 0.025181716 -0.053011857
-0.06619455 -0.01880301 -0.023209786 0.0057458677 0.007352895 -0.040201522 -0.03375563 0.0018925179
-0.06885167 -0.016394252 -0.01960748 -0.054604158 -0.01308002 -0.08796574 -0.15041856 -0.043038145
-0.013903424 -0.031456303 -0.08492564 -0.03798095 -0.024280977 -0.082049266 -0.028309688 -0.027697768
0.046852514 -0.059272386 0.1870832 0.06920551 0.033083122 0.08332063 0.11520985 0.042483132
0.09741877 0.0672481 0.032316897 -0.04633071 -0.013406287 -0.094282635 -0.023534061 -0.051782582
0.020365095 -0.033820797 -0.022121714 0.06957916 -0.06949296 -0.13055253 -0.04722855 -0.095664084
-0.0818288 0.022823684 0.009467863 -0.06443595 0.0038604718 0.12744407 0.17977369 0.13499014
0.22724716 0.20641468 0.15481289 0.16008326 0.13054985 0.13259734 0.09053466 0.06225012
0.06504566 -0.033369053 0.037096586 0.017609587 -0.026821293 0.010552021 0.06194387 -0.0065352004
-0.010819363 0.06302853 0.041493986 -0.005120121 0.06345231 0.06488745 0.039082825 0.06447055
-0.061840393 -0.04513607 -0.08141182 0.0052660676 -0.012804664 -0.056444813 0.04622251 0.02437028
0.054302745 -0.054213226 0.024648529 0.03318064 -0.016566733 -0.07520914 0.035558257 -0.031426646
-0.04247481 0.038670458 -0.0664756 0.03755172 -0.056546193 -0.010852851 0.006960484 0.043737907
0.034362797 0.019110404 -0.034031227 0.007908821 0.017953902 0.09835509 0.05170317 -0.00035213033
0.02169542 -0.0051903916 0.095516115 0.06360185 -0.006696109 -0.035527956 0.051554583 -0.008955257
00000000: d105 6c3d bbc2 e33c 6e1b d63d a3f6 c03a
00000010: 0c5f 033d 9a32 723d 12a7 023d cc55 4e3d
00000020: a40d e8bc f43e b53c 3371 1bbb 5bcf 37bd
00000030: 8428 89bd ec06 f6bc a488 0d3d 8b48 6fbd
00000040: 0b3f da3c d3d3 513d 1561 8abd 52a0 85bd
00000050: e704 34bd 65b9 843a f138 5ebb 3772 85bd
00000060: 754b 103d 8475 383d fa5f 5f3a 1909 9ebd
00000070: 69d2 dbbc 3adc 76bd 0f52 b5bd 9c55 8ebd
00000080: c10b b1b9 f327 16be 34d3 6abd efd7 1d3c
00000090: fd97 c6bd 7007 14bb 3747 a0bb 49e7 a2bb
000000a0: f8c5 d3bd 1a70 a7bc b13b 123c d488 4f3b
000000b0: 0801 1ebc f848 01bc 0e20 9b3d e7aa ee3d
000000c0: b9a6 223d 837c ac3d c6f0 df3d 5d26 7b3d
000000d0: cc35 883d ce8d 9a3d 0d26 1b3c 8611 6ebd
000000e0: 42d1 53bc 2d06 67bd 36fd 183c 1e9e 3f3d
000000f0: aaf2 a33d 0a4b fb3c 6aa5 59bd 58a7 9abc
00000100: b7cf 3bbc 31b3 11be fb96 f6bc cfad f4bc
00000110: bfec c7bd e96e 3dbc 1a7c b9bd 38e5 4ebd
00000120: d5b9 92bd 11be 5cbd 1c12 81bd 2229 4cbd
00000130: 4efc dcbc 0b17 1bbd 1962 17bc 2c27 793a
00000140: 99d0 3d3d 6f4c 3db9 3a7a ba3c 19b0 e6bc
00000150: a950 1dbb e609 8dbd 8207 913b 46f0 9f3b
00000160: 5f83 8dbc de98 e5bc d341 6fbd 433b 293d
00000170: d40a 403d cc22 ebbc 07c3 92ba 3606 773d
00000180: 2256 423c 1820 c1bc 6827 e33c cce2 e0bd
00000190: 8723 e8bd ff3f a1bd 70b9 a2bc d4fc 95bd
000001a0: f706 43bd efd5 853c 2f51 47bd c5a6 083d
000001b0: 241e 2d3d 0113 e93d 097e ee3c 43cf 293d
000001c0: b7f4 823d 6d44 d5bc 0459 833c 9c35 f1bc
000001d0: bf9e 14bd 8312 0a3d 7ccb 033d eee0 3fbd
000001e0: 01eb a63c fd2f aebd e22d 9dbd bdff aabc
000001f0: 68eb b23b f5d1 68bd e37c 633d d189 4c3d
00000200: 8893 403d d8c9 78bd 8590 b4bc 76b2 403b
00000210: 5ace 72bd 68c6 5e3c e349 ce3c f622 59bd
00000220: 0291 87bd c508 9abc 7322 bebc d547 bc3b
00000230: 8ef0 f03b 5aaa 24bd 5843 0abd 5d0e f83a
00000240: 1b02 8dbd 3d4d 86bc de9f a0bc 9ca8 5fbd
00000250: 954d 56bc 6227 b4bd 5307 1abe c448 30bd
00000260: 30cb 63bc 53d8 00bd 7eed adbd ea91 1bbd
00000270: e6e8 c6bc 7209 a8bd b8e9 e7bc 6ee6 e2bc
00000280: 6ce8 3f3d 9ac7 72bd bd92 3f3e 9ebb 8d3d
00000290: 2b82 073d 02a4 aa3d 24f3 eb3d cb02 2e3d
000002a0: 7e83 c73d 5fb9 893d b95e 043d 45c5 3dbd
000002b0: 0ba6 5bbc 4117 c1bd 81ca c0bc f919 54bd
000002c0: b3d4 a63c ad87 0abd 9938 b5bc 857f 8e3d
000002d0: 5352 8ebd 90af 05be b972 41bd 88eb c3bd
000002e0: dc95 a7bd bcf8 ba3c 181f 1b3c fff6 83bd
000002f0: f8ff 7c3b b380 023e 9816 383e db3a 0a3e
00000300: 7bb3 683e 5f5e 533e 4587 1e3e deec 233e
00000310: dcae 053e 99c7 073e 3c6a b93d fbf9 7e3d
00000320: a936 853d fdad 08bd 97f2 173d fb41 903c
00000330: 54b8 dbbc 62e2 2c3c dbb8 7d3d 3c25 d6bb
00000340: b343 31bc 1a15 813d 99f5 293d b0c6 a7bb
00000350: 49f3 813d b6e3 843d 5015 203d 2309 843d
00000360: 5a4c 7dbd 9ae0 38bd 3ebb a6bd fa8e ac3b
00000370: a7ca 51bc ad32 67bd d153 3d3d 2ea4 c73c
00000380: 8e6c 5e3d b00e 5ebd b6eb c93c 6ce8 073d
00000390: f5b6 87bc 4007 9abd 89a5 113d 3ab9 00bd
000003a0: 11fa 2dbd ea64 1e3d 5c24 88bd d5cf 193d
000003b0: fb9c 67bd 28d0 31bc c614 e43b 8526 333d
000003c0: 01c0 0c3d 6c8d 9c3c 5464 0bbd 0094 013c
000003d0: 1014 933c 656e c93d b4c6 533d 229e b8b9
000003e0: 98ba b13c 2914 aabb f49d c33d b041 823d
000003f0: 096b dbbb c385 11bd e62a 533d 12b9 12bc

conv_sequence.4.model.0.bias f4 [32]
-0.024115877 0.0420779 -0.04651207 0.082225576 0.02383007 -0.0028700996 0.01587923 -0.012773135
0.055316467 0.091155976 0.040509045 0.028986303 0.013212166 -0.023011994 0.027954655 0.017359946
0.0013974787 -0.014026838 -0.023396254 0.009217024 0.06365483 -0.0017143047 -0.033408713 0.06543227
0.048805505 0.010654085 -0.013448573 0.05251987 -0.050819106 0.049631543 0.011217484 0.0034728837
00000000: a98e c5bc e059 2c3d 7183 3ebd e265 a83d
00000010: 4737 c33c 4818 3cbb 2915 823c 6946 51bc
00000020: 8593 623d fcaf ba3d d0ec 253d af74 ed3c
00000030: d777 583c a683 bcbc 2901 e53c 7236 8e3c
00000040: 9b2b b73a d3d0 65bc 80a9 bfbc 0003 173c
00000050: 775d 823d 85b2 e0ba 93d7 08bd 5b01 863d
00000060: 48e8 473d 798e 2e3c 6757 5cbc 131f 573d
00000070: b227 50bd 724a 4b3d 8ac9 373c 5299 633b

conv_sequence.4.model.1.weight f4 [32, 32, 3, 3]
-0.14766586 -0.08316439 -0.022256956 -0.12807938 -0.054487523 -0.06930167 -0.05480251 -0.06800173
-0.01843929 0.12521122 0.115267314 0.052017223 0.0757438 0.10342458 0.09531487 0.056234587
-0.016131202 0.09506523 0.0023273563 -0.059745874 -0.04710704 0.009999809 -0.06537121 -0.018176185
0.02886748 -0.07719747 -0.04801149 -0.0006813305 -0.071036674 0.042394694 -0.0517065 0.05299348
0.026828595 -0.015200765 -0.03130952 0.06833301 -0.07311261 -0.042320333 -0.09203023 0.03099098
0.052384064 -0.037001394 0.033175338 0.01856976 0.06702273 0.090912245 0.038226698 0.025760457
0.0061776335 0.10862997 0.062874675 0.059847075 0.040779743 0.030365925 0.0016713849 0.07772821
0.0887218 0.0066148792 0.045499064 0.020924658 -0.065511696 -0.011023926 -0.00067075435 0.027629213
0.016269896 0.07591442 0.016826475 0.035362985 0.03574571 0.008219623 0.015860815 0.08214706
0.028744288 -0.020821525 -0.08939186 -0.09205212 -0.11314747 -0.12900873 0.006884315 -0.14277391
-0.16867293 -0.31707156 -0.28445208 -0.2919925 -0.26879036 -0.2884445 -0.3480728 -0.27431443
-0.22965334 -0.3484413 -0.048027325 0.0381776 -0.018705029 0.0077546225 -0.009410051 0.009776664
-0.091571204 0.015469331 -0.09624851 -0.26934457 -0.25633618 -0.24546598 -0.24574767 -0.24554168
-0.23256278 -0.12392756 -0.20674294 -0.14655112 0.02652382 0.01121488 -0.06724983 0.0875025
-0.008332009 -0.0044265864 0.045004297 0.014393956 -0.0017365888 0.17313653 0.17584804 0.08539996
0.09417891 0.08133383 0.002293343 0.07287922 0.0041517983 -0.04491553 -0.013474273 0.058375277
0.06384168 0.03585883 0.07547107 0.17770568 0.03994161 0.04247946 0.19634636 0.14727302
0.06290566 0.14315745 0.11933854 0.19401427 0.104486376 0.15187651 0.13709304 0.17707573
0.106960446 0.13225771 0.11082727 0.12748536 0.14389242 0.11699011 0.12089899 0.16741003
0.17455196 -0.16086255 -0.20329931 -0.22640881 -0.12427028 -0.21363305 -0.192648 -0.08785415
-0.19373992 -0.20129837 -0.079563595 -0.08811263 -0.15992905 -0.076715514 -0.12680525 -0.11096441
-0.016063336 -0.054597452 -0.06594942 0.16921155 0.12381185 0.113448925 0.24576685 0.16009998
0.18633126 0.15676746 0.18649986 0.22742146 -0.09666807 -0.033062585 -0.058229454 -0.11899904
-0.049308125 -0.029186195 -0.025185939 -0.07482254 -0.11691671 -0.10617788 -0.045256585 -0.10703529
-0.10063014 -0.09989822 -0.14530037 -0.10457724 -0.13592824 -0.08718176 -0.1332324 -0.17825192
-0.17937477 -0.19843245 -0.13251807 -0.17920613 -0.122876965 -0.07097549 -0.107417785 -0.1418544
-0.10404281 -0.15801454 -0.14593063 -0.14482716 -0.008527836 -0.120213635 -0.083629504 -0.05084934
-0.027461747 -0.0646106 0.052434716 -0.03491972 -0.020220283 -0.00078516186 -0.005870192 -0.012056882
0.06825311 0.07696695 0.08777087 0.10099387 0.111400776 0.010315289 0.04679803 0.16054466
0.07842905 0.053648792 0.068430305 0.019665163 0.055127475 0.0619588 0.074782915 0.09330049
0.05307621 0.07970919 0.01369842 -0.050278597 -0.0032475872 0.0076152817 -0.004815133 -0.02132698
0.074839056 -0.05934911 0.024362864 -0.019105911 -0.44163898 -0.4265569 -0.45051256 -0.40451473
00000000: b835 17be 1752 aabd 3854 b6bc 3e27 03be
00000010: 4f2e 5fbd 09ee 8dbd 9978 60bd 7e44 8bbd
00000020: fe0d 97bc 5f37 003e 4511 ec3d 0310 553d
00000030: 911f 9b3d 44d0 d33d 7134 c33d 3d56 663d
00000040: 9525 84bc 8fb1 c23d 8f86 183b 17b8 74bd
00000050: 50f3 40bd 3dd6 233c 57e1 85bd 39e6 94bc
00000060: 7e7b ec3c b519 9ebd b2a7 44bd 519b 32ba
00000070: ad7b 91bd 0fa6 2d3d 32ca 53bd b10f 593d
00000080: a4c7 db3c a10c 79bc 693e 00bd 2df2 8b3d
00000090: 10bc 95bd 1658 2dbd 587a bcbd cce0 fd3c
000000a0: ac90 563d c68e 17bd dde2 073d 9c1f 983c
000000b0: 3743 893d 3330 ba3d 9993 1c3d 9807 d33c
000000c0: bf6d ca3b 6479 de3d 70c4 803d 3522 753d
000000d0: a908 273d f6c1 f83c 5f12 db3a f82f 9f3d
000000e0: c6b3 b53d a1c1 d83b 3a5d 3a3d 306a ab3c
000000f0: ff2a 86bd b29d 34bc 90d5 2fba a956 e23c
00000100: 7248 853c 0579 9b3d add7 893c c7d8 103d
00000110: 186a 123d 99ab 063c 8aee 813c b83c a83d
00000120: 2479 eb3c e791 aabc 1413 b7bd d285 bcbd
00000130: dcb9 e7bd dd1a 04be d295 e13b 5333 12be
00000140: 99b8 2cbe 3457 a2be b4a3 91be 0a80 95be
00000150: e49e 89be ffae 93be 9936 b2be f172 8cbe
00000160: 3f2a 6bbe e666 b2be 4db8 44bd 1d60 1c3d
00000170: 4a3b 99bc 7d1a fe3b 9d2c 1abc 4d2e 203c
00000180: af89 bbbd 1473 7d3c f01d c5bd 88e7 89be
00000190: 7f3e 83be 6f5b 7bbe 47a5 7bbe 476f 7bbe
000001a0: f024 6ebe bccd fdbd 6cb4 53be 7f11 16be
000001b0: 7b48 d93c 9ebe 373c 47ba 89bd 8334 b33d
000001c0: fb82 08bc e60c 91bb 6d56 383d a1d4 6b3c
000001d0: 409e e3ba b44a 313e 8211 343e 2de6 ae3d
000001e0: dfe0 c03d 5a92 a63d e94b 163b b341 953d
000001f0: cf0b 883b 59f9 37bd 32c3 5cbc ea1a 6f3d
00000200: 6dbf 823d b5e0 123d 9490 9a3d 7af8 353e
00000210: d099 233d f1fe 2d3d 050f 493e bdce 163e
00000220: afd4 803d de97 123e c467 f43d adab 463e
00000230: f4fc d53d 8485 1b3e 1e62 0c3e 5753 353e
00000240: 140e db3d 916e 073e 68f9 e23d 868b 023e
00000250: 8958 133e 8398 ef3d e499 f73d 896d 2b3e
00000260: c0bd 323e 27b9 24be b22d 50be b6d7 67be
00000270: 6b81 febd 9fc2 5abe 8445 45be e0ec b3bd
00000280: c263 46be 2921 4ebe 3df2 a2bd 6574 b4bd
00000290: 71c4 23be 061d 9dbd 3cd9 01be 4f41 e3bd
000002a0: 4297 83bc 94a1 5fbd 7d10 87bd cb45 2d3e
000002b0: 1191 fd3d e957 e83d 4eaa 7b3e 40f1 233e
000002c0: 9fcd 3e3e a687 203e d2f9 3e3e 2ce1 683e
000002d0: e9f9 c5bd a26c 07bd 0282 6ebd c5b5 f3bd
000002e0: 51f7 49bd e317 efbc be52 cebc 8f3c 99bd
000002f0: 0772 efbd ca73 d9bd f85e 39bd 5135 dbbd
00000300: 2d17 cebd 7097 ccbd 9fc9 14be 982c d6bd
00000310: c630 0bbe 5a8c b2bd 136e 08be ac87 36be
00000320: 05ae 37be e031 4bbe d1b2 07be d081 37be
00000330: eba6 fbbd 995b 91bd dbfd dbbd 4842 11be
00000340: 6614 d5bd 90ce 21be d76e 15be 924d 14be
00000350: 56b8 0bbc 9132 f6bd f245 abbd 6647 50bd
00000360: 75f7 e0bc 9052 84bd c9c5 563d fb07 0fbd
00000370: 02a5 a5bc 52d3 4dba bd5a c0bb 3a8a 45bc
00000380: 49c8 8b3d d9a0 9d3d 37c1 b33d e0d5 ce3d
00000390: 1726 e43d 7501 293c 4baf 3f3d d265 243e
000003a0: 699f a03d d6be 5b3d 3025 8c3d d618 a13c
000003b0: 59cd 613d 83c8 7d3d c927 993d 5414 bf3d
000003c0: 7166 593d 923e a33d 566f 603c eef0 4dbd
000003d0: 79d5 54bb 9d89 f93b 43c8 9dbb ebb5 aebc
000003e0: 3845 993d 0d18 73bd a194 c73c 0084 9cbc
000003f0: 811e e2be aa65 dabe 95a9 e6be 8e1c cfbe

conv_sequence.4.model.1.bias f4 [32]
0.01842043 -0.031748336 -0.026826166 0.0022543399 -0.0070347483 -0.07010012 0.020326601 0.0013988066
0.034869853 -0.0062529286 0.026391484 0.052126985 0.013557124 -0.032637786 0.014816397 -0.035994098
-0.027104251 0.039598074 -0.041988622 0.035813652 0.032964412 0.013548165 -0.021052375 0.002308566
-0.04223119 0.058280338 -0.043388274 -0.0639585 -0.004198192 -0.03605444 -0.00022777848 -0.043837633
00000000: 71e6 963c 8b0a 02bd 8cc2 dbbc 8cbd 133b
00000010: bf83 e6bb a790 8fbd f983 a63c 2958 b73a
00000020: b1d3 0e3d 5ee5 ccbb f432 d83c 1b83 553d
00000030: b31e 5e3c 33af 05bd 79c0 723c 8c6e 13bd
00000040: bc09 debc 9731 223d 43fc 2bbd 56b1 123d
00000050: b105 073d 1ff9 5d3c 0876 acbc 4f4b 173b
00000060: 9dfa 2cbd 5db7 6e3d e7b7 31bd adfc 82bd
00000070: fd90 89bb d2ad 13bd d2d7 6eb9 178f 33bd

conv_sequence.6.weight f4 [32]
1.1241966 1.2283002 0.6648486 0.8097418 1.4288571 0.895199 0.49511126 1.2715054
1.0601945 0.99078953 1.2861313 1.0376844 1.0216238 1.219222 0.54652727 1.0565714
0.8133887 0.9243568 1.0717968 0.97966486 1.1053048 1.8017578 0.85511315 0.8338567
0.88637084 0.93895936 0.77149314 0.9971618 1.1764125 1.2626714 0.76065326 0.87172544
00000000: ade5 8f3f f138 9d3f 8533 2a3f 3d4b 4f3f
00000010: cae4 b63f c32b 653f 397f fd3e b0c0 a23f
00000020: 74b4 873f 62a4 7d3f f39f a43f d8d2 843f
00000030: 92c4 823f 770f 9c3f 36e9 0b3f bb3d 873f
00000040: 3e3a 503f a6a2 6c3f a330 893f 51cb 7a3f
00000050: a17a 8d3f 00a0 e63f b2e8 5a3f a277 553f
00000060: 33e9 623f a45f 703f 9380 453f ff45 7f3f
00000070: af94 963f 379f a13f 2cba 423f 6629 5f3f

conv_sequence.6.bias f4 [32]
-0.2063362 -0.7420893 0.16181967 -0.32725772 -0.64177984 -0.4182007 -0.21532021 0.7127734
-0.4842028 0.33000204 0.8018693 -0.13042851 0.1993056 0.014093957 0.30466858 -0.3082733
0.078960374 -0.29314244 0.62855375 -0.25452211 -0.17989625 0.17027 -0.5582566 -0.37729132
0.4054785 0.40362367 -0.18126829 -0.43235028 0.09737798 0.5758858 -0.23025103 -0.59321946
00000000: cc49 53be 90f9 3dbf 0eb4 253e 538e a7be
00000010: af4b 24bf 671e d6be e77c 5cbe 5178 363f
00000020: 6ee9 f7be 07f6 a83e 4e47 4d3f 0d8f 05be
00000030: c416 4c3e 57ea 663c 85fd 9b3e ffd5 9dbe
00000040: fab5 a13d c416 96be e6e8 203f b950 82be
00000050: b936 38be 425b 2e3e e8e9 0ebf 542c c1be
00000060: e19a cf3e c3a7 ce3e 659e 39be 045d ddbe
00000070: 1b6e c73d 406d 133f edc6 6bbe 3bdd 17bf
