MAMLExperiments/src/trained_models/resnet.pth (torch, 345652 bytes, 52 tensors)

conv_sequence.0.0.weight f4 [16, 1, 5, 5]
-0.12528607 -0.12913047 -0.08445935 -0.14805254 -0.28762072 0.2601055 0.2973728 0.06400124
0.25845 0.316905 0.15365301 0.015815485 0.028651912 -0.18035989 -0.12972273 -0.23605576
-0.0947294 -0.039292336 -0.23602255 -0.24919173 -0.1824603 -0.0033629343 0.041272916 -0.06660407
-0.09604425 -0.0994783 0.051279332 -0.094393805 0.21059121 0.17443377 0.061356574 0.040953495
0.0415058 0.18437482 0.18994714 -0.030979695 -0.18085268 0.25047472 0.12721755 0.12746525
-0.19636224 0.025772182 -0.036085084 -0.18569215 -0.062336817 -0.18640341 -0.15003425 0.06324062
-0.044443343 -0.14497416 -0.1984131 -0.36082464 -0.061513223 -0.0356677 0.1457429 0.019380035
-0.40671203 0.089421436 -0.31132028 0.092030354 0.12045997 -0.3403615 0.11828426 -0.23920897
-0.27130198 0.0019243457 -0.28144467 -0.013546513 -0.2910001 0.029015817 -0.2591898 -0.24325073
0.038343575 -0.2966489 0.113904685 0.107944995 0.065978214 -0.19529584 -0.07733137 -0.10164761
0.1733964 -0.15863253 0.06560707 0.027385218 -0.14339516 -0.16679275 0.021029051 -0.06596315
-0.17008483 -0.08249445 -0.099586055 -0.20967864 -0.13147002 -0.034521766 0.07397834 -0.10499244
-0.109977424 -0.004384858 -0.22351147 0.18756154 -0.07747605 -0.06456761 -0.032835986 -0.13449399
-0.1403538 -0.014908778 0.032720853 -0.15318264 0.007234136 -0.011606476 0.022978136 -0.09432575
-0.20731007 0.041686684 0.119289614 -0.0565827 -0.04609464 0.044494815 0.071636476 -0.12909259
0.040922754 -0.001819367 -0.18214571 -0.084467806 -0.007962221 -0.11138886 -0.035811983 0.017229628
-0.07042499 -0.1398678 0.024978075 -0.16090475 -0.000813934 -0.051696315 -0.1496327 -0.17695542
-0.18742476 -0.16265142 -0.0815165 0.05033348 0.10333541 0.20462601 0.08913234 0.17279558
-0.09100741 -0.18719223 -0.20780894 -0.21962677 -0.06319997 0.049911086 -0.20705484 0.17300811
-0.0020977296 -0.30588916 0.047833342 -0.16545871 0.17178258 0.39532727 -0.2064499 -0.09773295
0.07116574 0.1502698 0.17568725 -0.28070903 -0.08945566 -0.16030385 -0.16335955 0.1876152
0.16007225 0.003685488 -0.15893231 -0.14092663 -0.17008203 0.061136745 0.032085538 -0.042161714
0.04905519 -0.15338345 -0.008576068 0.02031436 -0.08492853 -0.02987176 -0.10385891 -0.11875673
-0.06007501 0.029052345 -0.05503055 0.16835637 -0.15190037 0.12778512 -0.1582616 -0.01935024
-0.09681522 -0.21084481 -0.015270808 0.060286056 0.07156175 -0.054752048 -0.1717808 -0.02341122
-0.07621295 -0.15508236 -0.10555683 -0.17280015 0.005722781 0.02413387 -0.063321404 -0.20601876
-0.07951794 -0.05695347 0.028549459 0.18146881 0.22556585 -0.017194219 0.047628038 0.45277154
0.2033372 0.2997568 0.37246907 0.35654715 0.087532856 0.2011016 0.108862825 0.005789484
-0.009206115 -0.19385639 -0.133456 -0.052484144 -0.019830635 -0.2662386 -0.25830525 -0.064315625
-0.012169328 -0.18667571 -0.11747517 0.060972348 -0.10547957 0.03512421 -0.1817775 0.039913323
-0.2168075 -0.04854909 -0.23482835 -0.041101277 -0.22867319 0.34429666 0.19790849 0.4357023
0.4031217 0.44618982 0.0049838247 -0.19458151 -0.11365012 -0.1006677 0.07584361 0.06463864
00000000: fe4a 00be c73a 04be 06f9 acbd 169b 17be
00000010: 0643 93be 8c2c 853e 3f41 983e 1513 833d
00000020: 8f53 843e 5f41 a23e 3757 1d3e 7a8f 813c
00000030: 6ab7 ea3c 43b0 38be 09d6 04be 9ab8 71be
00000040: 7d01 c2bd 00f1 20bd e5af 71be 1e2c 7fbe
00000050: dfd6 3abe ad64 5cbb ca0d 293d b767 88bd
00000060: d9b2 c4bd 47bb cbbd 470a 523d 8a51 c1bd
00000070: 39a5 573e c49e 323e 0851 7b3d dabe 273d
00000080: fc01 2a3d c1cc 3c3e 8181 423e 21c9 fdbc
00000090: 7231 39be 393e 803e 5145 023e 4086 023e
000000a0: 2f13 49be 2f20 d33c f4cd 13bd 1526 3ebe
000000b0: e454 7fbd 89e0 3ebe 94a2 19be 4c84 813d
000000c0: 390a 36bd 1b74 14be ce2c 4bbe 02be b8be
000000d0: 4af5 7bbd 4b18 12bd a03d 153e e1c2 9e3c
000000e0: 8f3c d0be 9622 b73d 5f65 9fbe 697a bc3d
000000f0: b7b3 f63d dd43 aebe 053f f23d 32f3 74be
00000100: 18e8 8abe 543a fc3a 8419 90be 32f2 5dbc
00000110: f7fd 94be 94b2 ed3c 87b4 84be b816 79be
00000120: 270e 1d3d 5de2 97be dc46 e93d 4412 dd3d
00000130: 961f 873d a2fb 47be e95f 9ebd 9f2c d0bd
00000140: d38e 313e 9170 22be 005d 863d f756 e03c
00000150: 2ed6 12be b8cb 2abe 1e45 ac3c b017 87bd
00000160: b82a 2ebe daf2 a8bd c6f3 cbbd ffb5 56be
00000170: 14a0 06be b266 0dbd f581 973d 4706 d7bd
00000180: d83b e1bd dbae 8fbb 31e0 64be 2210 403e
00000190: c3ab 9ebd 063c 84bd 077f 06bd cbb8 09be
000001a0: e8b8 0fbe f243 74bc 4d06 063d e9db 1cbe
000001b0: 550c ed3b 1729 3ebc a53c bc3c dc2d c1bd
000001c0: 1749 54be a8bf 2a3d 1d4e f43d 43c3 67bd
000001d0: bccd 3cbd 3240 363d 25b6 923d d930 04be
000001e0: 9e9e 273d d477 eeba 6884 3abe 75fd acbd
000001f0: fa73 02bc d81f e4bd 96af 12bd 2625 8d3c
00000200: fa3a 90bd 8139 0fbe d29e cc3c 37c4 24be
00000210: 305e 55ba 84bf 53bd 5139 19be cd33 35be
00000220: 47ec 3fbe 188e 26be 1ff2 a6bd 7b2a 4e3d
00000230: 84a1 d33d 7b89 513e 048b b63d 53f1 303e
00000240: 1862 babd 52af 3fbe decb 54be d7e5 60be
00000250: fc6e 81bd 916f 4c3d 2f06 54be 0a29 313e
00000260: 107a 09bb 819d 9cbe e5ec 433d 026e 29be
00000270: c6e7 2f3e 5668 ca3e 9a67 53be 3628 c8bd
00000280: 58bf 913d 54e0 193e 5ce7 333e 18b9 8fbe
00000290: 8734 b7bd b126 24be ba47 27be 331e 403e
000002a0: fbe9 233e 3a88 713b 27bf 22be 124f 10be
000002b0: fc29 2ebe 866a 7a3d 206c 033d c3b1 2cbd
000002c0: 18ee 483d 8d10 1dbe a382 0cbc 4d6a a63c
000002d0: 02ef adbd 9fb5 f4bc fbb3 d4bd ba36 f3bd
000002e0: 3711 76bd 2fff ed3c b767 61bd 9d65 2c3e
000002f0: c58b 1bbe 1ada 023e 540f 22be 6584 9ebc
00000300: 0f47 c6bd b4e7 57be 6932 7abc 83ee 763d
00000310: f78e 923d af43 60bd 4ee7 2fbe e3c8 bfbc
00000320: 8915 9cbd e9cd 1ebe 2e2e d8bd 86f2 30be
00000330: 2b86 bb3b 65b4 c53c a7ae 81bd 95f6 52be
00000340: 4dda a2bd 0b48 69bd 8ee0 e93c f6d2 393e
00000350: bcfa 663e e4da 8cbc 9e15 433d acd1 e73e
00000360: a137 503e b979 993e 44b4 be3e 598d b63e
00000370: 6d44 b33d 94ed 4d3e 79f3 de3d b6b5 bd3b
00000380: 3fd5 16bc 4a82 46be b1a8 08be 9df9 56bd
00000390: db73 a2bc 6d50 88be 9640 84be e9b7 83bd
000003a0: dc61 47bc eb27 3fbe d296 f0bd 24be 793d
000003b0: ac05 d8bd 67de 0f3d e223 3abe 277c 233d
000003c0: c902 5ebe 69db 46bd d876 70be d059 28bd
000003d0: 4e29 6abe a747 b03e 86a8 4a3e 5f14 df3e
000003e0: f865 ce3e fe72 e43e 5a4f a33b 6040 47be
000003f0: 65c1 e8bd de2a cebd e553 9b3d 4361 843d

conv_sequence.0.0.bias f4 [16]
-0.2272417 -0.14421116 -0.14397895 -0.15110321 -0.2197166 -0.6895082 -0.0140937 -0.27850497
-0.24857964 -0.1522639 -0.121774465 0.2656728 0.15589646 -0.3166283 0.1337615 0.3301284
00000000: 0cb2 68be 17ac 13be 386f 13be cdba 1abe
00000010: 63fd 60be 9c83 30bf 43e9 66bc 3498 8ebe
00000020: a98b 7ebe 11eb 1bbe e464 f9bd 4406 883e
00000030: 52a3 1f3e 1b1d a2be c6f8 083e 9706 a93e

conv_sequence.0.2.weight f4 [16]
0.98866266 0.9841574 1.0058808 0.94544345 0.9919803 0.9255793 0.9757836 1.0029486
1.1574837 1.2869563 1.0808401 0.9249975 0.73410475 1.0352603 0.8729529 1.04785
00000000: ff18 7d3f bdf1 7b3f b4c0 803f 9508 723f
00000010: 6cf2 7d3f c4f2 6c3f f4cc 793f 9f60 803f
00000020: 6d28 943f fcba a43f f858 8a3f a3cc 6c3f
00000030: 4aee 3b3f 6983 843f d779 5f3f f31f 863f

conv_sequence.0.2.bias f4 [16]
0.058845032 -0.028018948 0.00969414 0.072870545 -0.070994526 -0.13022324 0.01845485 -0.0026377612
-0.024193998 -0.094665535 0.057828452 0.02738189 0.1684866 0.034536682 0.08619574 -0.014582504
00000000: 7d07 713d fe87 e5bc 2cd4 1e3c 273d 953d
00000010: 9465 91bd 3e59 05be a02e 973c 4ade 2cbb
00000020: 7e32 c6bc 01e0 c1bd 87dd 6c3d fc4f e03c
00000030: c087 2c3e 5676 0d3d 6487 b03d 74eb 6ebc

conv_sequence.0.2.running_mean f4 [16]
0.0 0.0 0.0 0.0 0.0 0.0 0.0 0.0
0.0 0.0 0.0 0.0 0.0 0.0 0.0 0.0
00000000: 0000 0000 0000 0000 0000 0000 0000 0000
00000010: 0000 0000 0000 0000 0000 0000 0000 0000
00000020: 0000 0000 0000 0000 0000 0000 0000 0000
00000030: 0000 0000 0000 0000 0000 0000 0000 0000

conv_sequence.0.2.running_var f4 [16]
1.0 1.0 1.0 1.0 1.0 1.0 1.0 1.0
1.0 1.0 1.0 1.0 1.0 1.0 1.0 1.0
00000000: 0000 803f 0000 803f 0000 803f 0000 803f
00000010: 0000 803f 0000 803f 0000 803f 0000 803f
00000020: 0000 803f 0000 803f 0000 803f 0000 803f
00000030: 0000 803f 0000 803f 0000 803f 0000 803f

conv_sequence.0.3.weight f4 [32, 16, 3, 3]
0.050485566 -0.048384916 0.09299689 0.07048712 -0.045237336 -0.056106247 0.0055246395 0.017334146
0.034103066 -0.019829415 -0.063383974 0.027948044 -0.050706573 -0.07266265 0.03817658 -0.021337716
-0.056029 0.0318425 -0.02629317 0.032274768 -0.064683355 -0.00028090063 0.0073665087 -0.07427776
0.022139862 -0.076640695 0.023630865 0.0018501753 -0.0075861057 -0.124532044 0.040048383 -0.10217215
-0.08520307 0.00020436023 -0.08742623 0.0023365133 -0.014841905 -0.0019383911 0.045301482 0.03281005
-0.00734901 -0.078591354 -0.017008135 -0.08646762 0.043218624 0.060660437 0.05717732 0.08094418
0.055937637 0.18240248 0.04641116 0.122001365 0.13833553 0.016371194 -0.07636209 0.02706524
0.022717152 -0.12658729 -0.011380634 0.0068775425 -0.06453159 -0.044093028 -0.00772012 0.08377593
0.06222568 0.030509446 0.05402222 -0.01773454 -0.072919495 -0.054308873 0.07086229 0.041653413
-0.09317797 0.013869847 -0.021412227 0.017135955 -0.040866926 -0.06862176 -0.04042978 0.010480408
0.07317825 0.009971637 0.01749438 -0.020223452 -0.035115927 -0.075983115 -0.036496766 0.122259095
0.261201 0.1435794 -0.07805857 0.009348497 -0.06911325 -0.059157766 0.05777711 0.018038876
-0.10598254 -0.048482496 -0.055486366 -0.10069443 -0.18671347 -0.06583742 -0.09739358 -0.06969022
-0.14531696 -0.11408084 -0.14450914 -0.003878355 -0.007972013 -0.05625054 -0.015030954 -0.07531205
-0.0047942474 -0.016023789 -0.12615553 -0.03571983 -0.06321343 0.08959952 0.0026584892 0.018162373
-0.0009555479 0.020862605 -0.05329983 -0.01240659 -0.0931561 0.031208532 0.028123077 0.09541679
-0.049790964 -0.047286276 -0.1094322 0.005489965 -0.005304288 -0.015657095 -0.103506126 -0.016348382
-0.13998318 -0.13872303 -0.023387093 -0.11504371 -0.09467498 0.20789917 0.14761806 0.050751265
-0.036118988 0.0061383364 0.020664617 -0.059607554 -0.024437612 -0.07226747 0.0059914337 -0.02809216
0.101216875 -0.033291165 -0.047643673 0.006178098 -0.041678365 -0.08999723 0.01889802 -0.037203304
-0.05004418 -0.061986092 -0.064364165 0.0054786606 0.05686675 0.036795646 0.039737713 -0.011419232
-0.037548274 -0.023211824 0.026306316 0.04076067 -0.018492399 0.039984073 -0.030867482 -0.019482216
-0.027550386 -0.02912614 0.029654345 -0.022895807 0.03956634 0.029015753 -0.065381765 -0.04434584
-0.010839101 -0.06820576 -0.002255872 -0.06032758 0.054447155 -0.03283777 0.07278768 -0.026619572
-0.0048536826 0.0065897824 0.021357255 0.05662306 -0.010815161 -0.09041367 0.061717194 0.018797519
0.080941826 -0.04842572 0.070784904 -0.0040347707 0.027374564 -0.024850791 0.0068131806 -0.0010982346
-0.013496825 -0.037261203 0.062733576 0.01983727 -0.012699491 -0.00609055 -0.030303126 0.04074359
-0.007755999 0.053733345 -0.079363264 0.0800432 -0.029439889 0.005284065 0.09522374 0.015270709
0.11648699 0.043395866 0.15285769 0.012427123 0.1031743 0.073492505 -0.008274918 0.00052568526
0.08361334 0.060543295 -0.069087975 0.0081305895 -0.04526648 0.09968651 0.12735604 0.084065005
0.10001121 0.13448611 0.039960034 0.019103242 0.04922416 0.028045118 -0.04423941 0.00060007593
-0.009819737 -0.03161193 0.098249875 0.008285488 -0.100162454 -0.03966364 -0.049239676 -0.02756464
00000000: f4c9 4e3d 432f 46bd 2775 be3d 8d5b 903d
00000010: c94a 39bd aacf 65bd 0908 b53b 5700 8e3c
00000020: a8af 0b3d 4c71 a2bc 75cf 81bd 4cf3 e43c
00000030: b2b1 4fbd 28d0 94bd 0c5f 1c3d 6fcc aebc
00000040: aa7e 65bd 486d 023d c664 d7bc 8c32 043d
00000050: b578 84bd d845 93b9 c162 f13b f01e 98bd
00000060: a85e b53c ccf5 9cbd 8495 c13c 9581 f23a
00000070: de94 f8bb a80a ffbd c609 243d a23f d1bd
00000080: f27e aebd 8849 5639 860c b3bd 3020 193b
00000090: 762b 73bc 9d11 feba 0c8e 393d d563 063d
000000a0: f7cf f0bb 81f4 a0bd a554 8bbc f015 b1bd
000000b0: 0306 313d 1477 783d c432 6a3d 10c6 a53d
000000c0: dd1e 653d b7c7 3a3e a119 3e3d dadb f93d
000000d0: d4a7 0d3e e21c 863c ba63 9cbd ecb7 dd3c
000000e0: 5219 ba3c 19a0 01be d775 3abc 025d e13b
000000f0: 2329 84bd e49a 34bd 0ff9 fcbb b792 ab3d
00000100: 5be0 7e3d f2ee f93c 6746 5d3d 0748 91bc
00000110: d156 95bd fb72 5ebd 4020 913d c59c 2a3d
00000120: 17d4 bebd 5b3e 633c b268 afbc b460 8c3c
00000130: 1464 27bd 9189 8cbd b299 25bd 04b6 2b3c
00000140: 7ade 953d 1460 233c 6050 8f3c a7ab a5bc
00000150: b8d5 0fbd 099d 9bbd a27d 15bd fa62 fa3d
00000160: 23bc 853e 7a06 133e 2cdd 9fbd 702a 193c
00000170: 3f8b 8dbd 6a4f 72bd b1a7 6c3d 44c6 933c
00000180: 600d d9bd 9595 46bd ac45 63bd e238 cebd
00000190: d131 3fbe c5d5 86bd 4976 c7bd bfb9 8ebd
000001a0: f8cd 14be 37a3 e9bd 34fa 13be 002c 7ebb
000001b0: 0c9d 02bc f766 66bd 6444 76bc 343d 9abd
000001c0: 1019 9dbb 5244 83bc ea2e 01be f54e 12bd
000001d0: 0b76 81bd f47f b73d 0c3a 2e3b 42c9 943c
000001e0: bc7d 7aba 0ee8 aa3c ec50 5abd 0345 4bbc
000001f0: a0c8 bebd 09a9 ff3c 5e62 e63c e169 c33d
00000200: 9cf1 4bbd 41af 41bd fd1d e0bd 2ae5 b33b
00000210: 98cf adbb 4f43 80bc 05fb d3bd 0bed 85bc
00000220: c057 0fbe 690d 0ebe 4a96 bfbc 099c ebbd
00000230: f5e4 c1bd 85e3 543e 3029 173e 8fe0 4f3d
00000240: 81f1 13bd 1924 c93b d848 a93c 0d27 74bd
00000250: 6331 c8bc f800 94bd ca53 c43b 8821 e6bc
00000260: cb4a cf3d 515c 08bd 0326 43bd a471 ca3b
00000270: efb6 2abd 7850 b8bd 05d0 9a3c 7e62 18bd
00000280: 20fb 4cbd 21e5 7dbd 5cd1 83bd 5686 b33b
00000290: 1ced 683d 08b7 163d 03c4 223d bb17 3bbc
000002a0: 38cc 19bd b926 bebc 5880 d73c a9f4 263d
000002b0: 5f7d 97bc 57c6 233d cddd fcbc 2b99 9fbc
000002c0: 59b1 e1bc f199 eebc abed f23c fd8f bbbc
000002d0: 5110 223d 72b2 ed3c e0e6 85bd fca3 35bd
000002e0: 7c96 31bc 76af 8bbd 40d7 13bb 0d1a 77bd
000002f0: fb03 5f3d e680 06bd b511 953d 4a11 dabc
00000300: a40b 9fbb 1aef d73b 69f5 ae3c 95ed 673d
00000310: 1332 31bc cd2a b9bd 2bcb 7c3d 41fd 993c
00000320: d4c4 a53d 0c5a 46bd adf7 903d 1c36 84bb
00000330: 9f40 e03c e393 cbbc 1a41 df3b a3f2 8fba
00000340: c921 5dbc 349f 18bd 767a 803d c581 a23c
00000350: 8711 50bc 3d93 c7bb 433e f8bc c0e2 263d
00000360: 0926 febb 7f17 5c3d 3589 a2bd b0ed a33d
00000370: ec2b f1bc f325 ad3b aa04 c33d ff31 7a3c
00000380: bb90 ee3d ddbf 313d ba86 1c3e 229b 4b3c
00000390: 0c4d d33d 3d83 963d 8693 07bc 24ce 093a
000003a0: 793d ab3d 3ffc 773d ff7d 8dbd 2a36 053c
000003b0: 5869 39bd 7128 cc3d 9f69 023e 462a ac3d
000003c0: add2 cc3d bab6 093e 22ad 233d 677e 9c3c
000003d0: 469f 493d e0be e53c 6234 35bd 6a4e 1d3a
000003e0: f6e2 20bc 837b 01bd 3b37 c93d dbbf 073c
000003f0: f921 cdbd 5776 22bd 8baf 49bd 3dcf e1bc

conv_sequence.0.3.bias f4 [32]
0.019140465 0.03156365 0.07436871 -0.09920093 -0.042739235 0.09629439 -0.06459516 0.11145309
-0.035968345 -0.043761015 0.010904325 0.016265707 -0.01029852 0.06505078 -0.06754232 -0.029972047
0.034395713 -0.09890446 -0.06709319 -0.0005499933 -0.018938594 0.11052249 -0.027536172 -0.035556983
0.018717911 -0.056665793 0.08062702 -0.0227556 0.030653436 0.07652047 0.032910373 0.054318614
00000000: 77cc 9c3c e348 013d 9f4e 983d db29 cbbd
00000010: 560f 2fbd fe35 c53d 784a 84bd 8541 e43d
00000020: 8b53 13bd c03e 33bd 0ea8 323c a93f 853c
00000030: 20bb 28bc 5839 853d a153 8abd f087 f5bc
00000040: 85e2 0c3d 6c8e cabd 2868 89bd 6d2d 10ba
00000050: 1c25 9bbc 9e59 e23d 8a93 e1bc 33a4 11bd
00000060: 4e56 993c 641a 68bd c71f a53d f469 babc
00000070: ea1c fb3c c4b6 9c3d 07cd 063d 327d 5e3d

conv_sequence.0.5.weight f4 [32]
0.98884267 1.0105366 0.97549206 0.9832903 0.96809715 0.96279866 1.0079687 0.9772093
0.94157153 1.085719 1.0310901 0.96329087 0.9665669 1.0179868 1.0035914 0.99387014
1.2714636 0.96132535 0.9746223 1.0520449 1.0375597 1.0672141 0.9785324 0.97756517
0.9193802 0.9787943 1.1089374 0.97494304 0.9230364 0.919775 0.9759959 0.9733725
00000000: cb24 7d3f 4359 813f d9b9 793f eab8 7b3f
00000010: 37d5 773f f979 763f 1e05 813f 642a 7a3f
00000020: d50a 713f d7f8 8a3f c3fa 833f 3b9a 763f
00000030: ee70 773f 644d 823f af75 803f 466e 7e3f
00000040: 52bf a23f 6b19 763f d980 793f 68a9 863f
00000050: c2ce 843f 799a 883f 1981 7a3f b641 7a3f
00000060: 805c 6b3f 4392 7a3f a9f1 8d3f de95 793f
00000070: 1d4c 6c3f 6076 6b3f deda 793f f12e 793f

conv_sequence.0.5.bias f4 [32]
-0.06552905 0.015912985 -0.0318106 0.046341542 0.03537043 -0.003114186 -0.0089079505 -0.03143316
0.017197615 -0.04248609 0.026732072 0.07224386 0.039363563 -0.008122534 -0.014772112 0.05015807
-0.006014189 0.013262226 0.010141595 -0.00960619 0.043410417 -0.026892658 0.014990458 -0.051868968
0.012517255 0.008012512 -0.035848077 0.017953714 0.02283672 0.06968854 -0.04011588 0.013590569
00000000: 1834 86bd f35b 823c d54b 02bd a1d0 3d3d
00000010: 96e0 103d 5f17 4cbb a7f2 11bc 0fc0 00bd
00000020: 03e2 8c3c e505 2ebd 38fd da3c 97f4 933d
00000030: b03b 213d 6014 05bc ba06 72bc 8c72 4d3d
00000040: ad12 c5bb cf49 593c ef28 263c 4863 1dbc
00000050: 1fcf 313d fe4d dcbc 8a9a 753c 8e74 54bd
00000060: 2c15 4d3c e946 033c 6fd5 12bd ab13 933c
00000070: 1314 bb3c deb8 8e3d 8d50 24bd faaa 5e3c

conv_sequence.0.5.running_mean f4 [32]
0.0 0.0 0.0 0.0 0.0 0.0 0.0 0.0
0.0 0.0 0.0 0.0 0.0 0.0 0.0 0.0
0.0 0.0 0.0 0.0 0.0 0.0 0.0 0.0
0.0 0.0 0.0 0.0 0.0 0.0 0.0 0.0
00000000: 0000 0000 0000 0000 0000 0000 0000 0000
00000010: 0000 0000 0000 0000 0000 0000 0000 0000
00000020: 0000 0000 0000 0000 0000 0000 0000 0000
00000030: 0000 0000 0000 0000 0000 0000 0000 0000
00000040: 0000 0000 0000 0000 0000 0000 0000 0000
00000050: 0000 0000 0000 0000 0000 0000 0000 0000
00000060: 0000 0000 0000 0000 0000 0000 0000 0000
00000070: 0000 0000 0000 0000 0000 0000 0000 0000

conv_sequence.0.5.running_var f4 [32]
1.0 1.0 1.0 1.0 1.0 1.0 1.0 1.0
1.0 1.0 1.0 1.0 1.0 1.0 1.0 1.0
1.0 1.0 1.0 1.0 1.0 1.0 1.0 1.0
1.0 1.0 1.0 1.0 1.0 1.0 1.0 1.0
00000000: 0000 803f 0000 803f 0000 803f 0000 803f
00000010: 0000 803f 0000 803f 0000 803f 0000 803f
00000020: 0000 803f 0000 803f 0000 803f 0000 803f
00000030: 0000 803f 0000 803f 0000 803f 0000 803f
00000040: 0000 803f 0000 803f 0000 803f 0000 803f
00000050: 0000 803f 0000 803f 0000 803f 0000 803f
00000060: 0000 803f 0000 803f 0000 803f 0000 803f
00000070: 0000 803f 0000 803f 0000 803f 0000 803f

conv_sequence.1.model.0.weight f4 [32, 32, 3, 3]
-0.07071618 -0.041331008 -0.002601306 0.023937842 0.04215311 0.017681802 -0.065604106 -0.019783648
-0.03480546 0.06264756 -0.015354331 -0.0021631222 -0.0397063 0.032750294 0.003262221 3.721688e-05
0.024290912 0.052752446 -0.029662663 -0.0071338783 0.02504478 -0.023303134 -0.035908505 -0.011756658
-0.046243943 -0.019482663 -0.073837616 0.037254926 0.0050390214 0.006530389 0.019096794 -0.00041569
-0.034992408 0.02867169 0.025986195 0.04024754 -0.05720706 0.026947467 0.011448097 -0.0061756065
-0.036022127 0.021037193 0.021427073 0.04447335 -0.042988624 0.043914087 0.011588767 -0.035080105
-0.01234517 -0.049698383 0.02560908 -0.040238827 -0.02986535 -0.036313422 0.020587208 -0.012294945
-0.0135976905 -0.04648895 -0.013520015 0.036574107 -0.029186133 -0.018972168 0.06549496 -0.04958564
-0.018626789 0.031325735 0.024494017 -0.036239047 0.0021143358 -0.021134226 -0.02818826 -0.060237546
0.021645691 -0.042452678 0.003643592 0.04336493 0.06525554 -0.023423867 -0.045145288 -0.041649554
-0.030751104 0.038921636 0.037452564 0.06433652 -0.042339247 0.016353734 0.06084877 -0.03898085
-0.011963597 -0.019219968 -0.037151974 0.046505284 -0.041393682 -0.023376223 0.046567183 0.026119312
-0.010365536 0.042285964 0.03178207 0.07114297 -0.015717719 0.05910464 0.06785757 -0.034122713
-0.008986152 -0.029539574 -0.00022882113 0.06160459 -0.042282663 0.042783953 0.058284204 0.013678445
-0.035054643 0.010798477 -0.059695546 -0.038161732 -0.02658186 -0.04675179 0.016716816 -0.10032291
0.03139279 -0.042109873 -0.09145275 -0.011076862 0.0147261275 -0.032368105 -0.043965824 -0.023842137
-0.0035040192 -0.051734343 0.0035695483 -0.047088638 0.05679731 -0.039957505 0.0014840808 -0.016693696
-0.0151851205 -0.03443369 0.003767885 0.024432898 0.028206246 -0.01744303 0.022195265 0.053120635
0.045176588 5.7570112e-05 -0.012963454 -0.04305213 -0.036699697 0.049169295 0.01446465 -0.039289795
0.029372165 -0.032102346 0.022416381 0.034020793 -0.023602284 -0.0013458461 0.012179164 -0.036857657
0.024900107 0.04921949 0.009861946 0.02962301 0.0125810895 -0.046569817 0.001749719 0.012770056
0.0014634994 0.012513261 -0.026878979 0.023668215 0.018892499 -0.00943024 0.032326292 -0.05389368
-0.06773054 0.027707944 -0.029370295 -0.018299883 -0.015925648 -0.048945464 0.036298905 -0.044795245
-0.02859574 -0.013443364 0.066241115 -0.010885516 0.04108261 -0.014017758 0.06340739 0.087977804
0.031970184 0.0024748533 0.06274882 -0.037185434 -0.051211048 -0.004753532 -0.057915725 -0.02015948
-0.03721097 -0.00040648278 -0.05903276 0.01637084 0.039061185 -0.04284968 -0.05396481 0.0058737807
-0.07343747 0.04437735 0.020244714 0.022691848 0.040804308 -0.057234414 0.052577958 0.07153818
-0.027011015 -0.0031897016 0.04303611 0.035809867 0.033765435 0.04934953 -0.06432965 -0.052343097
-0.052689377 0.057661727 0.04155601 0.06582486 0.030634377 -0.045101676 0.042567573 -0.046845663
-0.0069216676 0.010906502 0.05045353 -0.0042385957 0.06193596 0.0333493 -0.045297835 0.014104665
-0.040385015 -0.055611383 0.06760576 -0.043077327 -0.045525935 -0.026394539 0.016443897 -0.0015337927
0.03426176 -0.043008313 0.025975399 0.008550271 0.054079372 -0.026248567 -0.024516255 -0.030587906
00000000: a5d3 90bd b44a 29bd ac7a 2abb 4b19 c43c
00000010: bda8 2c3d 6dd9 903c 725b 86bd 5111 a2bc
00000020: 2c90 0ebd 5d4d 803d bb90 7bbc 2bc3 0dbb
00000030: 13a3 22bd 2c25 063d fdca 553b 5219 1c38
00000040: bcfd c63c f312 583d 1dff f2bc 4fc3 e9bb
00000050: b62a cd3c 37e6 bebc cc14 13bd ff9e 40bc
00000060: 4a6a 3dbd 1b9a 9fbc 2d38 97bd 9f98 183d
00000070: 601e a53b e0fc d53b e170 9c3c f8f0 d9b9
00000080: 3354 0fbd e4e0 ea3c 00e1 d43c 9bda 243d
00000090: f351 6abd efc0 dc3c cd90 3b3c be5c cabb
000000a0: f08b 13bd 3156 ac3c d487 af3c b029 363d
000000b0: d714 30bd 42df 333d d0de 3d3c 28b0 0fbd
000000c0: 6543 4abc 8890 4bbd 22ca d13c 78d1 24bd
000000d0: 2ea8 f4bc 62bd 14bd 81a6 a83c bd70 49bc
000000e0: d9c8 5ebc 326b 3ebd 0e83 5dbc bbce 153d
000000f0: c217 efbc 856b 9bbc 3922 863d 501a 4bbd
00000100: 3597 98bc 6a4f 003d ada7 c83c 656f 14bd
00000110: ab90 0a3b af21 adbc 11eb e6bc a5bb 76bd
00000120: 4e52 b13c dce2 2dbd 54c9 6e3b 6d9f 313d
00000130: b2a4 853d 69e3 bfbc 44ea 38bd b998 2abd
00000140: bde9 fbbc 4b6c 1f3d dc67 193d dec2 833d
00000150: eb6b 2dbd 44f8 853c 8f3c 793d 62aa 1fbd
00000160: f602 44bc 3273 9dbc ab2c 18bd 537c 3e3d
00000170: 6c8c 29bd 7e7f bfbc 3bbd 3e3d 2bf8 d53c
00000180: 36d4 29bc 0c34 2d3d ea2d 023d 68b3 913d
00000190: 72c2 80bc b517 723d e9f8 8a3d 42c4 0bbd
000001a0: a73a 13bc fafc f1bc b4ef 6fb9 1855 7c3d
000001b0: 9630 2dbd 3a3e 2f3d 6bbb 6e3d 8e1b 603c
000001c0: 7595 0fbd 18ec 303c 5183 74bd 7a4f 1cbd
000001d0: 33c2 d9bc ce7e 3fbd b4f1 883c 1976 cdbd
000001e0: ba95 003d 677b 2cbd 944b bbbd ba7b 35bc
000001f0: db45 713c 6b94 04bd 8215 34bd 9650 c3bc
00000200: b0a3 65bb 64e7 53bd 15ef 693b 04e0 40bd
00000210: 4ca4 683d 7baa 23bd 7d85 c23a 38c1 88bc
00000220: 03cb 78bc 570a 0dbd 9fee 763b 8027 c83c
00000230: c910 e73c afe4 8ebc d8d2 b53c 0695 593d
00000240: 160b 393d 7077 7138 ab64 54bc 6e57 30bd
00000250: 6c52 16bd be65 493d 24fd 6c3c 56ee 20bd
00000260: e59d f03c c07d 03bd 8fa2 b73c 6359 0b3d
00000270: 9459 c1bc 1a67 b0ba 1e8b 473c 0ef8 16bd
00000280: 4ffb cb3c 609a 493d 0094 213c f4ab f23c
00000290: ea20 4e3c febf 3ebd d456 e53a 7f39 513c
000002a0: e4d2 bf3a 6c04 4d3c 4e31 dcbc d8e3 c13c
000002b0: 71c4 9a3c 4b81 1abc 9368 043d 9fbf 5cbd
000002c0: 4fb6 8abd c5fb e23c f999 f0bc a3e9 95bc
000002d0: 8176 82bc 0a7b 48bd 29ae 143d 387b 37bd
000002e0: 9d41 eabc 8e41 5cbc 6ca9 873d 2a59 32bc
000002f0: 3d46 283d bdaa 65bc bcdb 813d b52d b43d
00000300: 2bf3 023d 2631 223b 7482 803d c14f 18bd
00000310: adc2 51bd 84c3 9bbb 0a39 6dbd 7e25 a5bc
00000320: 886a 18bd 321d d5b9 56cc 71bd 241c 863c
00000330: 9ffe 1f3d 2583 2fbd 340a 5dbd d878 c03b
00000340: 6266 96bd 06c5 353d 3ed8 a53c 41e4 b93c
00000350: 6b22 273d a26e 6abd fc5b 573d 9c82 923d
00000360: 3446 ddbc 500a 51bb a246 303d 5ead 123d
00000370: a04d 0a3d bc22 4a3d 43bf 83bd b765 56bd
00000380: d1d0 57bd b42e 6c3d a236 2a3d 2fcf 863d
00000390: f2f4 fa3c 89bc 38bd 565b 2e3d 3de1 3fbd
000003a0: 28cf e2bb 2fb1 323c 5ca8 4e3d ebe3 8abb
000003b0: 90b0 7d3d 4799 083d 398a 39bd 4117 673c
000003c0: c26a 25bd c3c8 63bd e474 8a3d da71 30bd
000003d0: 6779 3abd 5c39 d8bc 5ab5 863c 8b09 c9ba
000003e0: 0f56 0c3d 7c29 30bd 5cca d43c 7016 0c3c
000003f0: 5582 5d3d 3c07 d7bc 50d6 c8bc 7d93 fabc

conv_sequence.1.model.0.bias f4 [32]
0.04316221 0.026518648 0.065358534 0.027752252 0.06572522 0.012113024 -0.0359026 0.07280352
0.042705882 -0.04369143 -0.030474924 0.03855556 0.0068976358 0.023496898 -0.059885368 -0.03239584
-0.04960962 0.0033297213 0.028981049 -0.014944913 0.037883554 0.022125687 0.05373959 0.05841711
0.025458444 0.03407791 0.011795521 0.046656396 0.07397453 -0.0017325776 -0.052686628 0.034902945
00000000: dcca 303d a33d d93c b2da 853d b158 e33c
00000010: f29a 863d b475 463c 9b0e 13bd 031a 953d
00000020: 5dec 2e3d c9f5 32bd 8ca6 f9bc 6fec 1d3d
00000030: 9005 e23b 917c c03c 5c4a 75bd 80b1 04bd
00000040: 7533 4bbd 7437 5a3b aa69 ed3c 82db 74bc
00000050: c92b 1b3d ee40 b53c 0b1e 5c3d c846 6f3d
00000060: 3a8e d03c 4795 0b3d 0042 413c c71a 3f3d
00000070: f57f 973d a817 e3ba efcd 57bd 64f6 0e3d

conv_sequence.1.model.1.weight f4 [32, 32, 3, 3]
0.015375404 0.022868238 -0.054611694 0.007494269 -0.0145613365 0.04099453 -0.05148556 -0.028364707
-0.040996358 0.08258922 0.071367346 0.0102954265 -0.00671517 -0.035904422 -0.019138416 -0.023236468
0.06699409 -0.04703475 -0.09123621 -0.055587117 -0.031788774 0.012145642 -0.04775004 0.049668632
0.008891906 0.042295586 0.010738515 0.007394576 -0.03914501 -0.036766227 0.032380138 -0.057459533
0.024827538 -0.037349187 -0.021255055 -0.023303231 -0.06546313 -0.08645122 0.00291201 0.010715134
-0.0012746117 0.033626955 0.03150482 -0.03138043 -0.017581657 0.042506974 0.00015531648 0.06310356
-0.023287617 0.03020104 0.04638925 8.2289596e-05 0.029736385 -0.06581287 0.015018281 0.017661083
0.013637746 -0.038709614 0.01591111 0.04804363 -0.042988177 0.012712142 -0.051409524 -0.03570038
-0.012726665 -0.019480865 0.0335584 -0.013663157 -0.016074128 0.021168288 -0.033551287 -0.022075363
-0.06564859 -0.04177067 -0.017124712 -0.029292691 0.029067814 -0.03679188 -0.020650951 0.0125591345
0.017592743 -0.009361786 0.010533709 -0.015673155 0.05505601 -0.010202945 -0.023700425 0.034296926
-0.031491973 0.031520896 0.074680254 -0.035119433 -0.029966757 0.04329532 -0.012525783 0.024480017
-0.05574647 0.0076649343 0.01922338 0.051808085 0.044122197 0.00072188536 0.015345487 0.026010003
-0.055389635 -0.043933176 -0.029862545 0.0046752384 0.023375085 0.080612615 0.013910396 -0.018357093
0.06824421 -0.017855765 -0.0362274 -0.028792933 0.0077267615 0.09140514 0.10486672 -0.012658889
-0.038353767 -0.012619644 0.06009918 0.001324312 -0.03242143 -0.01873811 -0.04652503 0.0135077415
0.04716266 -0.042034335 0.03711202 -0.015506919 -0.046954703 0.041380756 -0.012290977 0.0428379
0.093286656 0.043156117 0.047132082 -0.003952265 -0.022590458 -0.05191882 0.03476391 -0.02477564
-0.02521544 -0.043400444 -0.10708776 0.0071202326 -0.035627834 -0.035697766 0.0013890542 0.027989697
0.05496804 -0.04048979 -0.108310744 -0.11197982 -0.05555648 0.010626787 -0.014292945 0.0040950906
0.036433026 -0.03501101 -0.039877772 -0.015945675 -0.02093399 0.013725993 0.0037315707 0.01788346
0.020845486 -0.023407603 0.010682002 -0.0132531095 -0.012443904 -0.05828393 0.0044986894 -0.012133247
0.045629833 -0.0056730616 0.034563623 0.031186564 -0.018845793 0.030579925 -0.07681144 -0.035313394
-0.04345622 -0.052919533 -0.05553468 -0.020879166 0.055094726 -0.03913515 0.04611714 -0.03334014
0.018192034 0.058437645 -0.0018269513 0.029383762 -0.019602489 -0.009293405 -0.019867402 -0.07761983
-0.0001538439 -0.0030725636 0.007670572 0.027704442 0.02487228 0.041039843 -0.038672585 0.035767727
0.0051014116 0.056146868 -0.022421483 0.027463665 0.012467591 -0.033535656 0.028073674 0.007831524
0.084113255 0.09252678 0.026251242 -0.0055211824 0.058126397 -0.012684269 0.02226974 0.012247651
-0.01401468 -0.014256386 -0.036145225 -0.016709467 0.052480422 0.038042344 -0.013328388 -0.024025783
-0.041852374 0.044742465 -0.061548017 -0.002671672 -0.08956282 -0.014696369 -0.047309626 0.017867016
0.039280873 0.045739662 0.016336342 -0.0048646643 0.0149523 0.021909378 0.019416016 0.015386469
-0.00913764 0.0577001 0.07540861 0.08019943 0.08808886 0.0011286 -0.012068276 0.04270611
00000000: 1ee9 7b3c 2c56 bb3c 83b0 5fbd 7c92 f53b
00000010: ac92 6ebc e1e9 273d 86e2 52bd 1a5d e8bc
00000020: cceb 27bd 8924 a93d 0b29 923d 26ae 283c
00000030: ee0a dcbb 8410 13bd 2bc8 9cbc 685a bebc
00000040: 3334 893d 83a7 40bd 0dda babd 51af 63bd
00000050: f234 02bd 84fe 463c 8c95 43bd 5671 4b3d
00000060: 5baf 113c 233e 2d3d 99f0 2f3c 334e f23b
00000070: 8556 20bd 2f98 16bd 09a1 043d b05a 6bbd
00000080: 1f63 cb3c 76fb 18bd 151f aebc 6be6 bebc
00000090: 8911 86bd 560d b1bd 6cd7 3e3b 888e 2f3c
000000a0: df10 a7ba 6bbc 093d 330b 013d c488 00bd
000000b0: 6807 90bc cb1b 2e3d 73dc 2239 703c 813d
000000c0: acc5 bebc 2c68 f73c a702 3e3d e492 ac38
000000d0: b899 f33c e6c8 86bd 3c0f 763c faad 903c
000000e0: da70 5f3c f98d 1ebd 0458 823c 66c9 443d
000000f0: 5f14 30bd 9746 503c cb92 52bd 903a 12bd
00000100: 8083 50bc 5696 9fbc 8874 093d 6fdb 5fbc
00000110: e4ad 83bc 1e69 ad3c 136d 09bd 64d7 b4bc
00000120: c572 86bd b917 2bbd 2049 8cbc 3af7 efbc
00000130: a01f ee3c 15b3 16bd 2f2c a9bc d4c4 4d3c
00000140: a81e 903c 2d62 19bc 9495 2c3c fd64 80bc
00000150: 6982 613d 412a 27bc 6527 c2bc ef7a 0c3d
00000160: bafd 00bd 0e1c 013d f6f1 983d 65d9 0fbd
00000170: d87c f5bc 6f56 313d f138 4dbc 518a c83c
00000180: 6956 64bd 212a fb3b 5a7a 9d3c b734 543d
00000190: 7ab9 343d e83c 3d3a a36b 7b3c ee12 d53c
000001a0: 3ee0 62bd 46f3 33bd 4ca2 f4bc be32 993b
000001b0: 1b7d bf3c 3a18 a53d 6ee8 633c 9d61 96bc
000001c0: 9fc3 8b3d 4146 92bc 2f63 14bd 28df ebbc
000001d0: c630 fd3b 9e32 bb3d 5dc4 d63d 3b67 4fbc
000001e0: d718 1dbd a0c2 4ebc 8f2a 763d 8994 ad3a
000001f0: 55cc 04bd aa80 99bc 0891 3ebd 934f 5d3c
00000200: a22d 413d 322c 2cbd c602 183d bb10 7ebc
00000210: 9353 40bd de7e 293d 1860 49bc cb76 2f3d
00000220: 130d bf3d 78c4 303d 920d 413d 0082 81bb
00000230: a00f b9bc d4a8 54bd 9a64 0e3d 48f6 cabc
00000240: 9c90 cebc aac4 31bd d450 dbbd d750 e93b
00000250: 7eee 11bd d237 12bd ed10 b63a a64a e53c
00000260: 2b26 613d 9fd8 25bd 06d2 ddbd ad55 e5bd
00000270: 318f 63bd fa1b 2e3c f52c 6abc 1c30 863b
00000280: cc3a 153d b467 0fbd e056 23bd 81a0 82bc
00000290: c27d abbc fde2 603c 5e8d 743b 5580 923c
000002a0: 27c4 aa3c 4dc1 bfbc 9003 2f3c 9223 59bc
000002b0: 84e1 4bbc 21bb 6ebd be69 933b 87ca 46bc
000002c0: 59e6 3a3d 17e5 b9bb 9692 0d3d f77a ff3c
000002d0: 7e62 9abc c082 fa3c 514f 9dbd c7a4 10bd
000002e0: 26ff 31bd 27c2 58bd 5578 63bd c90a abbc
000002f0: 02ab 613d 2e4c 20bd 54e5 3c3d ac8f 08bd
00000300: 7607 953c 505c 6f3d 5076 efba 37b6 f03c
00000310: 6695 a0bc 5e43 18bc f6c0 a2bc 25f7 9ebd
00000320: 2851 21b9 105d 49bb 6c59 fb3b 6df4 e23c
00000330: f4c0 cb3c 6519 283d 2567 1ebd 2e81 123d
00000340: be29 a73b 42fa 653d 42ad b7bc 7bfb e03c
00000350: de44 4c3c af5c 09bd c3fa e53c cb4f 003c
00000360: 9243 ac3d ae7e bd3d d80c d73c 09eb b4bb
00000370: f215 6e3d aed1 4fbc 086f b63c 5faa 483c
00000380: d49d 65bc 9e93 69bc 040d 14bd 4be2 88bc
00000390: b6f5 563d 4ad2 1b3d 505f 5abc b8d1 c4bc
000003a0: 656d 2bbd e043 373d c619 7cbd 3817 2fbb
000003b0: b66c b7bd 0ac9 70bc bdc7 41bd d95d 923c
000003c0: fbe4 203d 8359 3b3d cbd3 853c c367 9fbb
000003d0: 7efa 743c 4c7b b33c 560e 9f3c 8717 7c3c
000003e0: 0ab6 15bc f156 6c3d d46f 9a3d 993f a43d
000003f0: ef67 b43d 88ed 933a 05ba 45bc 9aec 2e3d

conv_sequence.1.model.1.bias f4 [32]
-0.021078616 -0.014631288 -0.02459218 0.0062016165 -0.036141682 -0.007995827 -0.0046318416 0.038619045
-0.0736859 -0.0634258 -0.051415283 0.03834403 -0.044193476 0.02902995 0.034207895 -0.05054178
0.023284435 -0.053127147 -0.04961225 -0.03293598 0.05880099 0.08558907 -0.03878045 -0.058020063
0.025056405 -0.0128965005 0.008742442 0.029997006 0.02363733 0.0385655 -0.017684394 -0.026674284
00000000: 10ad acbc 12b8 6fbc 8a75 c9bc ee36 cb3b
00000010: 4d09 14bd ee00 03bc b4c6 97bb 012f 1e3d
00000020: a2e8 96bd 63e5 81bd d598 52bd a10e 1d3d
00000030: 3804 35bd 38d0 ed3c 941d 0c3d e604 4fbd
00000040: 00bf be3c da9b 59bd 3736 4bbd e1e7 06bd
00000050: 4fd9 703d 5349 af3d 40d8 1ebd 72a6 6dbd
00000060: 1743 cd3c d84b 53bc 763c 0f3c 48bc f53c
00000070: 13a3 c13c dcf6 1d3d ddde 90bc 0784 dabc

conv_sequence.3.weight f4 [32]
1.0422461 0.9635137 0.9316358 0.94500995 1.0591184 0.9108585 0.9987442 1.0205085
1.1963998 0.9970747 0.8915024 0.9805444 1.1114736 1.0511435 1.0322324 0.99155325
1.1700763 1.028384 0.97447735 1.0145007 0.87508637 1.0591828 1.0347588 0.9877161
0.7899809 0.9727503 0.8908218 1.0798541 0.9869207 0.9446409 0.9594133 1.0633749
00000000: 5268 853f d5a8 763f af7f 6e3f 2cec 713f
00000010: 3191 873f 062e 693f b3ad 7f3f 06a0 823f
00000020: a123 993f 4a40 7f3f 8039 643f f504 7b3f
00000030: c444 8e3f df8b 863f 3120 843f 6fd6 7d3f
00000040: 0fc5 953f 16a2 833f 5977 793f 29db 813f
00000050: a905 603f 4d93 873f fa72 843f f6da 7c3f
00000060: 303c 4a3f 2a06 793f e60c 643f a938 8a3f
00000070: d6a6 7c3f fcd3 713f 1c9c 753f ab1c 883f

conv_sequence.3.bias f4 [32]
-0.016642746 -0.0006627969 0.053712916 0.13190775 -0.075037554 0.12864816 0.1177444 0.044266716
-0.090573184 0.080097646 0.069950216 0.115149304 -0.04154446 -0.05661315 0.0037707263 -0.05748875
-0.105475344 -0.033845313 0.16788287 0.07451781 0.088040166 -0.057358675 0.07788831 0.0026986008
-0.0061730277 -0.041537236 0.11798302 0.06586209 0.014502173 0.03493766 0.00082062103 0.02975008
00000000: 5e56 88bc 8cbf 2dba 1302 5c3d d312 073e
00000010: 4aad 99bd 58bc 033e fa23 f13d 0451 353d
00000020: 6f7e b9bd 3c0a a43d 0f42 8f3d 66d3 eb3d
00000030: 862a 2abd 31e3 67bd 4a1e 773b 5379 6bbd
00000040: 7503 d8bd 62a1 0abd 7de9 2b3e cb9c 983d
00000050: 674e b43d eef0 6abd e883 9f3d 02db 303b
00000060: 1c47 cabb f322 2abd 15a1 f13d b4e2 863d
00000070: 869a 6d3c cb1a 0f3d f21e 573a 71b6 f33c

conv_sequence.3.running_mean f4 [32]
0.0 0.0 0.0 0.0 0.0 0.0 0.0 0.0
0.0 0.0 0.0 0.0 0.0 0.0 0.0 0.0
0.0 0.0 0.0 0.0 0.0 0.0 0.0 0.0
0.0 0.0 0.0 0.0 0.0 0.0 0.0 0.0
00000000: 0000 0000 0000 0000 0000 0000 0000 0000
00000010: 0000 0000 0000 0000 0000 0000 0000 0000
00000020: 0000 0000 0000 0000 0000 0000 0000 0000
00000030: 0000 0000 0000 0000 0000 0000 0000 0000
00000040: 0000 0000 0000 0000 0000 0000 0000 0000
00000050: 0000 0000 0000 0000 0000 0000 0000 0000
00000060: 0000 0000 0000 0000 0000 0000 0000 0000
00000070: 0000 0000 0000 0000 0000 0000 0000 0000

conv_sequence.3.running_var f4 [32]
1.0 1.0 1.0 1.0 1.0 1.0 1.0 1.0
1.0 1.0 1.0 1.0 1.0 1.0 1.0 1.0
1.0 1.0 1.0 1.0 1.0 1.0 1.0 1.0
1.0 1.0 1.0 1.0 1.0 1.0 1.0 1.0
00000000: 0000 803f 0000 803f 0000 803f 0000 803f
00000010: 0000 803f 0000 803f 0000 803f 0000 803f
00000020: 0000 803f 0000 803f 0000 803f 0000 803f
00000030: 0000 803f 0000 803f 0000 803f 0000 803f
00000040: 0000 803f 0000 803f 0000 803f 0000 803f
00000050: 0000 803f 0000 803f 0000 803f 0000 803f
00000060: 0000 803f 0000 803f 0000 803f 0000 803f
00000070: 0000 803f 0000 803f 0000 803f 0000 803f

conv_sequence.4.model.0.weight f4 [32, 32, 3, 3]
0.05506893 -0.0053972416 0.030391429 -0.034535605 -0.0008750976 0.041123834 -0.01926938 -0.011259809
-0.048256215 0.049856868 -0.03636798 -0.024253331 -0.006878033 -0.011156018 -0.049814552 0.0044089262
0.052845076 0.017148713 -0.043195765 0.017249102 0.02705211 0.018170254 -0.020697005 -0.00021216126
-0.056834973 0.028457653 -0.028668823 -0.021301026 -0.00060916174 0.024303561 -0.036667816 0.014453963
0.0095771095 -0.025668109 0.058066044 0.018474216 0.031851657 -0.038031142 -0.028417492 -0.02209003
0.0111671975 -0.026388226 -0.043049473 0.03960831 -0.05294235 0.015517876 0.021502487 0.030076742
0.06974007 -0.012009945 -0.019769136 -0.0055340677 -0.0047365515 0.05959305 0.00051244337 -0.055645533
0.032564122 -0.021840181 0.034226894 0.04256945 0.031925827 -0.045283936 -0.045768496 0.021518419
-0.0024996111 -0.024810247 0.0112601975 -0.016844986 0.032943267 -0.004378153 0.04171333 0.017061995
-0.028004598 0.056343377 0.0061004967 -0.022770593 -0.034250263 0.020105096 -0.018674782 -0.050485115
0.01930767 -0.011541181 0.028789794 0.0060742935 -0.018537229 0.04567693 -0.05611076 0.02496914
0.019674672 0.03900956 0.025080815 0.020435171 0.0029753055 0.029746426 0.027773462 0.03444201
0.008988572 -0.07678345 -0.042543493 0.045929357 -0.009876548 0.03423761 0.033160295 -0.006612733
0.029758036 -0.00095587916 0.043976896 -0.024738276 0.058782365 -0.025074666 0.042773195 -0.035974745
-0.042545836 -0.031833183 0.0054128333 0.061775886 -0.016361253 0.021860357 0.05625331 -0.014816795
0.02205211 0.01320117 -0.006879172 0.04788166 -0.029437358 0.021977913 0.053570226 -0.050027322
-0.015083744 0.069191806 -0.035816226 0.002121437 -0.027431311 0.01296114 -0.034051865 -0.015670463
0.0214692 -0.057094987 0.01739206 -0.046198543 -0.05249336 -0.0023812684 0.038055416 -0.059703667
-0.03598295 0.044380162 -0.03589901 0.02082599 -0.007827942 0.00490139 0.055085555 0.0075043445
-0.062966764 0.03211468 0.008858691 0.0030212086 -0.021435197 0.032375716 -0.026696594 0.027336696
0.023214454 0.038776997 0.004888391 0.05712796 0.0094285235 0.02780053 0.045376148 0.06034436
-0.035186492 -0.015994146 -0.008007877 0.04843766 0.0073504318 0.045697212 -0.04661893 0.0077931806
-0.005057865 -0.04073046 0.044536144 -0.020426005 0.0074050482 -0.009270544 0.03606536 -0.053141925
0.0070950277 -0.00398058 0.04807689 -0.0233476 0.03427945 0.03506619 0.03408845 0.010478044
0.068875216 0.03936962 -0.032969583 -0.036532406 0.042053934 0.020377662 0.04681603 -0.011608845
-0.039623182 -0.0037945064 0.025192302 0.042659886 -0.039855562 0.0030163766 0.006315009 0.031933654
-0.015950419 0.035890523 -0.029093584 -0.03737365 -0.0364531 -0.028082052 -0.051048666 -0.032137886
0.019771744 0.032368254 -0.037568178 -0.03249738 -0.038084902 -0.0054751113 -0.018290421 -0.031099305
0.0013151561 0.049960047 0.052474767 -0.012775903 0.0032202445 0.044473775 -0.014616829 0.030464385
0.024495747 -0.039568767 -0.027963761 -0.035572324 -0.015209556 0.028982017 -0.027788155 0.03431886
0.026238669 0.035829026 0.0018521731 0.003109696 0.053092536 -0.047552742 -0.03190789 0.05852813
0.0021841037 0.041138656 -0.011558131 -0.013804497 0.034755625 -0.026747309 -0.023477636 -0.02456129
00000000: f58f 613d 58db b0bb 72f7 f83c 3575 0dbd
00000010: ce66 65ba 7771 283d d2da 9dbc 107b 38bc
00000020: 4fa8 45bd b736 4c3d 97f6 14bd ecae c6bc
00000030: 1f61 e1bb bbc7 36bc 580a 4cbd c178 903b
00000040: 1474 583d 757b 8c3c 0bee 30bd fd4d 8d3c
00000050: 639c dd3c c9d9 943c c48c a9bc 9b77 5eb9
00000060: cacb 68bd 0620 e93c e1da eabc 7d7f aebc
00000070: 27b0 1fba 4318 c73c fe30 16bd 51d0 6c3c
00000080: 4fe9 1c3c ed45 d2bc a9d6 6d3d 3d57 973c
00000090: e276 023d 8bc6 1bbd cdcb e8bc 27f6 b4bc
000000a0: 9ff6 363c 1f2c d8bc a554 30bd 533c 223d
000000b0: 14da 58bd b03e 7e3c fc25 b03c 8063 f63c
000000c0: e2d3 8e3d 5cc5 44bc e2f2 a1bc 2057 b5bb
000000d0: 1335 9bbb d817 743d 7e55 063a 92ec 63bd
000000e0: f561 053d 2eea b2bc 8031 0c3d 4e5d 2e3d
000000f0: a8c4 023d a67b 39bd bf77 3bbd 6547 b03c
00000100: 84d0 23bb dc3e cbbc b17c 383c 7ffe 89bc
00000110: 85ef 063d 9c76 8fbb 99db 2a3d 99c5 8b3c
00000120: e669 e5bc 50c8 663d ade6 c73b 6589 babc
00000130: 014a 0cbd 71b3 a43c dbfb 98bc 7bc9 4ebd
00000140: 1e2b 9e3c 3917 3dbc 93d8 eb3c de0a c73b
00000150: 63db 97bc bc17 3b3d 65d4 65bd 158c cc3c
00000160: c72c a13c 7dc8 1f3d 4876 cd3c a967 a73c
00000170: 58fd 423b c7ae f33c 2c85 e33c 1113 0d3d
00000180: ce44 133c a440 9dbd 1642 2ebd 6c20 3c3d
00000190: 3fd1 21bc bc3c 0c3d 17d3 073d a0af d8bb
000001a0: 20c7 f33c f793 7aba 1e21 343d eda7 cabc
000001b0: c7c5 703d 6369 cdbc f232 2f3d 415a 13bd
000001c0: 8b44 2ebd 8363 02bd 235e b13b b608 7d3d
000001d0: 0908 86bc 7e14 b33c df69 663d 24c2 72bc
000001e0: a0a6 b43c b849 583c ad6a e1bb 8f1f 443d
000001f0: 9d26 f1bc 060b b43c 746c 5b3d 73e9 4cbd
00000200: cf21 77bc 6fb4 8d3d 09b4 12bd cf07 0b3b
00000210: a1b7 e0bc f65a 543c f879 0bbd 585f 80bc
00000220: 2de0 af3c 6fdc 69bd cb79 8e3c af3a 3dbd
00000230: 4703 57bd 0e0f 1cbb ffdf 1b3d d58b 74bd
00000240: dc62 13bd f9c7 353d d70a 13bd 449b aa3c
00000250: c540 00bc d79b a03b 64a1 613d 01e7 f53b
00000260: b8f4 80bd af8a 033d 0b24 113c 78ff 453b
00000270: de98 afbc 669c 043d d1b2 dabc 35f1 df3c
00000280: 3d2c be3c a1d4 1e3d cc2e a03b 02ff 693d
00000290: 187a 1a3c f0bd e33c 57dc 393d a62b 773d
000002a0: b61f 10bd 2806 83bc 7833 03bc 9166 463d
000002b0: e4db f03b 002d 3b3d 7ef3 3ebd f05d ff3b
000002c0: 72bc a5bb fcd4 26bd 886b 363d 7054 a7bc
000002d0: 0ca6 f23b 7be3 17bc 45b9 133d 59ab 59bd
000002e0: 687d e83b 866f 82bb 46ec 443d 7743 bfbc
000002f0: 9c68 0c3d 91a1 0f3d 55a0 0b3d 1aac 2b3c
00000300: 730e 8d3d 0a42 213d 1d0b 07bd 01a3 15bd
00000310: bf40 2c3d 0eef a63c 2ac2 3f3d 0633 3ebc
00000320: eb4b 22bd 41ad 78bb 1660 ce3c 22bc 2e3d
00000330: 963f 23bd 67ae 453b 23ee ce3b ddcc 023d
00000340: 74aa 82bc f101 133d ab55 eebc 1d15 19bd
00000350: d94f 15bd 550c e6bc 6818 51bd 04a3 03bd
00000360: 5af8 a13c 9394 043d 17e1 19bd f91b 05bd
00000370: eafe 1bbd 9068 b3bb cbd5 95bc f8c3 febc
00000380: 5161 ac3a e8a2 4c3d c8ef 563d 0552 51bc
00000390: bd0a 533b 222a 363d 6d7b 6fbc 7290 f93c
000003a0: 4eab c83c dc12 22bd 4214 e5bc 49b4 11bd
000003b0: 8031 79bc b26b ed3c fca3 e3bc ef91 0c3d
000003c0: 7af2 d63c 75c1 123d 9ec4 f23a 0bcc 4b3b
000003d0: 8f77 593d aac6 42bd d9b1 02bd 31bb 6f3d
000003e0: 2e23 0f3b 0281 283d 515e 3dbc 422c 62bc
000003f0: ea5b 0e3d 2c1d dbbc 2c54 c0bc c234 c9bc

conv_sequence.4.model.0.bias f4 [32]
-0.041024562 -0.036133464 0.030761514 0.048000593 0.056736514 0.0039914954 -0.019156374 0.008738318
0.045854412 0.043781146 -0.049492076 -0.019991938 -0.04647104 -0.04198992 0.048845068 0.065677956
-0.0046125986 -0.066734746 -0.025492353 -0.0394455 -0.03431029 0.028383773 0.05646082 -0.017973112
0.04428712 0.054470778 -0.04580227 -0.0014432061 0.0036986235 -0.008715826 0.010769535 -0.04401246
00000000: 5f09 28bd af00 14bd 92ff fb3c 459c 443d
00000010: 8c64 683d 17cb 823b d4ed 9cbc 2a2b 0f3c
00000020: d6d1 3b3d dc53 333d 34b8 4abd 22c6 a3bc
00000030: 6b58 3ebd 9ffd 2bbd c411 483d 2a82 863d
00000040: 4825 97bb 3aac 88bd 57d5 d0bc 9b91 21bd
00000050: f288 0cbd 1685 e83c 7643 673d 593c 93bc
00000060: 6966 353d c01c 5f3d 299b 3bbd f629 bdba
00000070: 9b64 723b d3cc 0ebc b472 303c 6946 34bd

conv_sequence.4.model.1.weight f4 [32, 32, 3, 3]
-0.03512531 -0.020573607 0.02925692 -0.0028713322 -0.041586008 -0.004562802 0.013809552 0.0024962616
-0.06335612 -0.021387368 0.007385527 0.025876319 -0.045784853 0.039613403 -0.039826833 0.0017820048
0.036250427 -0.008031527 -0.026763208 -0.021666355 -0.014040941 0.056243878 -0.025465328 0.0040673893
0.03691912 0.009068192 -0.00025801617 -0.06478478 0.0038319652 -0.025668003 -0.07336861 0.0017887254
-0.07787523 0.009725185 0.0044739493 -0.04176461 0.01016715 -0.05469606 0.025967078 0.010957634
-0.019730065 0.036936857 -0.033869192 0.022622447 0.020929867 -0.03210986 0.010582588 0.017517129
-0.04504475 -0.02702193 0.02577927 -0.046637118 -0.042296123 0.026793273 -0.07696536 -0.018663503
-0.0776776 -0.0385524 0.023448609 -0.031186907 -0.06322861 -0.008578686 -0.038118303 -0.048568394
0.040725518 -0.026624145 0.050517812 0.04559446 -0.04838532 -0.00448628 -0.02609571 -0.015607148
-0.019776538 -0.017128536 0.06616715 0.077058785 0.004998166 0.06914143 0.0071777706 0.06932559
-0.03075317 -0.029994901 0.029033786 0.052992556 0.014503871 0.003925806 0.021868745 0.020827293
0.015972788 -0.04832039 -0.006260999 -0.030334363 -0.033332434 -0.036082104 0.010287072 0.031406596
0.033090208 0.03322127 0.04439264 0.05370129 -0.03816195 0.04350921 -0.034929227 -0.040251322
0.03359593 0.010247061 -0.027380787 -0.044724327 0.030464454 0.025018163 0.023373289 0.047350924
-0.012246834 -0.02913345 0.027642827 -0.015895585 0.0064138686 0.06247299 0.07600617 0.069106005
-0.035532296 -0.003907886 0.008916624 0.030047795 0.03493403 0.010446248 0.040909283 0.059093926
0.0021386363 0.027053008 0.013798821 0.03562176 0.041187175 0.0439392 0.037096925 -0.035428032
0.0021125046 0.029950986 0.034792017 -0.039580017 -0.05285417 0.050649025 -0.02078779 -0.011840032
0.0015766305 0.047319267 -0.056923572 0.005203954 0.033377957 0.04336836 -0.0058160606 0.016684229
-0.005826498 0.033752516 -0.045052297 0.020822205 0.029686812 -0.035588473 -0.04326971 0.04499153
0.039459415 0.028999172 -0.005320444 -0.011708126 0.0060873562 -0.02051315 -0.057329766 0.028141025
-0.018342678 0.011717586 0.0020458372 0.01800176 0.075408675 0.0080271615 -0.0274223 0.08087776
-0.0012372183 0.059471823 -0.0010222765 0.049316943 -0.067896515 0.010025719 -0.029790409 0.013785867
-0.013142264 0.0028563917 -0.021443142 -0.025313713 -0.054840673 -0.0007770644 0.01148773 0.026737886
-0.014110276 -0.023043625 -0.036794916 0.021675501 -0.033789195 -0.010696771 0.044292282 0.02987141
0.038664747 -0.016399601 -0.019937392 -0.055676848 -0.03883638 0.002784264 0.033813186 0.028335046
-0.02083812 0.052262053 -0.00018827326 0.05050803 0.014319821 -0.0218402 0.02592255 0.046490323
0.040181004 -0.004412508 0.07614546 0.07040705 -0.019767229 -0.00828162 0.036136042 0.00047597894
0.06939511 0.0016824852 0.027354613 -0.02923689 0.0067513185 0.0286928 0.059805114 -0.048234142
0.05097979 -0.014587468 -0.025024196 -0.04003704 0.019480657 0.077023566 -0.037526555 0.058399
0.047130775 0.022608088 0.03588727 -0.040316492 -0.0016405031 -0.0068792035 0.05848497 0.00083218445
0.001002133 0.051048256 0.03012933 0.03149485 0.034911882 -0.014872464 -0.040016387 0.018218808
00000000: 8fdf 0fbd fb89 a8bc 35ac ef3c f62c 3cbb
00000010: 1756 2abd 8f83 95bb 7641 623c 5298 233b
00000020: dac0 81bd 9034 afbc 4a02 f23b 93fa d33c
00000030: e688 3bbd aa41 223d 7621 23bd 2992 e93a
00000040: 547b 143d aa96 03bc 843e dbbc a47d b1bc
00000050: fa0b 66bc fb5f 663d aa9c d0bc bc47 853b
00000060: 8138 173d c192 143c 5846 87b9 e2ad 84bd
00000070: b521 7b3b b445 d2bc 4842 96bd aa73 ea3a
00000080: 0c7d 9fbd 6256 1f3c 359a 923b 5e11 2bbd
00000090: 1e94 263c fa08 60bd e9b8 d43c a687 333c
000000a0: f2a0 a1bc 1a4b 173d 6cba 0abd b652 b93c
000000b0: 1d75 ab3c a185 03bd 9762 2d3c 1580 8f3c
000000c0: d880 38bd 185d ddbc 0c2f d33c 9006 3fbd
000000d0: b33e 2dbd 917d db3c 04a0 9dbd 34e4 98bc
000000e0: 6f15 9fbd 1fe9 1dbd 4c17 c03c af7b ffbc
000000f0: 007e 81bd 9e8d 0cbc f021 1cbd a7ef 46bd
00000100: cdcf 263d e11a dabc c4eb 4e3d 42c1 3a3d
00000110: af2f 46bd a501 93bb acc6 d5bc 20b5 7fbc
00000120: 6802 a2bc 2551 8cbc a582 873d ffd0 9d3d
00000130: a8c7 a33b 069a 8d3d 8133 eb3b 93fa 8d3d
00000140: 12ee fbbc deb7 f5bc 43d8 ed3c b90e 593d
00000150: a5a1 6d3c 0ca4 803b 1526 b33c 009e aa3c
00000160: 5dd9 823c 9aeb 45bd 1129 cdbb c57f f8bc
00000170: 9787 08bd d4ca 13bd 1b8b 283c 34a4 003d
00000180: 9989 073d 0713 083d 0fd5 353d e2f5 5b3d
00000190: b44f 1cbd b736 323d f311 0fbd 92de 24bd
000001a0: e39b 093d 4ae3 273c ac4d e0bc db30 37bd
000001b0: 9790 f93c e4f2 cc3c 5779 bf3c 0bf3 413d
000001c0: f2a6 48bc 46a9 eebc 3673 e23c 7537 82bc
000001d0: 6e2b d23b aee3 7f3d 1fa9 9b3d 7387 8d3d
000001e0: 508a 11bd b90d 80bb 0817 123c cb26 f63c
000001f0: fc16 0f3d bd26 2b3c 7e90 273d 790c 723d
00000200: 5d28 0c3b 459e dd3c 7314 623c 1fe8 113d
00000210: e2b3 283d 97f9 333d f2f2 173d fc1c 11bd
00000220: f271 0a3b c55b f53c 1382 0e3d a81e 22bd
00000230: 9d7d 58bd 5a75 4f3d 284b aabc b2fc 41bc
00000240: f1a6 ce3a d9d1 413d b128 69bd ee85 aa3b
00000250: 53b7 083d 05a3 313d a794 bebb 5dad 883c
00000260: 35ec bebb 1440 0a3d c288 38bd 5493 aa3c
00000270: c231 f33c 38c5 11bd 943b 31bd 0a49 383d
00000280: 32a0 213d ac8f ed3c 1e57 aebb 71d3 3fbc
00000290: 7278 c73b 320b a8bc 9ed2 6abd 0288 e63c
000002a0: 6243 96bc 1efb 3f3c 7413 063b 6d78 933c
000002b0: dd6f 9a3d 5b84 033c bba4 e0bc 3da3 a53d
000002c0: 282a a2ba ba98 733d e8fd 85ba 9000 4a3d
000002d0: 540d 8bbd ea42 243c 040b f4bc 1ede 613c
000002e0: a752 57bc 4d32 3b3b 87a9 afbc b45e cfbc
000002f0: 9da0 60bd e9b3 4bba 0837 3c3c 6909 db3c
00000300: c92e 67bc fcc5 bcbc 44b6 16bd d290 b13c
00000310: 8a66 0abd 8241 2fbc d36b 353d e3b4 f43c
00000320: ed5e 1e3d 7558 86bc be53 a3bc 680d 64bd
00000330: e512 1fbd 3378 363b b27f 0a3d e61e e83c
00000340: b4b4 aabc bc10 563d 386b 45b9 82e1 4e3d
00000350: af9d 6a3c 38ea b2bc 875b d43c a36c 3e3d
00000360: d694 243d cd96 90bb 27f2 9b3d 9231 903d
00000370: e2ee a1bc a2af 07bc 6303 143d d08c f939
00000380: 061f 8e3d d686 dc3a c816 e03c 3482 efbc
00000390: 2a3a dd3b 2a0d eb3c 35f6 743d 2a91 45bd
000003a0: 2fd0 503d 4600 6fbc 8bff ccbc e1fd 23bd
000003b0: e695 9f3c 88be 9d3d 72b5 19bd ca33 6f3d
000003c0: 330c 413d 9934 b93c 88fe 123d e822 25bd
000003d0: 2606 d7ba f16a e1bb f08d 6f3d f426 5a3a
000003e0: 015a 833a fa17 513d c9d1 f63c be00 013d
000003f0: c3ff 0e3d a3ab 73bc 39e8 23bd 9c3f 953c

conv_sequence.4.model.1.bias f4 [32]
0.04592313 -0.05277016 -0.04184171 -0.03694059 0.014316938 0.012859162 -0.06270537 -0.04204364
-0.05256939 -0.02642486 0.043399263 0.029356234 0.018549133 0.014499517 -0.046565007 0.061636444
0.052785452 0.026850926 0.05609662 -0.03023087 0.0018386638 0.009645889 -0.04613809 0.0015395097
0.0088046845 -0.020564845 0.037318777 0.042094614 0.054097287 -0.052842457 -0.056545395 -0.0012293565
00000000: e419 3c3d 8625 58bd 3762 2bbd 044f 17bd
00000010: 9791 6a3c 3caf 523c ac6b 80bd f435 2cbd
00000020: 0053 57bd f378 d8bc 6dc3 313d 7c7c f03c
00000030: 5af4 973c 628f 6d3c f3ba 3ebd 7f76 7c3d
00000040: 8f35 583d 79f6 db3c 92c5 653d bba6 f7bc
00000050: 52ff f03a ca09 1e3c 4bfb 3cbd 60c9 c93a
00000060: 8641 103c 9b77 a8bc 93db 183d 676b 2c3d
00000070: 1e95 5d3d 5571 58bd 259c 67bd 5c22 a1ba

conv_sequence.6.weight f4 [32]
0.92250097 0.99963325 0.9180704 0.95366013 1.0098863 0.9420914 1.052986 1.1611636
1.0554738 1.0865551 0.9410792 0.9767182 0.95983803 1.0473034 0.95280623 1.0472902
1.1114627 1.0649016 0.95402366 0.95219684 0.9534161 1.0536846 0.96106464 0.9182206
0.9731471 0.9225638 0.96790135 1.0704727 0.9612322 1.0997227 0.99404734 1.0031286
00000000: 0629 6c3f f7e7 7f3f a906 6b3f 1223 743f
00000010: f443 813f e72c 713f 3fc8 863f 02a1 943f
00000020: c419 873f 3d14 8b3f 91ea 703f 340a 7a3f
00000030: f2b7 753f 0a0e 863f 1ceb 733f 9b0d 863f
00000040: 6944 8e3f b24e 883f e53a 743f 2cc3 733f
00000050: 1413 743f 23df 863f 5508 763f 8110 6b3f
00000060: 2b20 793f 242d 6c3f 62c8 773f 4005 893f
00000070: 5013 763f b7c3 8c3f e379 7e3f 8566 803f
